GraphPredictor/models/model6.pt (torch, 31156 bytes, 8 tensors)

fc1.weight f4 [100, 5]
00000000: a954 fb3e 039d afbe 1763 b23e b327 a8bf
00000010: 2ac9 cf3e f773 743e 8dd6 7ebe 3378 81bf
00000020: 585d b0bf 0ca2 1b3f 4c06 8e3f 5f1a 853e
00000030: a79e b7bf 4455 923e 282d 6bbe da80 62bf
00000040: 7bff acbf eb34 ab3f 2d4d 6f3e 58a9 49be
00000050: 29b6 df3e 8ec8 85be 316f d03e 0865 9abf
00000060: 4f1d bcbe c38c 253f 3b68 a3be 4f51 623f
00000070: b5e4 b83e f988 c6be 2a67 b53f 3f35 62c0
00000080: e676 c83e 51df de3d 3a44 323e cd0f 2c3f
00000090: 6ec4 ca3f 93c8 8cbf 3934 9b3e dfd2 133f
000000a0: 0157 723f 19b7 f23e 8bf3 b9bf e884 68bf
000000b0: 90b6 813e 8c84 e83e c567 333f 82b3 053f
000000c0: de3e febe 5278 74bf d093 12be 3ff9 c4bf
000000d0: ca85 a43f 804c 4b3f 64dc 77bf 6d99 b7be
000000e0: 2076 00bf 1a13 613f 255e 9d3e 032e 7bbf
000000f0: b234 9cbf 1888 fcbc 0ee0 55be 3b3b c13d
00000100: ff4b fdbe 9cb3 c23e 390c 90be 66f5 d43f
00000110: 7237 bfbd 4e19 fbbe 0710 73bf fec9 563e
00000120: d957 493f 28f9 fcbc 537d 3dbf 2386 7d3d
00000130: 810a 7e3f ca48 9dbf 05a3 8abf 0a57 053f
00000140: 944d 9d3f 7e20 e0bf 00e1 023e 0684 80bd
00000150: e93e 333f 7566 07bf 672d bc3e d4d6 173d
00000160: af50 2b3d 48a2 5d3f 967d 16bf 0c7a 383d
00000170: 0ab4 26bd c1d1 94bd 7ea2 b6be 5e61 91bf
00000180: 5b16 d43e dabc ee3e f225 643f d72f 67bf
00000190: 3f4d 9c3f 8f18 f93e 0f6e 56bf c9f9 7a3d
000001a0: aa0a b2bf e462 a9bf 6887 913f f971 b0bf
000001b0: 9430 633e 0f28 1fbe 2f6a e5be a00a 853e
000001c0: 19ea ef3d ecb4 afbe c3e8 37bf 74c5 5d3f
000001d0: 388f 823f fc1c 013f 0724 7f3e 439d 21be
000001e0: d8c0 dcbd 937a 98bd b350 0f3f 6361 dd3e
000001f0: 9108 52bf 0273 0abe 54cc 2abf da54 8e3e
00000200: 7b11 053f db5d 3cbf 96c7 34bf 4af1 f9be
00000210: 3612 8e3f cc86 ecbe 0a43 8bbe 9d7f 02bf
00000220: a187 f23e 7509 48bf 6f1a 00bf f5e8 c0be
00000230: cf62 babf de4e aa3e dd1f 5cbe 600c 14bf
00000240: d453 4ebe 0136 c2be e480 71be 01aa 7cbf
00000250: ad99 433f 986e 40bf d452 0a3e 856a 803f
00000260: cedd 323d 2f73 70bf 1868 0cbf cb4b 8f3e
00000270: 23ef 3a3f 3f20 b43d c5fe 083f e945 f5be
00000280: 96b3 ea3f 94e5 01c0 09dd 15bf 1049 d93e
00000290: 4ddb 9abe b6f0 7f3e 6c36 c7bd b5eb 5abe
000002a0: 25b4 8cbf d468 70bd 9b08 cbbd a97a 9dbe
000002b0: 5999 99bd 477a 90bf d17b 3b3e 4f31 a63f
000002c0: 7b05 f23e d234 cebf a5d9 053b 641d 0d3f
000002d0: a288 38bf f6e1 b73e 0d91 7d3e 950a 79be
000002e0: 8620 99bf 0583 563f 78ce 13be fbed 553e
000002f0: ea32 93be 0f84 133f 9d56 b2bf 671c 8bbf
00000300: 3a07 0ebf 2ff1 45bf 6fb5 833f 89b4 08bf
00000310: 6560 853f c36e 2f3f 565a dc3d 454e 81bf
00000320: e6ee 423f d75b b13d 4d78 663f e186 9ebe
00000330: 41dd c7bf 7f61 f63f 6ff0 80bf 7b9b 11bf
00000340: 6c80 49be 28d2 a63e 496c 0640 5f1b 93bf
00000350: 7cd6 febe e0fa 1abd ab8a 073f baa6 ac3e
00000360: 2af2 e13f 9f0b fbbf eece 25bf 3a70 df3e
00000370: f4c8 a93f 1d02 24bf 7d56 05be 31e4 76bd
00000380: 4e2e 233f 2491 32bf f0f2 3dbf 7d1b d2be
00000390: 372d 08bf f092 5b3e befd 823f d889 1c3e
000003a0: 0783 113e b067 853e d160 953e 9e7b 44bf
000003b0: 8da1 443f f5fb 133f b5c3 a3bf a2e0 cc3e
000003c0: 69c9 95be a531 78be bf28 0740 cc9b ee3d
000003d0: 8622 84be 7253 bb3f bae8 423f deb1 eabe
000003e0: a551 98bd 8827 963e dd61 54c0 bc07 a5bf
000003f0: aa7a 8c3f 3dd6 1f3e 1ae3 79be 5fad a6bf
0.49088028 -0.34299478 0.34841225 -1.3137115 0.40583163 0.23872362 -0.24886532 -1.0114807
-1.3778486 0.6079414 1.1095672 0.25996682 -1.4345292 0.28580678 -0.22966444 -0.8847786
-1.3515466 1.3375524 0.23369284 -0.19693506 0.43693665 -0.26129574 0.40709832 -1.2062082
-0.3674111 0.6466791 -0.3191546 0.8840532 0.3611199 -0.38776377 1.4172108 -3.5345
0.39153212 0.10882438 0.17408839 0.6721161 1.5841196 -1.099871 0.3031328 0.5774364
0.9466401 0.47405317 -1.4527448 -0.908278 0.25334597 0.45413625 0.70080215 0.5222703
-0.4965734 -0.95496094 -0.14314198 -1.5388564 1.2853329 0.79413605 -0.96820664 -0.35859242
-0.50180244 0.8791977 0.3073589 -0.98117083 -1.2203581 -0.030826613 -0.20886251 0.094351254
-0.49472043 0.38027656 -0.28134325 1.663739 -0.09336747 -0.49042743 -0.9494633 0.20975491
0.7864967 -0.030880526 -0.74019355 0.0618955 0.9923478 -1.2287838 -1.0831 0.52085936
1.22893 -1.7509916 0.12781143 -0.062751815 0.7001787 -0.5289071 0.3675339 0.03707011
0.041824993 0.86575747 -0.5878538 0.045038268 -0.040699042 -0.0726657 -0.35670847 -1.1357839
0.41423306 0.46628457 0.891204 -0.9030737 1.2211074 0.4865155 -0.83761686 0.06127337
-1.3909504 -1.3233304 1.1369448 -1.3784782 0.221865 -0.15542625 -0.44807574 0.2598467
0.117145725 -0.3431772 -0.7183954 0.86629415 1.0199957 0.5043485 0.24916087 -0.15782647
-0.107789695 -0.07445254 0.5598251 0.43238363 -0.8204432 -0.13520434 -0.6671803 0.27799112
0.519798 -0.7358071 -0.70617044 -0.488169 1.1099308 -0.46196592 -0.27199584 -0.5097597
0.47369102 -0.7813943 -0.50040334 -0.37677732 -1.4561404 0.33263296 -0.2149653 -0.5783138
-0.20149165 -0.37931827 -0.23584324 -0.98696905 0.76406366 -0.7516875 0.13508159 1.0032507
0.04366856 -0.93925756 -0.54846334 0.27987513 0.73021144 0.08795213 0.5351375 -0.479049
1.8336055 -2.0296373 -0.585404 0.42438555 -0.30245438 0.24994168 -0.09727177 -0.21378978
-1.0992476 -0.058693722 -0.09913751 -0.30757645 -0.07499952 -1.1287316 0.18308951 1.2983798
0.47269806 -1.610987 0.0020423916 0.5512297 -0.72083485 0.35914582 0.24762364 -0.24320443
-1.196305 0.8379367 -0.1443423 0.20891564 -0.28749782 0.5762338 -1.3932682 -1.0868043
-0.55479777 -0.7732114 1.0289744 -0.53400475 1.0420042 0.68528384 0.10759418 -1.0102011
0.7614578 0.08660095 0.90027314 -0.3096228 -1.5614396 1.9248503 -1.0073375 -0.5687787
-0.19677895 0.32582211 2.1003592 -1.1492728 -0.49773014 -0.03783691 0.52945966 0.33720952
1.7652028 -1.9612921 -0.64768875 0.4364031 1.3264451 -0.64065725 -0.13021274 -0.060276214
0.6374253 -0.69752717 -0.7419882 -0.41036597 -0.5319399 0.21442771 1.0233686 0.15286958
0.14210139 0.2605567 0.29175428 -0.76751125 0.76809007 0.5780633 -1.27941 0.4001513
-0.29255226 -0.24237688 2.111862 0.1165081 -0.2580759 1.463484 0.7613636 -0.45838827
-0.074374475 0.29327035 -3.318473 -1.2892985 1.0974934 0.15609069 -0.24403039 -1.3021659

fc1.bias f4 [100]
00000000: 2e6b 963e 00ca 18bf e95f 5940 8451 4040
00000010: 7058 29bf 60fc 9b3f 75eb abbf c603 a03f
00000020: e7d5 93c0 a21a 6640 4db3 d43f b4d3 4340
00000030: 64d7 8ec0 80d4 913f 27b1 ba3b 56ba 4cc0
00000040: 66dc 5dc0 5116 a9be 6c0a abc0 e91f 563f
00000050: 046d a540 fc59 9c3e bffe 29c0 5756 3a3f
00000060: 8c5d 993e 721f d63f a775 dfbf bd36 24c0
00000070: 3d83 97c0 a1f5 82bf 7a79 ccbf 05c7 bf3f
00000080: 064d 1940 a4c2 c4be 7c99 d9c0 907c 0440
00000090: ee62 da3f fbf1 3bbc 0428 f83f 03bb 38c0
000000a0: 4bf0 77bf 6a1a 34bf 135e f7be 02a6 073f
000000b0: 73e2 17c0 a4eb d23f 3401 adbf 1557 9fbf
000000c0: a9d5 a73f d701 38bf bc69 74c0 1c17 a3bf
000000d0: 4785 a6be dc82 d83f bf4c 5cbf e379 cebf
000000e0: 79c7 02be 0f1b 80bf ad94 a8bb 1499 b0c0
000000f0: 66a1 21c0 5f34 71be 23a7 9440 e6da 4ec0
00000100: 7079 45c0 bc2d d1be 38f1 fd3f 6390 043f
00000110: 3ab2 fa3f 0fbb 6ebf f564 1dbf 2c36 15bf
00000120: acdb 913e 9836 00c1 bdcb 55c0 6383 3240
00000130: 1e74 27be 382d 2d3e 65f0 99bd 3791 5cc0
00000140: 6181 f3bf eb72 a2bf 34d4 7bbf 033c 7e3f
00000150: 8ae5 92be f3ad c43e 36cc 19c0 6b65 0abf
00000160: 22b2 5640 e833 9e3e 424b 10c0 8a19 fbbf
00000170: 5c52 07be 5cb3 26c0 b551 3c3e e0be 6fc0
00000180: 3fcd a4c0 5ee3 37c0 ec5e 25c0 935c 5540
0.29378647 -0.5968323 3.396479 3.0049753 -0.6615057 1.2186394 -1.3431231 1.2501152
-4.619861 3.5953755 1.6617218 3.0597963 -4.463793 1.1392975 0.0056973877 -3.198873
-3.466577 -0.3302484 -5.345022 0.8364244 5.1695576 0.30537403 -2.6561735 0.72787994
0.29954183 1.6728346 -1.745778 -2.565841 -4.7347703 -1.023121 -1.5974572 1.4982611
2.3953261 -0.3842975 -6.799986 2.0701027 1.7061441 -0.011471267 1.9387212 -2.8864143
-0.9685103 -0.70352805 -0.4831396 0.5298768 -2.3731964 1.6478162 -1.3515992 -1.244845
1.3112079 -0.7187781 -3.8189535 -1.2741427 -0.32523558 1.6914935 -0.86054605 -1.6130947
-0.12771405 -1.0008258 -0.0051446767 -5.5186863 -2.525476 -0.23555134 4.6454024 -3.2321105
-3.085537 -0.40855205 1.9839239 0.51782817 1.958564 -0.9325418 -0.61482173 -0.58285785
0.2848791 -8.013329 -3.3405602 2.7892692 -0.16352889 0.16911781 -0.07516555 -3.4463632
-1.9023858 -1.269132 -0.9837067 0.9931032 -0.2869075 0.38413963 -2.403089 -0.54061
3.3546224 0.30898976 -2.2545934 -1.9617169 -0.13215011 -2.6046972 0.18390544 -3.746025
-5.1500545 -2.8732524 -2.5839186 3.3337753

fc2.weight f4 [50, 100]
00000000: b4ec 67bf 4025 9ebe c5eb 8abd 87f1 2c3e
00000010: a2fc d1bd bbce 53bf 5363 2fbd c443 663d
00000020: a6c5 febe d36d 063f b9fc 763d 8bef 793f
00000030: 7af8 0d3f bf19 433d a49e 71be cbd0 78be
00000040: 9d59 9ebe 65a8 94be 7ec6 02bf 305b 55bf
00000050: e38c 773e 3bc7 f7be 6fcc f9be 6c0c 1fbf
00000060: 4380 1dbe 2eaf 0c3e 803d 3c3f a833 d0be
00000070: 45fa 1e40 ab2d 47bf 9933 a3be d47e 333e
00000080: 62e9 fd3e df30 d4bd 736b a9be d1ab e6be
00000090: a935 d4be d6f9 0ebf 0fbc 87be 7659 b93e
000000a0: 06d6 22bf 73d2 51be b2ef 4a3f 33b5 14be
000000b0: 38d1 883e 50a5 17be 1dfe 64be 682b 9f3d
000000c0: 965c 9ebd 195e 653f ea12 79bd e169 89be
000000d0: a763 33be c4b5 15bf 3b13 1bbf 8dba 58bd
000000e0: 17de 4fbf 0652 3ebe 1d48 5dbf c35d 14bc
000000f0: 30dc d03f db61 a6be 2158 dfbf e632 2bbe
00000100: 04cc 28bd b7fa 07bf 3339 53be 3bbe cdbd
00000110: 4569 bebe 1c64 0ebf c31c 613e 461f 3cbf
00000120: 9516 d7bf 2200 ed3e f985 7b3e 3fb4 1abe
00000130: b0ad e03d 5095 1cbe 0929 ae3d bda3 84be
00000140: a233 0abf 2cab 04bf d87e 083e c00a 07be
00000150: 9fa2 4dbf 7d10 9fbd 6346 35bd 4c73 c4be
00000160: a311 93bf b899 2dbf 4127 36bf 26c1 e0be
00000170: 6ddd cebe c849 4ebe 3aa3 5ebf e23a 0abf
00000180: f085 3abe f130 9abd 4552 b53e 0605 ac3b
00000190: 67fc 70c0 28a0 2fbe 7784 ae3e c51b 31be
000001a0: 03a8 2bc0 62ee 31bf e533 cfbf dce9 d23f
000001b0: 6e60 c1bf fcd9 45bf 3df2 92bf 1572 edbf
000001c0: fa71 52bf d11b 6abf f969 67c0 1030 6a40
000001d0: 36c9 96c0 c800 683f 050d fcbe d26a 5c40
000001e0: 2626 d440 eae0 c63f aa8d 49c0 40f7 8fbf
000001f0: 9a6e 56c0 9bf1 7240 27d9 b9c0 a025 b2bf
00000200: 6d0b 0b40 8dfc db3f 934c f3bf 9746 3cc0
00000210: 5e93 5740 5718 24c0 a60e 73be 18f1 77c0
00000220: ead5 f1bf 9821 ecbf dd9a 64c0 2082 2e3e
00000230: f540 8d40 056b f23f 3d37 843f f424 8240
00000240: 5770 acbf 908a 413f ede3 adbe 34e9 a9bf
00000250: fd79 b63f ca63 2e3d 4fc4 2640 7209 46c0
00000260: 98ce 19bf fb21 c340 553c 66c0 c6b5 6b3f
00000270: 0c8a f63e 2159 e63f fac8 26c0 c002 78c1
00000280: 9bed 8b3f 9e5a 1cc0 f46f 0bc0 2111 3bc0
00000290: 8004 f0bf 9e00 41bf 40cc 9240 2272 3ac0
000002a0: 51da 45c0 e8f5 3dc0 974d 0cc1 c259 94c0
000002b0: 845a 18bf 8899 fabe 60db 7ec0 d0fa e2be
000002c0: 3637 4f3f 2316 a13f 00c6 d4bf 8f1f 413f
000002d0: f334 29c0 692f 82bf c4f4 10c1 55ae 0ec0
000002e0: 9f85 cabf 3b8d ac3d c5d5 6cc0 8269 25c0
000002f0: 6dc5 b1c0 5574 89bf 1e04 0b3f 5b15 ebbf
00000300: 9c8d 58be fb12 b7c0 d5ab ac3f 52b6 f3bf
00000310: 76b1 ed3f e3f2 a03f 7e7f 0ac1 df3b 14c0
00000320: b964 4e3f 0483 793f fab0 a4be c139 9bbf
00000330: f6fc 113f 090a fd3e 027a 6e3e 39ed 753f
00000340: cb19 553e 3923 243e 6a05 9d3f 9ac4 efbd
00000350: a7b6 1140 80ce b9be 7e94 8ebf 3e16 a13e
00000360: e2b7 0dbf a53b d73f 1e2b 9bc0 2eee 0c3f
00000370: d0da 3dbf b310 1abf 5c87 a6bf a903 85bf
00000380: 76e9 ef3e cded 25c0 a9b8 4440 e346 7fbf
00000390: db89 a63f 3fd1 3c3e 7043 3340 1e3d 28bf
000003a0: 56ba af3f 3907 86be bc76 21c0 7910 8c3e
000003b0: 11db c03f c2ba 703f 5f4c 24bd 3ed2 7dc0
000003c0: ab03 b83f cf7b f5bf 7a1b f73e 077e b8bf
000003d0: 5186 a63e e033 de3e eb92 ccbf edbd 0e3f
000003e0: 90a9 953f 9482 423f bf10 45bf ec38 dc3d
000003f0: b6af 78bf 4938 bcbe adc1 1640 5eb0 963f
-0.90595555 -0.30887794 -0.06783251 0.1688901 -0.10253264 -0.8273732 -0.042819332 0.05621697
-0.4976017 0.5251133 0.06029961 0.9763114 0.5545727 0.047631975 -0.23595673 -0.24298398
-0.30927745 -0.29034725 -0.51084125 -0.83342266 0.24174838 -0.48394188 -0.48788783 -0.6212833
-0.15380959 0.13738701 0.7353134 -0.4066441 2.4840252 -0.7780406 -0.31875303 0.1752885
0.4959212 -0.10360884 -0.3308979 -0.4505296 -0.4144719 -0.5584997 -0.26510665 0.36201066
-0.63607824 -0.20490436 0.79271996 -0.14522247 0.2672212 -0.14809155 -0.22362562 0.07771951
-0.07732503 0.89596707 -0.060809053 -0.26838592 -0.17518483 -0.5848048 -0.6057622 -0.052912284
-0.8119826 -0.18585977 -0.8643816 -0.009055558 1.6317196 -0.32496533 -1.744877 -0.16718635
-0.04121019 -0.53116935 -0.20627289 -0.10046049 -0.3718969 -0.55621505 0.21983628 -0.7348522
-1.6803766 0.46289164 0.24562825 -0.15107821 0.10970628 -0.15291333 0.085039206 -0.25906172
-0.53985035 -0.5182369 0.13329637 -0.13187695 -0.80326265 -0.07766817 -0.04425658 -0.38369215
-1.1489757 -0.6781268 -0.71153647 -0.4389736 -0.4040331 -0.20145333 -0.86967814 -0.539961
-0.18215156 -0.07528866 0.3541433 0.0052496223 -3.7654054 -0.17150939 0.34085438 -0.1729575
-2.6821296 -0.6950437 -1.6187712 1.6477618 -1.5107553 -0.7728574 -1.1480175 -1.855044
-0.82205164 -0.91448694 -3.615843 3.6591835 -4.712062 0.9062619 -0.49228683 3.4440198
6.629657 1.5537388 -3.1492715 -1.124733 -3.3505006 3.7959964 -5.807758 -1.3917732
2.1725724 1.7186447 -1.9007744 -2.9418085 3.3683696 -2.5639856 -0.23736057 -3.8740902
-1.8893406 -1.8447752 -3.571952 0.17041826 4.4141793 1.893891 1.0329357 4.067011
-1.3471783 0.75602055 -0.33962956 -1.3274293 1.4255978 0.042575635 2.6057317 -3.0943265
-0.6008086 6.097898 -3.5974324 0.9207424 0.48152196 1.799595 -2.6060166 -15.500671
1.0931886 -2.4430308 -2.178708 -2.9229205 -1.8751373 -0.75391567 4.587433 -2.913216
-3.09145 -2.968134 -8.768943 -4.635957 -0.59513116 -0.4894526 -3.9821396 -0.4433198
0.8094362 1.258488 -1.6622925 0.7543878 -2.6438568 -1.0170718 -9.059757 -2.2293904
-1.5822028 0.08425375 -3.7005475 -2.5845647 -5.55535 -1.0738627 0.5430316 -1.8365892
-0.2114777 -5.721067 1.3489939 -1.9040015 1.8569782 1.2574123 -8.656126 -2.3161542
0.8062244 0.9746554 -0.32166272 -1.2127 0.5702661 0.4942172 0.2328873 0.960651
0.2081062 0.16029061 1.2267277 -0.11707421 2.2767732 -0.3629036 -1.1139066 0.31462282
-0.5535871 1.6815077 -4.8490133 0.55050933 -0.74162006 -0.6018173 -1.3010058 -1.0391742
0.46857804 -2.5926392 3.0737708 -0.9971754 1.301082 0.18439196 2.800991 -0.6571826
1.372874 -0.26177385 -2.522872 0.27356318 1.5066854 0.9403497 -0.040111896 -3.9659572
1.4376119 -1.9178408 0.4826315 -1.441346 0.3252435 0.43398952 -1.5982336 0.55758554
1.1692371 0.75980496 -0.7697868 0.107530445 -0.97143114 -0.36761692 2.355571 1.1772573

fc2.bias f4 [50]
00000000: f0ae 1ebf c249 a53f a0c9 3940 699e 8cbc
00000010: 4913 b23f 51ad 183f 8b6b 15bd 55d9 28c0
00000020: 8664 cbbf 2b88 2d40 4e4f ce3f dfca 6fbd
00000030: 0b0e dabe 0254 093d 3e50 6f3f 3488 bdbd
00000040: 3417 e23d 0710 f03f d38b 1bc0 1f63 1c3e
00000050: feea de3d 0789 2d40 fc7d c5bd 5808 933e
00000060: f073 d63e d942 213f e6b1 953d f031 debd
00000070: c6cc 1fc0 08af 063c fcc6 2bbd 4969 75be
00000080: f4a2 eabe 3a6b 0340 6d77 3e3f dedc d9bf
00000090: 4db9 753e 2e86 223f b0da cbbf d3cf 0ebf
000000a0: d310 473e 9ae0 093f e3e2 053e 84cd 2f3f
000000b0: 352a cebd c4a2 f1bd b69d bb3e 375e 993e
000000c0: 2faa a7be db90 88bc
-0.61985683 1.2913134 2.9029312 -0.01716538 1.3912135 0.5963946 -0.036479514 -2.638265
-1.5890052 2.711436 1.6117952 -0.058543082 -0.4258884 0.03352738 0.93481815 -0.09254494
0.11039582 1.8754891 -2.4304092 0.15272187 0.10884665 2.7114885 -0.0964317 0.28717303
0.41885328 0.62992626 0.07309322 -0.108493686 -2.4968734 0.008220442 -0.041937813 -0.23965944
-0.45827448 2.0534196 0.7440098 -1.7020528 0.23996468 0.6348599 -1.5926113 -0.55785865
0.19440012 0.5385834 0.13074832 0.68672967 -0.10066644 -0.11798623 0.3664376 0.29954693
-0.32747027 -0.016670635

fc3.weight f4 [25, 50]
00000000: 2b0b 1f3f db59 8fbf 374e 53bf ac3a 903d
00000010: 3bd1 fa3e 4f5a 37c0 2c5b 0cbd c2de dc3f
00000020: fa3e 52bf b4fa a3c0 c4aa 5cbf 7363 d5be
00000030: 4a80 07be 0bfb b3bf 4894 a140 cba7 86bd
00000040: d51e 633e d30c 2640 7d42 103f 7fec 7dbe
00000050: 6df6 b53e 3d13 39be 4d17 a8bd d448 a6be
00000060: 26f8 ff3e c67b 96bd 28cb d73e cadc 0fc0
00000070: 45b0 b93f 9e22 d23c 20c5 24bd bd5d 4940
00000080: cd95 47bf 1cc0 74c0 33f8 c7bf bc39 0cbf
00000090: d7eb 9b3f 124a 983f 656a e4be 446e 0840
000000a0: 7d99 56be 740e 2fc0 dd22 733f 0422 1b3d
000000b0: c1d7 2c3d 25bc 9e3d 9855 93be f69e aebf
000000c0: 6d90 12bf f285 cbbc 1f23 463e add8 613f
000000d0: 4ac2 bebf f0cc ab3d 07ce cbbf 0022 4dc0
000000e0: 0a38 5fbd 7e1b 5c3f e34f 16c0 6341 14bf
000000f0: 63c5 2cbf a109 4abd 0d13 273e f13e 97bf
00000100: 01b8 58bd 37d6 0bbe 9067 99bf 56e0 cebf
00000110: fb47 c13e 8387 c5be 2f6e 0c3e 9a55 21bf
00000120: 24fe eabd 014a bfbf 4f4c 263f afc4 dbc0
00000130: 539e 9d3e 85b1 b6bf 4859 fb3f 2a84 f83c
00000140: affa e33d 4eaf 77be ab68 8ec0 7e06 07c0
00000150: 0efa 74c0 a8a9 cdbe ec74 f43e 25aa bc3d
00000160: d029 75bf 6de2 0b40 05c8 38c0 13da 1140
00000170: 9dda c73f 5352 b53f 1770 98ba 8907 493d
00000180: 2760 ccbf 5984 23bf b4e6 e7bf bea0 313e
00000190: 0a80 853e 2418 1fbf 7f25 c73e a183 da3d
000001a0: 8a4f bbbd 50b5 8b3d 0639 4d3e 4a0f b63e
000001b0: bad0 f4be 13c2 3ebe 47de 943e d142 33be
000001c0: 98b3 0ebb 5619 f4bc 481c e83e 00c8 4e3b
000001d0: 119e c53e 839e 38bf 29c9 603d e8c9 3cbd
000001e0: 052f 693d d6cd 2bbf 361d a2bb 22e1 01c0
000001f0: 5ef8 12bf 9910 09bf 3252 eabc d1d0 94bf
00000200: 123e 933e 33c0 1b3c 8d31 8f3d 2a19 ec3d
00000210: fc59 a03d e181 21bf 8e58 5cbb b15f 54c1
00000220: 5a57 bc3e 8bd5 403f 111c bebe 99c9 91bf
00000230: 649f 4c3e 046d 863f 81a9 19be f645 2d3c
00000240: f2c3 6dbd b777 24be 83e6 553e 6fe9 babd
00000250: 79e0 7abe 8fd0 aabd b04a 1bbf c009 e63d
00000260: 3989 efbf 16c3 eebc 5af5 5dbe a675 75bf
00000270: 013c 9fbd 04e7 bbbf 6a92 dabd 6b6d d3c0
00000280: 088c e3bf 6c3c 6740 1236 d8be f5d3 2b3d
00000290: a2f1 12bf 8a18 043d 8213 f7bf 4480 8e3e
000002a0: 9fd0 b5be b929 fe3c bc6a 54be e9d7 f5c0
000002b0: f852 8e3d 2a2d 31c1 b339 203f 6de6 84be
000002c0: 2869 67be 188d aebf 682b 1fbe 30d0 4a3e
000002d0: 3e4c bc3d 831e b1c0 d155 f73d 77f7 89be
000002e0: e310 ecbe 78c3 14c0 3faa 7dbd da9e 34be
000002f0: b2e5 e3bf eb82 9ebd 1b13 33bf 5b49 3a3c
00000300: eba7 fabf 201d 81bf d3b6 20be 054a c5bc
00000310: 9762 6ebf 9272 edbe dcc0 b8bf 7dd5 293e
00000320: 40af ec3e 0d8b 2fbd 703e dcbf 0730 cebc
00000330: c2e6 77bf e33c bfbc 41d6 e13c 01d8 dc3d
00000340: 4208 49bf 1c1b c2c0 388a 153e f7f6 0e3f
00000350: 5ea2 f8bd 88ce 303f 0a9f 48bd a5b6 1a3c
00000360: 1fae 873f c2ec df3f 632b 453f e6e9 45bf
00000370: 4765 46bd b7bc 48be 1e7f 0ebc 527f 19c0
00000380: b317 313f e3ff 2ec0 a0a8 6fbf b3d6 c33e
00000390: 094e c3bf c830 00be 67c1 a03d 288c fcbf
000003a0: d250 963f 82da eebf 697c 8dbf 87ff 20c0
000003b0: 82ec 24bf 508a 12bf e8d4 1f3f b5df 75be
000003c0: 74ab 00be 1ba4 11c0 6973 b3bf 77c6 4cbe
000003d0: d172 e0bc d9cc 913d 6245 1bbf 997c f9bd
000003e0: 30f3 4c3e aad4 013d 0a0c e4be 00eb 40be
000003f0: 7498 d0be b44a 033d c8bc 823e 4821 c9be
0.62126416 -1.1199297 -0.8254122 0.07042441 0.48987755 -2.864887 -0.034266636 1.725548
-0.82127345 -5.1243534 -0.8619807 -0.41677436 -0.13232532 -1.4060987 5.0493507 -0.06574973
0.2217973 2.5945327 0.56351453 -0.24797247 0.3553957 -0.18073745 -0.08207569 -0.32477438
0.4999401 -0.07347827 0.42147183 -2.247851 1.4506918 0.025651272 -0.040227056 3.1463463
-0.7796295 -3.8242254 -1.5622619 -0.54775596 1.2181348 1.1897604 -0.44612423 2.13173
-0.20956989 -2.7352571 0.9497507 0.037874237 0.042197946 0.077507295 -0.2877624 -1.3642261
-0.57251626 -0.024844144 0.19349335 0.88221246 -1.4903042 0.08388698 -1.592225 -3.2052002
-0.054496802 0.8597945 -2.348626 -0.5791227 -0.6748869 -0.04932559 0.16315861 -1.1816083
-0.052909855 -0.13655935 -1.198473 -1.6162212 0.3775023 -0.3857995 0.13713907 -0.6302124
-0.11474255 -1.4944459 0.6496019 -6.867759 0.30784854 -1.4272925 1.9636621 0.030336458
0.111317985 -0.24187967 -4.450277 -2.1097713 -3.8277621 -0.401685 0.47745454 0.0921214
-0.95766926 2.185695 -2.8872082 2.2789352 1.561359 1.4165748 -0.0011630085 0.04907945
-1.5966843 -0.6387382 -1.811728 0.17346475 0.2607425 -0.6214621 0.38895795 0.106696375
-0.0914603 0.06821692 0.20041284 0.3555854 -0.47815496 -0.18628721 0.29075834 -0.17505957
-0.0021774527 -0.029797237 0.45334077 0.0031552315 0.38597158 -0.7211687 0.05487934 -0.04609099
0.056929607 -0.67110956 -0.00494733 -2.029366 -0.5741023 -0.5354095 -0.028603647 -1.1626226
0.28758293 0.009506273 0.06991873 0.11528237 0.07829663 -0.63088804 -0.0033622119 -13.273362
0.36785394 0.7532584 -0.37130788 -1.1389648 0.19982678 1.0502019 -0.15006067 0.010575762
-0.058048196 -0.16061293 0.20888714 -0.09126555 -0.24499692 -0.08340561 -0.6066084 0.112323284
-1.8713752 -0.029145759 -0.21675625 -0.9588264 -0.07775117 -1.4679875 -0.106724575 -6.6071067
-1.7777109 3.6130629 -0.42228752 0.041950185 -0.5739995 0.032249965 -1.9302828 0.27832234
-0.35510728 0.031025754 -0.20743841 -7.682606 0.06949419 -11.073526 0.6258804 -0.2595705
-0.22598708 -1.3636808 -0.15543902 0.1980598 0.091942295 -5.5349746 0.12076915 -0.26946613
-0.46106634 -2.3244305 -0.061929937 -0.17638722 -1.7804472 -0.07739814 -0.6995103 0.011370028
-1.9582494 -1.0087013 -0.15694742 -0.024083147 -0.93119186 -0.46376473 -1.4433856 0.16585346
0.46227455 -0.04285722 -1.7206554 -0.025169386 -0.96836483 -0.023344463 0.027567985 0.10783387
-0.78528225 -6.0658092 0.14603508 0.5584559 -0.12140344 0.6906514 -0.048979796 0.00944296
1.0600013 1.7494128 0.7701933 -0.77310026 -0.04843643 -0.19603239 -0.008697299 -2.398396
0.6917679 -2.734368 -0.93616676 0.3824974 -1.525819 -0.12518609 0.078493886 -1.9730272
1.1743414 -1.8660433 -1.1053592 -2.5155962 -0.6442338 -0.572423 0.62434244 -0.24011119
-0.12565404 -2.2756412 -1.4019595 -0.19997583 -0.027398499 0.0711915 -0.60652745 -0.12181968
0.20014644 0.031696953 -0.44540435 -0.18839645 -0.40741313 0.032053664 0.25534654 -0.39283204

fc3.bias f4 [25]
00000000: 4eb6 6a40 77be 0740 96b9 8abf 09d3 fa3c
00000010: 3499 933f e4fa 1bbf 738c b93f d5bc 21c0
00000020: 2939 0b3d 3977 0c40 04ea c6bf b1e5 b53e
00000030: 155d 293f 58c2 3c40 8ecd c83f 36e5 883e
00000040: 0ad6 bbbf 2a63 89bf 9440 bb3e 227d 0fbf
00000050: 043f 25c0 ad81 64bf 9c24 1cbf 6a06 62bf
00000060: 0486 9740
3.667377 2.121 -1.0837886 0.030618208 1.1531129 -0.60929704 1.4495987 -2.5271504
0.03399006 2.1947768 -1.5540166 0.35526803 0.66157657 2.9493618 1.568773 0.26737374
-1.4674695 -1.0733387 0.36572707 -0.5605031 -2.5819712 -0.8926037 -0.6099336 -0.8829104
4.7351093

fc4.weight f4 [5, 25]
00000000: 896b 083d 474e 9fbd 2fc6 c03e fd3b 83be
00000010: 9c51 b43d ae41 8dbe 692f 9bbd df7e 71be
00000020: 3a4c fc3d cac5 c5bd feb4 0cbf cff8 0abe
00000030: 8516 2a3e a7ed d6bd 3918 113e 17bc e33e
00000040: 1bd4 3cbe 4f33 c83b d593 0dbe 3035 963c
00000050: eda6 333e 80a8 c43d 47a7 6c3d 3719 513f
00000060: eaa5 03be 61b4 423e 9d18 a7be cb56 a23e
00000070: a514 06be 71b6 9b3e a306 1cbe 22ee 54be
00000080: 4f43 80be b481 d6bd 44a8 aabe e24c 3ebf
00000090: 1e16 5bbe 84cc 8b3e a783 47be 2b3d b53e
000000a0: 821e 4b3f 2dc5 9d3e b2e0 a9bd eddb 91be
000000b0: b1c7 b13c fe76 d93e 4f20 303e 8376 853e
000000c0: 700a 353f cde0 f3bd a0ef d23e 5620 35bf
000000d0: 9ff1 5c3e 739c 1ebd 3d6f 153f c7e9 923e
000000e0: 726d cabe d36e 81be 99e2 d7bd 232f 1ebf
000000f0: bb16 0fbf f4a2 a9be 58a6 c53e 75ed 8fbe
00000100: 5146 183f 3847 913f ddb4 9f3d fc99 3bbe
00000110: cd84 f5be 4a00 5e3c 5f66 433f d938 893e
00000120: ec0d 063f 68ff c03f c223 4cbe d57b 363f
00000130: 4290 a0bf a8cd 6b3d cf96 aa3e 70eb 6f3f
00000140: 8f88 023f 0773 22bf d871 7bbe 5637 41be
00000150: a80c 77bf 6cce a4be 907f f7be 33e8 083f
00000160: ddf9 bfbe da03 603f 50ae 1840 1683 d0be
00000170: 7064 98be 6cee 3fbf 9b08 3dbc 0cab 923f
00000180: 0a4c c83e e370 5d3f 1967 2340 b3ec 97be
00000190: a860 8c3f 2af4 fdbf ad40 25be 4e8d 273f
000001a0: 5348 ae3f 3847 db3d a604 71bf 9998 62be
000001b0: 532c 853d ef2a acbf 9b9d 213e 5765 2ebf
000001c0: d1fc 353f 8dc5 fabe deab 973f c067 7740
000001d0: ad15 a3bf 80ed d9be 050d 8cbf 78f2 0dbd
000001e0: fb93 cf3f d48f 0a3f 30e1 a33f 12c7 5340
000001f0: 0152 0abf
0.03330568 -0.07778602 0.37651202 -0.25631705 0.08804628 -0.27589172 -0.07577402 -0.23583554
0.123192266 -0.09656866 -0.5496367 -0.13571475 0.16610153 -0.10494547 0.14169396 0.4447944
-0.18440287 0.006109632 -0.13825925 0.018335909 0.17544146 0.09602451 0.057776716 0.816791
-0.1285626 0.19014122 -0.32635966 0.31706843 -0.13093813 0.3041263 -0.15236907 -0.20793965
-0.25051352 -0.10473958 -0.333315 -0.74336064 -0.21395156 0.2730447 -0.19483815 0.3539823
0.79343426 0.30814496 -0.0829481 -0.28488103 0.021701666 0.42473596 0.17199825 0.2606698
0.7071905 -0.11908112 0.41198444 -0.70752466 0.21576546 -0.03872342 0.5837286 0.28693983
-0.39536625 -0.25279865 -0.10541267 -0.61790675 -0.5589406 -0.33132136 0.38603473 -0.28110853
0.59482294 1.1349859 0.07798169 -0.18320459 -0.4795288 0.013549874 0.7632808 0.26801184
0.52364993 1.5077944 -0.19935516 0.712827 -1.2544024 0.057569176 0.33318183 0.93718624
0.5098962 -0.6345677 -0.24555147 -0.18868765 -0.96503687 -0.32188737 -0.4833951 0.5347931
-0.37495318 0.87505877 2.3856392 -0.4072501 -0.29764128 -0.7497318 -0.011537696 1.1458449
0.39120513 0.86500376 2.5531676 -0.29672775 1.0966997 -1.9840138 -0.16137953 0.6544999
1.3615822 0.10706943 -0.9414772 -0.22128524 0.06502595 -1.3450602 0.15782778 -0.6812338
0.7108889 -0.48978844 1.1849325 3.8657074 -1.274099 -0.4256401 -1.0941473 -0.034655064
1.6217035 0.54125714 1.2803097 3.3090253 -0.5403138

fc4.bias f4 [5]
00000000: d375 1cbf 6c3e e8be 71ca 16be 9d89 a03e
00000010: 123f 9e3f
-0.61117285 -0.45360124 -0.14725663 0.3135499 1.2362998
