GraphPredictor/models/model3.pt (torch, 26046 bytes, 6 tensors)

fc1.weight f4 [100, 5]
000000 23 3f 70 3f f8 b9 9d bf e4 2b 4c 3e 3d dc 1c 3f
       0.9384634 -1.2322378 0.19938618 0.61273557
000010 3a 7c 39 bf 19 c8 b6 bf 5b 7c e1 3e d3 c2 c1 bc
       -0.7245518 -1.4279815 0.44040188 -0.02365247
000020 ff 84 a3 bf ab 95 80 3f fa 93 5f bc 03 f2 08 be
       -1.2774962 1.0045675 -0.01364612 -0.1337357
000030 a8 63 ac bd 29 2d 53 3e 31 19 eb 3d 8a fe bf 3e
       -0.084174454 0.20622696 0.11479414 0.37498885
000040 0e b7 c5 be 36 e9 03 40 29 e7 39 bf 7c 33 67 bf
       -0.38616222 2.061109 -0.7261835 -0.90312934
000050 2d 55 95 3f 2e 11 32 3e db b6 24 bf 9e 4d 8e 3e
       1.1666619 0.17389366 -0.64341515 0.27793592
000060 c9 4f 93 3e 7b d8 02 3f 33 e7 c2 3e 60 0c 96 bf
       0.2877181 0.51111573 0.38067016 -1.1722527
000070 75 c0 af 3e 21 4c 53 3e e0 6e 33 3f 46 d2 12 be
       0.3432652 0.2063451 0.70091057 -0.14338025
000080 d9 be f0 be 52 dc 24 bf dc 44 79 3f d7 2a 51 bf
       -0.47020605 -0.6439868 0.97370696 -0.81705993
000090 65 d6 c0 3f 0d d9 91 3f a7 77 bd bf 8d 86 24 3e
       1.5065428 1.1394364 -1.480214 0.16066952
0000a0 92 a8 b0 be cf 89 9d bf 1c 2d d0 3f 66 11 53 bf
       -0.3450361 -1.2307681 1.6263766 -0.8244842
0000b0 b6 f4 cd 3e 6b b2 d2 3f 36 26 73 bf bf ff a3 bd
       0.40225762 1.6460699 -0.9498018 -0.08007764
0000c0 26 05 5d be bf a3 79 be 71 16 23 3f 2b 9f 0d bf
       -0.21583995 -0.2437887 0.6370612 -0.55320996
0000d0 9b 22 5e be 28 d6 dd 3e b2 d4 b5 be 6d aa 05 40
       -0.21692888 0.4332745 -0.35513836 2.088527
0000e0 be c0 df 3f 8e b8 1f 3d 3f 5d 55 3d 71 28 2a bf
       1.7480695 0.038994364 0.05209088 -0.6646796
0000f0 f9 62 16 c0 64 30 68 3e 64 f3 26 bf 02 0f e9 be
       -2.3497908 0.2267471 -0.65215135 -0.45519263
000100 44 a9 c3 3f 57 1f 58 bd 3b 08 51 be ae 1a 96 3e
       1.5286031 -0.052764263 -0.20413296 0.2931723
000110 a9 7b 85 be 67 0e de bd 09 77 80 bf 46 91 d7 3f
       -0.26070908 -0.10842591 -1.0036327 1.6841209
000120 dc a5 2c bf d6 ca 5e 3f b4 94 76 be 1f 86 0b bc
       -0.6744058 0.87028253 -0.24080163 -0.008515864
000130 ac 7e c5 be 0b a1 6a 3f df fc a1 bf 2c fb 3f 3f
       -0.38573205 0.9165198 -1.2655295 0.7499263
000140 48 25 c8 bf 80 db b1 3f 86 5e 8b 3f e4 94 1b be
       -1.5636377 1.3895111 1.0888221 -0.15193516
000150 05 9b 80 be 7f 93 2c be bb dc fa 3e 01 ca c9 be
       -0.2511827 -0.1685314 0.4899653 -0.3941193
000160 85 5c a9 3e 35 3b 99 bd 36 b5 ba 3d 99 a9 a9 bc
       0.330784 -0.07481996 0.091165945 -0.020710753
000170 ed 9e 04 be 0f 55 00 3c c0 69 0c be 5d 5c 7e bf
       -0.1295125 0.00783278 -0.13712215 -0.99359685
000180 1a 8c 85 3f a4 f8 8f 3f 2b 8e aa be 65 ca 42 bf
       1.0433381 1.1247754 -0.3331159 -0.7609008
000190 d1 0a 07 bf 39 28 e3 3f 01 53 25 3f cc 5a aa bf
       -0.5275088 1.774665 0.6457978 -1.3308959
0001a0 17 aa 66 be f5 57 a9 bf 4e 06 0f 3e 9c f0 ef 3e
       -0.22525822 -1.3229967 0.13967249 0.46863258
0001b0 d9 c4 9d 3e 1f f7 4b 3e dd 8e 2e 3f b7 57 7b 3e
       0.30814245 0.19918488 0.6818674 0.2454518
0001c0 6b c2 64 be cd e8 c3 be d5 03 6b be 1e 51 d7 3e
       -0.2233979 -0.3826355 -0.2295068 0.42054075
0001d0 51 c1 7f 3e 28 b8 d1 be 9e bd c5 bd 64 a2 55 be
       0.24976088 -0.40960813 -0.09655307 -0.20862728
0001e0 ec 1b 38 bf 5e 8f 12 3f c7 d3 34 3f 6a d9 7f 3f
       -0.71917605 0.5725001 0.70635647 0.9994112
0001f0 f1 cc 9a bf a2 d5 9e be 76 e8 80 3e 30 90 c8 bf
       -1.2093793 -0.31022364 0.25177354 -1.5669003
000200 c8 62 cb be 00 76 3c 3f 84 b3 f5 be 20 24 61 3e
       -0.39723802 0.73617554 -0.47988522 0.21986437
000210 e2 fb f5 be 01 15 7c 3f a5 d0 1f be 72 8a 5c be
       -0.48043734 0.9846955 -0.15606935 -0.21537188
000220 3b d7 fa 3e 0e cb d2 be 73 31 36 3e 60 e2 bf be
       0.48992333 -0.41170543 0.17792301 -0.37477398
000230 8a 5f 05 be fc a0 f5 be 54 ff 3b 3f fb ec 1b be
       -0.13024727 -0.47974384 0.73436475 -0.1522712
000240 52 78 7e be 4a 29 17 be c4 97 10 3f 89 cf 1b bf
       -0.24850586 -0.14761844 0.56481576 -0.6086355
000250 99 7c c5 3e bb 49 e2 bc 14 fc 05 c0 d3 04 6a bd
       0.38571623 -0.027623048 -2.0935106 -0.057133507
000260 40 4e 69 3f 08 c9 66 3f bf b2 d9 be af 9d 49 bf
       0.91135025 0.901505 -0.42519185 -0.7875623
000270 ea fd c8 3f 96 71 c3 bf 9a e3 10 bf 7d 14 85 3f
       1.5702488 -1.5269039 -0.5659729 1.0396878
000280 29 ec 41 3f ca da 99 bf cc d7 1e bf 61 69 cd 3f
       0.75750977 -1.2019894 -0.6204803 1.6047784
000290 eb c0 17 bf 8b ae 59 3e 9e 9a 9f 3d 08 6d 96 be
       -0.59278744 0.21257989 0.07793163 -0.2938006
0002a0 2d 93 32 3e 95 e0 d5 3d 54 77 9e bf 14 87 4a bf
       0.17438956 0.10443226 -1.2380166 -0.7911236
0002b0 ae 5d 44 be 26 2b 3d 3b 72 b7 af bc f2 46 fe 3e
       -0.19176361 0.002886483 -0.021449778 0.49663502
0002c0 37 7d 16 3f f4 3d 70 bf 20 cd 70 be d5 4d ce 3d
       0.5878481 -0.9384453 -0.23515749 0.10073439
0002d0 d5 08 a1 3e 47 e7 fd 3c 70 56 dd be b7 8e fe 3e
       0.3145205 0.03099407 -0.4323001 0.49718258
0002e0 57 a1 14 be 4e 35 94 be 07 fd 13 3e 2a 11 cd 3e
       -0.14514671 -0.28946918 0.14451991 0.40052158
0002f0 1c bf da be e6 67 7c 3e d5 07 ac 3e 9e f4 f5 be
       -0.4272393 0.24649009 0.33599725 -0.4803819
000300 56 f9 b0 be 9b d9 04 3e b7 91 90 3e 2e fc a9 bf
       -0.34565228 0.12973635 0.28236172 -1.3280084
000310 8e 4c a6 bf 55 a7 31 bf 25 ab 60 3f bb ce 20 3f
       -1.2992113 -0.69395953 0.87761146 0.62815446
000320 17 c5 0c bf e2 31 54 3f 44 fb 46 bd 47 8e 4c 3d
       -0.54988235 0.82888615 -0.04857947 0.049940374
000330 54 36 89 bd d8 69 ab bf 9a 98 1a 3f fc 61 94 be
       -0.066998154 -1.3391676 0.603891 -0.28981006
000340 fb 89 4c 3f 9f 01 72 bd 0b 64 53 3e 29 76 08 bf
       0.7989804 -0.059083577 0.20643632 -0.533053
000350 fb ed 0c 3f 2f e7 6d 3e 9d 43 ea bd 23 1a 77 be
       0.5505063 0.23232721 -0.114386775 -0.24131064
000360 38 15 1d bf c2 7b dd 3f c0 65 82 bf 0d 74 54 3e
       -0.613605 1.7303393 -1.0187302 0.20747395
000370 8a 76 d0 be 9c 60 d3 3e 44 01 86 3f c8 d6 2e 3d
       -0.40715438 0.41284645 1.0469136 0.0426853
000380 b0 3d 51 bf 09 92 d4 3f 16 d1 e8 3f 01 0a d7 bf
       -0.8173475 1.6607066 1.8188808 -1.6799928
000390 66 d4 8a 3e 14 19 da 3d 03 f6 61 3d 6a e7 fa bd
       0.27115172 0.106493145 0.055166256 -0.1225117
0003a0 a1 a1 48 3e 50 bc f2 be 82 54 b8 b9 3f 61 5b bf
       0.19592907 -0.47409296 -0.00035158178 -0.8569526
0003b0 c2 52 dd 3f 8d aa e5 3f ad 70 30 bf 12 1c 49 bf
       1.7290881 1.7942673 -0.6892193 -0.78558457
0003c0 fc de d0 3b df 45 cf 3f a8 81 21 bf 76 df 5a be
       0.006374238 1.6193198 -0.63088465 -0.21374306
0003d0 bf 85 28 3e 6d 08 34 3e b7 06 06 c0 ef e3 02 bf
       0.1645727 0.17581339 -2.0941598 -0.5112905
0003e0 de 73 52 3f f6 c1 0c 3f cd 0f f8 be b1 0a 25 3f
       0.8220805 0.5498346 -0.48449555 0.6446944
0003f0 cf af f5 3b 89 1c 86 bf 1d f7 7a 3f 62 1a 9f 3e
       0.0074977647 -1.0477458 0.98033315 0.31074816

fc1.bias f4 [100]
000000 95 f4 f4 3f fb f6 0e 40 dc 69 e9 bd 7c 02 30 3f
       1.913714 2.2338245 -0.11397144 0.6875379
000010 5b 43 c6 be d7 01 84 bf 7b 0c 46 3f 9c 90 17 c0
       -0.38723263 -1.0313061 0.77362794 -2.3682013
000020 dd 05 2c bf 94 45 9d c0 22 7e ac be 80 b0 74 bf
       -0.67196447 -4.9147434 -0.33689982 -0.9558182
000030 96 2b a8 c0 40 68 27 3f bf 1a 89 bf 16 8d 29 bf
       -5.2553205 0.6539345 -1.0711287 -0.66230905
000040 4b 7b 39 c0 bd f4 0f 3f 6c 02 1e bf f0 0d 2b c0
       -2.8981502 0.56232816 -0.61722445 -2.6727257
000050 9b a0 6e bf b7 56 97 c0 69 41 d9 3e c5 82 b7 3e
       -0.93213814 -4.7293353 0.42432716 0.35841957
000060 13 9f 8a bf 52 a9 bd bf c6 19 b9 bf 3e 3f 13 bf
       -1.0829796 -1.4817297 -1.446099 -0.57518375
000070 fa 52 13 bf 0a 7e 1b be 76 a6 27 c0 47 9d dd bf
       -0.5754849 -0.15184799 -2.619535 -1.7313622
000080 4d 63 50 bf 43 52 a4 3e 9c 75 77 bf eb b0 0a 3f
       -0.8140152 0.3209401 -0.9666383 0.54176205
000090 43 ba cc be 9c fe 48 bf 30 b9 9e c0 22 a8 39 c0
       -0.39985856 -0.78513503 -4.960106 -2.900887
0000a0 19 96 a6 c0 c7 1f b5 be c5 74 13 bf 31 70 22 bf
       -5.2058225 -0.35375807 -0.5760005 -0.6345244
0000b0 be da a9 c0 2b fe 3b bf 4d ae 46 bf b3 fb 41 bf
       -5.307952 -0.73434705 -0.7760971 -0.7577469
0000c0 ef 43 25 40 ac 6b 6a c0 6b 86 d4 bf c4 ec 70 bd
       2.5822713 -3.6628218 -1.6603521 -0.058819547
0000d0 d3 a6 2e be 53 ed 56 bf 86 99 0d c0 b1 4c 29 be
       -0.17055826 -0.8395588 -2.2124953 -0.16533162
0000e0 31 aa e2 bf 6b 4a 45 c0 0c 20 1c bf 96 76 9c c0
       -1.7708188 -3.082667 -0.609864 -4.889476
0000f0 a2 c1 0d c0 4c 7f 76 40 4c 57 9a bd 09 1b cd c0
       -2.2149434 3.8515196 -0.07536182 -6.40955
000100 85 ed 61 bf 7c ee bb c0 99 3d 8f bf 69 6f 22 c0
       -0.8825305 -5.872862 -1.1190673 -2.53805
000110 0f 53 6f 3f f4 8f 1f c0 dd 47 ba c0 12 3c 31 3f
       0.9348611 -2.4931612 -5.8212724 0.69232285
000120 14 a3 fc bf b3 bc bf c0 36 44 ff bd 8f dd a4 3f
       -1.9737267 -5.9917846 -0.12464182 1.2880114
000130 b3 e2 44 3f 1f 08 7d be 5f 42 a4 c0 78 7f 81 bf
       0.76908416 -0.24710129 -5.133102 -1.0117025
000140 56 f0 9e bf fc e3 8b bf fd e4 01 c0 2d b9 80 c0
       -1.2417095 -1.092895 -2.0296013 -4.0226045
000150 d6 6b 93 be e4 0a 69 3f f4 f0 56 c0 d1 3f 63 40
       -0.2879321 0.9103224 -3.3584566 3.55077
000160 95 37 85 be 8b 56 f5 bf b9 62 07 c0 14 29 0c bf
       -0.26018968 -1.9167036 -2.1154006 -0.5475018
000170 e3 37 e4 bf 6a 02 3f c0 11 ed 3d 40 b7 d6 61 be
       -1.7829555 -2.9845223 2.9675944 -0.22054563
000180 31 f7 a8 bf aa 94 34 bf 65 04 e0 bd 4c fa f4 3e
       -1.3200437 -0.70539343 -0.10938338 0.4784721

fc2.weight f4 [50, 100]
000000 ed e5 87 bc 5c 2f 78 3f 32 48 b3 be 92 77 e2 be
       -0.01658913 0.96947265 -0.35016018 -0.4423185
000010 45 d3 12 3f 34 d1 cf be dd 07 b0 be 88 8a 88 40
       0.5735362 -0.40589297 -0.34381 4.2669106
000020 9b a9 4d 3d 96 e3 93 3e 4d dd 00 3f 00 58 a8 3e
       0.050210577 0.28884572 0.5033768 0.3287964
000030 7c d5 d1 3f da c5 5d 3e b9 81 d8 3d 71 0b e4 3e
       1.6393275 0.21657506 0.10571618 0.4453998
000040 30 ac a3 3f 75 80 ed be 6c 67 1b 3f 86 1d 49 bf
       1.2786922 -0.46387067 0.60704684 -0.78560674
000050 e5 0c 93 bf ce 46 68 bf ef d0 00 bf 21 85 9c 3d
       -1.148831 -0.9073304 -0.5031881 0.0764258
000060 47 cf 02 c0 d7 6d db be d4 d9 2c bf 32 4b 13 3f
       -2.0439012 -0.4285724 -0.6751988 0.57536614
000070 12 01 08 3f 5c 92 62 be 39 3f 08 bf 91 23 c0 3e
       0.53126633 -0.22126144 -0.5322147 0.37527135
000080 d0 2f fd c0 8f 24 03 bc f3 cd e0 bd 2a 00 e7 be
       -7.9120865 -0.008004322 -0.10976782 -0.45117313
000090 b8 a6 1f 3e ef 15 48 be 4a 1d 79 bf 2e 64 f8 3f
       0.15590942 -0.19539617 -0.97310317 1.9405572
0000a0 4e 9b 9d be 1b 22 8d bf c6 4e 0e 3e 7b ef e2 bf
       -0.3078255 -1.1026033 0.13897237 -1.7729334
0000b0 42 e5 dc be e5 ec 27 bf a0 8b 18 3f 18 6d 0e 40
       -0.4314366 -0.6559585 0.5958805 2.2254086
0000c0 e9 ba d1 3e 2f 16 b2 3f 51 0f 77 be cb 8a 3e 3d
       0.40962914 1.391302 -0.24126936 0.046519082
0000d0 ce 6a 36 c0 93 78 7c be 4b 7f 76 bd 2a ee 0c bf
       -2.8502688 -0.2465537 -0.06017999 -0.5505091
0000e0 80 72 8b 3f bc a6 09 3e 2f de 50 be 75 eb d2 bf
       1.0894318 0.1344251 -0.20397256 -1.6478106
0000f0 d3 06 01 3f f0 a0 4d 3f 69 63 80 be 14 29 c3 3d
       0.5040104 0.80323696 -0.25075844 0.095293194
000100 38 8f 4d 3f b1 99 c1 3e 90 ae d5 bf 10 db ae be
       0.8029666 0.3781257 -1.6693897 -0.34151506
000110 cc be 82 be 5d 26 68 3e 54 b4 84 be 6a 1f 06 40
       -0.2553619 0.22670884 -0.2591883 2.0956674
000120 5d 38 91 3f 68 f8 87 3e af ca 90 bd 74 a6 09 bf
       1.1345326 0.26556706 -0.07069909 -0.5376961
000130 0c 8d af bd f4 e8 3d 3f c5 f1 79 bc 31 f1 84 bf
       -0.085718244 0.74183583 -0.015255396 -1.0386106
000140 d0 ca 54 be 52 3d 36 3f 2f 3c 0b 3f 03 11 bf be
       -0.20780492 0.7118732 0.5438871 -0.37317666
000150 03 7e 0d be 86 e4 41 bf 63 81 28 bf eb fb 13 40
       -0.13817601 -0.75739324 -0.6582243 2.3122509
000160 e6 ed b0 3d 0a 8a 2c be fb 9a 94 bd b0 0a 92 bf
       0.086391255 -0.16849533 -0.07256123 -1.1409512
000170 0e 85 8b 40 ab 94 62 3f fe e6 b6 bf bb 41 af be
       4.359992 0.885081 -1.4289243 -0.34229836
000180 78 56 ad bf f9 ca 6a 3e aa 4b 58 bf 6f f5 67 3f
       -1.3542013 0.2292899 -0.84490454 0.90608877
000190 cf f8 55 bc 5a 85 08 bf 89 f6 d6 be 88 57 43 bf
       -0.013059809 -0.5332848 -0.41984966 -0.7630544
0001a0 c9 c0 47 bd 9c a4 b4 3e e8 23 09 bc 1b 1d 48 bf
       -0.04876784 0.35281837 -0.008370377 -0.7816941
0001b0 d7 a7 78 bf 95 6e 29 3f b0 42 63 bf f9 93 9c 3f
       -0.97131103 0.6618436 -0.8877363 1.2232658
0001c0 9b 32 5c be 9a 25 2e 3e 42 90 29 be 8c 52 53 3f
       -0.2150368 0.17006531 -0.16558936 0.8254783
0001d0 7c 83 08 3e 12 50 35 bf db 40 04 c0 bf 59 32 40
       0.13331407 -0.708253 -2.0664585 2.7867277
0001e0 c7 a4 ac be ad 03 72 3f c8 c7 83 3f 0a fa 18 3f
       -0.33719465 0.9453686 1.0295343 0.5975653
0001f0 0e a2 c8 3f b1 b0 a1 3f 7f 92 92 bd 36 09 e7 be
       1.5674455 1.2632047 -0.07156848 -0.45124215
000200 fd 13 a7 3e 2f 89 1c be 4b f5 32 bf 22 fd d1 3f
       0.32632437 -0.15286706 -0.6990554 1.6405375
000210 a3 e2 71 c0 87 f2 df be ac 3b d5 be fc 67 27 3f
       -3.7794578 -0.4373972 -0.4164709 0.6539304
000220 42 dc 8c 3e be 6b e6 3e 7c 56 12 3e 1a 4e ea be
       0.27511793 0.45004076 0.14290804 -0.45762712
000230 61 4f 35 bf 9c 50 3c bf 68 f5 55 be 2f e2 86 3f
       -0.7082425 -0.735605 -0.20894396 1.0537776
000240 a3 af e1 3f 8e ae 8d 3f 27 75 c1 bf de 62 3c bf
       1.7631725 1.1068895 -1.5113877 -0.7358836
000250 71 a3 7b bf 7a 67 0c bd 54 4f 27 3f 66 16 6b bc
       -0.98296267 -0.03427837 0.6535542 -0.014348602
000260 25 dd 2d 3e 3f a4 48 3f 8f 8e b8 bf f3 53 b1 bf
       0.16978891 0.7837562 -1.4418505 -1.3853744
000270 ba 7f 11 3f 63 88 b1 bf 65 a3 35 be fb c3 1e c0
       0.5683552 -1.3869747 -0.17738111 -2.4807117
000280 a1 30 1c c0 a3 47 22 40 6b 7e bf be 64 db 20 bf
       -2.440468 2.5356224 -0.37401137 -0.62834764
000290 61 15 a9 bf 32 6e 68 bd 66 50 80 bf ec 5f f5 bf
       -1.3209649 -0.056745715 -1.0024536 -1.9169898
0002a0 de e8 c9 be cc 10 10 c0 5f 33 33 bf e1 eb fb 3e
       -0.39435476 -2.2510252 -0.7000026 0.492034
0002b0 5f 14 f3 be 8d 07 4f bf 2e ab a6 be ba 19 15 3f
       -0.4747648 -0.80870897 -0.32552475 0.5824238
0002c0 0a 35 a8 be 58 91 ca bf b4 e2 8b bf 32 b8 a5 bf
       -0.32852966 -1.5825605 -1.0928559 -1.2946837
0002d0 7e 12 d0 3f b4 66 d7 bf a1 72 75 c0 a2 dd 3d 3d
       1.6255643 -1.6828218 -3.8351214 0.046353944
0002e0 f9 95 70 be 3b 38 e5 bf 19 7a 8b 3f 99 8e 13 3f
       -0.2349471 -1.7907785 1.0896636 0.5763946
0002f0 22 bd 03 bf 5d b7 6f 3f 43 ed 3c 3f 57 59 64 bf
       -0.5146047 0.93639165 0.7379953 -0.8919882
000300 d8 38 30 bf 05 7d 03 bf 0a ce 93 be a5 c8 ab be
       -0.68836737 -0.5136264 -0.28868133 -0.33551517
000310 42 bf c5 3e e9 26 9b 3e 7d e5 05 bf 92 83 10 40
       0.3862248 0.30303124 -0.52303296 2.2580304
000320 e7 0f 71 3f bd f0 81 c0 44 ab 8e 3e 2f 76 27 3f
       0.9416489 -4.060637 0.2786504 0.6541471
000330 ca 42 16 3f 60 1b 68 be 84 52 b8 3e 09 60 2d 40
       0.5869566 -0.22666693 0.36000454 2.7089865
000340 0b c1 36 bf a9 c7 e8 bf 1c a2 ac 3e 48 13 12 bf
       -0.7138831 -1.8185931 0.3371743 -0.5706067
000350 93 f3 82 c0 80 7b 51 3f 0d 61 6d 3e f6 a8 3e 3f
       -4.092233 0.8182907 0.23181553 0.74476564
000360 56 a9 03 bc c3 e0 43 be e1 83 22 3e f2 bb 27 c0
       -0.008035978 -0.19128709 0.1587062 -2.6208463
000370 71 b5 00 bf d0 41 b9 3d c9 8e 42 bf cd 07 db be
       -0.5027686 0.09045756 -0.7599912 -0.4277939
000380 44 54 2f 40 3c 5f 15 40 09 cc 91 3e 9b a6 05 3f
       2.7395182 2.3339376 0.2847598 0.52207345
000390 c2 e4 49 3f e4 47 66 bd 8b d7 3c 3d 8c 15 db 3e
       0.7886468 -0.056220904 0.046103995 0.42789876
0003a0 67 22 ce c0 d9 44 27 3e 66 b3 e8 3f a1 70 68 bf
       -6.4416995 0.16334857 1.8179748 -0.9079686
0003b0 dc c0 86 3e 03 35 2d 3e ea 1c c5 bf cf 97 17 c1
       0.26319015 0.16914754 -1.5399449 -9.474563
0003c0 91 07 93 3e 89 77 e7 be 46 78 e7 3e 24 02 8a 3e
       0.2871671 -0.45208386 0.4520895 0.26954758
0003d0 3a 10 d0 3f 96 51 1f bf 21 fa 16 3f b5 af dc be
       1.6254952 -0.62233865 0.58975416 -0.43102804
0003e0 be 00 34 bf b7 cc c4 40 86 75 94 3d e0 bc 86 3e
       -0.7031363 6.1499896 0.07248978 0.26315975
0003f0 52 f7 9b 3f fb 71 31 bf 52 91 b3 be 38 e8 a6 3e
       1.2184851 -0.69314545 -0.35071808 0.32599044

fc2.bias f4 [50]
000000 d7 1c 86 bf e8 40 25 c0 bf 8c ea bf f5 00 03 40
       -1.0477551 -2.5820866 -1.8324202 2.0469334
000010 39 91 13 be b0 f5 a3 bd bb 1a 5f c0 3a 7f 5b bf
       -0.14410867 -0.080058455 -3.4860065 -0.8574101
000020 6e 64 bb 3e ed a9 b8 be 3f 52 41 bf 1b 1c a6 3e
       0.3660006 -0.36067143 -0.7551612 0.32443318
000030 06 ab d0 bc 46 e7 d2 3b 53 c8 27 c0 34 7e 85 be
       -0.025472175 0.0064362613 -2.6216018 -0.26072848
000040 69 31 18 3f 7f e0 b4 bf 81 90 0a c0 70 20 cb 3e
       0.59450394 -1.4131011 -2.1650698 0.39673185
000050 3b 45 5b bf c3 c0 95 3f a8 5d 1a c0 b4 91 07 c0
       -0.8565251 1.1699451 -2.4119663 -2.118268
000060 fe df 94 bf 07 79 13 40 ed a2 05 3f 03 73 ee 3f
       -1.1630857 2.304262 0.5220173 1.8628849
000070 f0 fb 93 bf 08 df 9d be 0a 94 ab bf 0a 9b 99 3f
       -1.156126 -0.30834222 -1.3404553 1.2000439
000080 77 b5 9a 3e cf dc 50 40 e7 7f 0d 3e db 48 16 40
       0.30216572 3.263477 0.13818322 2.3481967
000090 af 91 86 be 5c f2 2e bf 60 9f 05 40 c3 67 af bf
       -0.26283023 -0.6833856 2.0878525 -1.370354
0000a0 2d 4c 01 bf 98 8a 0f c0 c8 08 1e be 1f 5c 86 3f
       -0.5050686 -2.242834 -0.15433037 1.0496863
0000b0 c2 59 be bf ca b1 ec bf ef 2c ab bf 8b 27 53 bd
       -1.4871142 -1.8491757 -1.3373088 -0.051551383
0000c0 c8 ed bc bf fb fa 03 c0
       -1.4760065 -2.0621936

fc3.weight f4 [5, 50]
000000 07 67 42 3e 54 3f f7 3d 6d 0b 1e be 7b 09 df 3d
       0.18984614 0.12072626 -0.15434046 0.1089048
000010 74 12 e6 be 87 fc 89 bd a7 2d 66 be 51 4d d3 bd
       -0.44935954 -0.06737619 -0.22478352 -0.10317481
000020 d6 6a 2e be 54 12 de bc bd 8d 57 be 30 16 71 bd
       -0.17032942 -0.027108349 -0.21050163 -0.05885905
000030 a7 82 8f 3d ad 04 04 3d cc 9e bf be 1d 30 a1 3d
       0.07007342 0.03223102 -0.3742584 0.07870505
000040 f6 df b6 3d bb 41 b9 bd d6 32 e1 3d 66 1f 0e 3f
       0.08929436 -0.0904574 0.10996024 0.5551666
000050 7b d6 f0 bb c9 98 a8 3e 0e 55 80 bd af 5d e6 bd
       -0.007349787 0.32929066 -0.06266223 -0.112483375
000060 e7 46 c1 bd 8c 97 bd 3e 16 e8 ae 3d f1 22 89 3b
       -0.09437352 0.37029684 0.08540361 0.0041850735
000070 48 71 b2 be 48 48 9e 3e c5 a1 f0 3d f1 b2 93 3e
       -0.34852052 0.3091452 0.11749605 0.2884746
000080 33 ce a2 3d 40 6d 1b 3e 7c 33 4e be ee c2 41 be
       0.07949486 0.15178394 -0.20136827 -0.18922016
000090 35 d4 69 3e 47 5e 0d 3e 1c 2c be 3e b3 8f ed bd
       0.22834857 0.13805495 0.37143028 -0.11599674
0000a0 1e 83 de 3e 5d 92 0a 3e db 14 e4 bc b8 a5 ff bd
       0.4345941 0.13532396 -0.027841976 -0.1248278
0000b0 69 4a 86 bd f6 d1 33 3e fe 4a 82 bd ff 18 e7 bd
       -0.06557161 0.17560562 -0.0636196 -0.112840645
0000c0 73 c3 cb bd f9 04 d4 bd 49 ea d5 3e 09 d8 93 3e
       -0.09949388 -0.10352511 0.41780308 0.2887576
0000d0 74 9b e6 be b3 46 a8 3e 43 b3 88 bf e6 67 2a 3d
       -0.45040476 0.3286644 -1.0679706 0.04160299
0000e0 c8 ce a3 be 1e 06 bb be 4e fb a6 be 99 4c 45 3b
       -0.319937 -0.36528105 -0.32613605 0.003010547
0000f0 4b 1d 15 bf 7e a4 22 be 71 76 21 3b 42 88 b8 3d
       -0.5824782 -0.15883061 0.0024637247 0.09010364
000100 23 01 5c bf 69 79 36 3e 62 47 49 3e 7b 8d 4a be
       -0.85939234 0.17819752 0.19656137 -0.19780533
000110 01 74 a4 3e 6f 35 f2 3e 2c ce 56 bd 2c 68 45 3f
       0.32119754 0.47306392 -0.052442715 0.7711208
000120 b9 cd 30 be f2 7a 43 be 3a 4c 6d be e1 aa e2 3e
       -0.17265977 -0.19089869 -0.2317361 0.44270995
000130 d9 da bc 3e 3e b5 30 3e 9a 61 d3 be fd 55 bb 3e
       0.36885718 0.17256638 -0.41285402 0.3658904
000140 a8 90 97 3e 29 4d 98 3e 25 d7 0a 3e da 03 b7 3e
       0.2960255 0.2974637 0.13558634 0.35745126
000150 f1 d0 08 bf 72 87 af be 58 2a 2a 3f b5 bc 94 3e
       -0.5344382 -0.34283024 0.6647086 0.29050222
000160 29 58 6a 3f 2c 54 8c be e9 99 38 3f 33 74 0f 3e
       0.9154077 -0.27407968 0.7210985 0.1400917
000170 14 8c 38 3e 5e c2 9e be 35 ea 36 be d4 e2 e8 3e
       0.18022186 -0.31007665 -0.1786278 0.45485556
000180 bf 50 36 be 52 91 73 be ee 3e 35 be 28 3b 8a be
       -0.1780424 -0.23785904 -0.17699787 -0.26998258
000190 43 09 45 3f 2c 04 0e 3f f3 16 6c bf c3 ef 2f 3f
       0.7696726 0.55475116 -0.9222252 0.6872522
0001a0 23 15 05 c0 3d 73 a7 bc 7a fd 8c be fe e1 62 bf
       -2.079415 -0.020440692 -0.27537137 -0.88626087
0001b0 c0 de 09 bf 9c 7e da 3d cf 08 95 bf 11 76 a3 be
       -0.53855515 0.1066868 -1.1643313 -0.31926015
0001c0 4a c8 1e bc d1 c1 40 3e 46 30 cf bf 7d fe ac 3e
       -0.009691307 0.18823935 -1.6186607 0.3378791
0001d0 b5 60 b3 3e 99 df b4 be e6 ca 22 3f 15 51 7c 3e
       0.3503472 -0.3532684 0.6359085 0.24640305
0001e0 4a cf 1b be 80 7c b4 3f 3c f4 95 be 5e 2b 9d be
       -0.15215793 1.4100494 -0.292879 -0.3069715
0001f0 cf 8c e3 be e6 50 bb 3e b9 2e 44 3f a5 b3 c9 3e
       -0.44443366 0.36585158 0.76633793 0.3939487
000200 fb ae ae be 11 2a a1 3e 4c 03 1d 3f 06 d2 19 3e
       -0.34117875 0.31477407 0.61333156 0.15021524
000210 39 dc 4d 3e 21 ef f4 3e 66 0f 81 bf 1f 54 10 bf
       0.2010354 0.4783869 -1.0082824 -0.5637836
000220 f6 8c b2 3f 44 dd 08 3f 41 70 ea 3f 26 7d 01 bf
       1.3949268 0.53462625 1.8315507 -0.50581586
000230 41 8b 37 3f 29 2c 09 3e 23 11 88 3d 50 93 1f bf
       0.7169686 0.13395752 0.066438936 -0.62334156
000240 e4 6c c2 be 1a 00 65 3f e1 a1 c0 be 0c 85 df be
       -0.37973702 0.8945328 -0.37623504 -0.43656194
000250 3c 9c 8d be d5 e4 12 bf d2 74 9f 3f e5 03 67 3f
       -0.2765826 -0.5738042 1.2457526 0.9024032
000260 87 a8 ce bf af 83 98 3f d6 d7 5f c0 75 a4 be 3d
       -1.614518 1.1915187 -3.4975486 0.093087114
000270 d5 96 c6 bc 9e 29 cc bf 2f 07 4b bf cd 28 8b 3e
       -0.024241844 -1.59502 -0.79307836 0.27179566
000280 89 28 ff bf f4 f3 0d bf a0 f8 0c be 4a 22 b2 3e
       -1.9934245 -0.5545037 -0.13766718 0.34791785
000290 5c 31 29 c0 0f 32 0f 3f d4 6a 14 3f 3d 28 0d bf
       -2.6436377 0.5593576 0.57975507 -0.55139524
0002a0 db 79 89 3f 36 65 26 bd 4a ce 66 be 4c 9b 14 40
       1.0740312 -0.040623866 -0.2253963 2.3219786
0002b0 3b 20 c4 be fb 5a f4 be 1b ab 3a bf 11 65 c9 3d
       -0.3830584 -0.47725663 -0.72917336 0.0983373
0002c0 e0 06 b6 3f 51 94 2d 3f 47 b3 be bd 69 99 c3 3d
       1.4220848 0.6780444 -0.09311538 0.09550745
0002d0 5a 7e 94 3f 78 59 f8 bc eb a0 87 3e 16 d8 94 3e
       1.160106 -0.0303161 0.26489958 0.2907111
0002e0 b9 88 d4 bf 34 c6 6d bf 4b 0a 15 40 80 da 59 3f
       -1.6604224 -0.9288056 2.3287532 0.8509903
0002f0 81 e9 46 40 eb 26 50 bf ba 3d 57 3e 9c 08 cc 3b
       3.108002 -0.81309384 0.2101964 0.0062266123
000300 dd 86 14 bc e4 9e 84 bf 0e 24 2d bf 3d b5 bc 3f
       -0.009065357 -1.036099 -0.6763314 1.474281
000310 e9 43 2b bf 5c 4e 3a bf d7 33 da be 38 fb 7c bf
       -0.669005 -0.72775817 -0.42617676 -0.9882083
000320 97 2b f2 3f f0 d6 ad 3f ab e3 22 c0 a0 37 f1 3f
       1.8919553 1.3581219 -2.5451458 1.88451
000330 58 82 ad c0 20 a4 d8 3c 70 77 02 3f 22 b4 25 c0
       -5.422161 0.026445448 0.509635 -2.5891194
000340 52 00 8a bf f7 3e 08 3f 61 89 48 c0 f2 cb 63 bf
       -1.0781348 0.53221077 -3.133385 -0.8898307
000350 5d 53 9c 3d 09 54 16 3f 00 01 7d c0 ed 9d 61 3f
       0.07633088 0.5872198 -3.953186 0.881316
000360 ee ae 61 3f 8f 7b 49 bf 48 ae d6 3f 12 a6 8c be
       0.88157547 -0.7870416 1.6771936 -0.27470452
000370 d4 8a 99 be e5 3b 5f 40 90 cf ec be 7b 3d 31 bf
       -0.2998873 3.4880307 -0.46252108 -0.69234437
000380 31 eb 8a bf 70 1b bd be da 63 11 40 1b 62 87 3f
       -1.0853025 -0.36934996 2.2717195 1.0576814
000390 4d fb ae 3e f0 1e ad be c8 0a fb 3f 1b 11 28 be
       0.34176102 -0.33812666 1.9612665 -0.16412775
0003a0 a6 93 9b 3e 0d 3e 9b be 10 4b 25 c0 04 d5 bb bf
       0.30386084 -0.30320778 -2.5827065 -1.4674382
0003b0 cb 12 61 40 f6 3a a3 3f a7 67 9c 40 2d 02 9d bf
       3.516772 1.2752368 4.887653 -1.2266289
0003c0 df e3 41 bf 6d 9d b6 be 56 8d 40 3c 0f 13 ca bf
       -0.7573833 -0.3566698 0.011752447 -1.5787066
0003d0 e7 9b 89 bf 1f 5a 0c 40 90 c5 84 bf d8 04 90 bf
       -1.0750703 2.1930006 -1.0372791 -1.1251478
0003e0 dc fb 2b bf ca 28 c7 bf
       -0.6718118 -1.5559323

fc3.bias f4 [5]
000000 78 eb c0 3e 52 ca 8e bf 9d b2 6b bf 29 89 d9 3e
       0.37679648 -1.1155493 -0.9206942 0.42487457
000010 76 8a ce 3f
       1.6136005
