GraphPredictor/models/model5.pt (torch, 31156 bytes, 8 tensors)

fc1.weight f4 [100, 5]
00000000: 8f71 adbf 966e a23e b97d 023f 435c 2c3e
00000010: b4fa 56bf cf35 1f3f a1c8 13be 90bc 86bf
00000020: 9cbf 543f 2467 a3be 710c 28bf b3a8 863f
00000030: 4598 52be ddf3 92bf 7377 d03e 1102 8c3f
00000040: 8cd5 babd cb5f 20bf babc 8b3e 2a02 0cbf
00000050: 2eef 90bd 169d 063e 4af4 f3be 39ca cf3e
00000060: 9cb2 283e 13b6 acbe e2f5 0f3f b26d c3bf
00000070: 1ebe 113f 08f6 3dbe 7c51 babe 7798 9e3e
00000080: ce29 b63e 3fa2 42be a32e cbba a581 ac3e
00000090: 9d3a 3abf 6a4c a6bf 58cc a1be 61ff 163f
000000a0: 06ee 3c3f 8e58 85be 6710 a4bf f381 b43e
000000b0: 5170 c33d 169e f4be f0b6 acbe 1daf 85bf
000000c0: 967c 173f a61a bdbe aed8 793f eefd 643f
000000d0: 0a10 febf aa5a 2c3d 9573 9b3e 3549 553f
000000e0: 9cf6 b23f 66ab 41bf 4f2d 8dbf e6f5 d6be
000000f0: 53cf ddbf 7835 2b3e 0b89 903f 19f3 c0be
00000100: da33 d8be e7ab 983c 82f8 443f 3099 47bf
00000110: 4374 0abe 79a7 5abf 28b7 52bf c9da ab3f
00000120: 290b 8dbf 61b9 01bd d755 523e 901f a0be
00000130: 4b33 cf3e 0f2b 943f eac4 993d 0d17 29bf
00000140: fc79 873f 6246 f6be 785e 18bf faf7 adbd
00000150: 3166 b13d dd3f 75bf 8261 0c3d a9b0 a53f
00000160: 846c 7bbf c786 30bf ec36 57bf 1ebe a6be
00000170: 2e6c ecbe 81aa 6fbf 7cb3 103f 5fbf ffbe
00000180: aa14 6cbf 74b2 793f 27db bbbf 1cb8 a43e
00000190: daae a63f 162d d43e f691 303f 9845 853e
000001a0: 795e 46bf 7ab0 78bf ad2b cbbe 5377 6fbe
000001b0: 5b3c 13bf 01c0 913f e627 79bf c213 933f
000001c0: 599b 9d3e 18d8 fabe d56c c2be 1f8b d7be
000001d0: 97b8 563f 03a9 593f fb46 463f 7325 c8bf
000001e0: bffe bf3f b64c 8cbe 6db5 ebbd e078 4b3d
000001f0: a0be 09bf 9926 ebbf d258 093f f430 21bf
00000200: f704 7b3f 9fb5 cbbe 8ac7 b63f ef6d f0be
00000210: 1317 bdbf 21f2 9ebe 691d 173f 1ca5 8dbe
00000220: f450 a13f 1018 adbf cdc0 873e 864d 86be
00000230: 92f2 073e 245b fcbe e97a 0c3f 860c 283f
00000240: 9507 acbe a231 4f3f fecb 82bf 07c2 e5bd
00000250: afa7 2b3f 7d98 6cbe 7457 8abf 58a4 113e
00000260: 05ce 50bf 5153 b33e 31ff 0f3e 7657 3e3e
00000270: 29b1 18bf 6384 28bf 68f6 41bf 5167 dd3e
00000280: 746e 3c3f ed39 c03f 2a65 e8bf 1342 f13d
00000290: e4f9 833e 658d eabe badd 10bf ddbd bbbe
000002a0: b658 7b3f c79a 85bf b71e b4bf a107 023f
000002b0: 1fcc 043f a88a bebd 9e52 e9be 57c4 5e3f
000002c0: 5583 9cbe 18ef 303f ffe0 ccbf c77e 4a3e
000002d0: 20b0 62bf 13b2 f83e 133f b03e 78a5 8fbe
000002e0: f373 a9be fb2f dcbe a1dd 643f bf36 8a3e
000002f0: 1a42 9cbf d491 eb3e 6204 2fba 6c7b adbe
00000300: f38d 6cbf ffbd 403f 0b1c 5cbe 7c25 83bf
00000310: b837 0e40 6cb0 48bf 7bef 42bf 6dba 383e
00000320: a7cf 8dbf 5e1f 3b3f fed9 8c3e d092 54bf
00000330: 9351 4fbf 05b6 bd3f eef5 cbbe 35b6 45bf
00000340: 80d1 ed3a ca98 11be c836 713f 365d 7dbe
00000350: 1a92 2a3f e243 32bd c803 7ebf 3336 2dbf
00000360: 116d a73f de29 04bf c29b 19bf 16fc 9dbd
00000370: 96e2 d93e 79bc 80bf a6c9 233d 9285 dcbe
00000380: 58bd 5dbe 718d 113f c59c c7be b8fa ccbe
00000390: 7197 a13e 6ef1 893d 917a ed3e d2b2 2d3e
000003a0: f295 44bf cee8 473f 5cfe 1e3e 3e86 04bf
000003b0: b8bb d6be 9fb0 73bf 8a25 6dbf 4c4b 543f
000003c0: 8755 79be 3466 0dbf bd25 abbe 30fc 953f
000003d0: 2ea6 65bf 69a9 05bf 1912 0f3f 508d 0ebe
000003e0: d561 013e cbad 463f 0ae3 9e3f 2d2d d0bf
000003f0: a83e 2e3e 387f e23e a85f 103e b311 5e3e
-1.355028 0.31724995 0.5097309 0.1683207 -0.8397629 0.6219148 -0.14432003 -1.0526295
0.8310487 -0.31914628 -0.65643984 1.0520233 -0.20565899 -1.1480671 0.40716133 1.0938131
-0.09122762 -0.6264617 0.27292424 -0.546908 -0.0707687 0.13145861 -0.47647315 0.4058397
0.16474384 -0.33732662 0.5623456 -1.5267851 0.5693072 -0.18550885 -0.36390293 0.30975696
0.3557877 -0.19007204 -0.001550157 0.3369266 -0.72745687 -1.299207 -0.31601214 0.5898343
0.73800695 -0.26044124 -1.2817506 0.35255393 0.09542907 -0.4777686 -0.3373332 -1.0444065
0.5917448 -0.36934394 0.9759625 0.89449966 -1.9848645 0.04207865 0.3036162 0.8331483
1.3981509 -0.7565216 -1.1029452 -0.4198448 -1.7328895 0.16719615 1.1291822 -0.3768547
-0.4222706 0.018636657 0.7694169 -0.7796812 -0.13520913 -0.85411793 -0.82310724 1.3426143
-1.1019031 -0.03167093 0.20540558 -0.3127408 0.4046882 1.157564 0.075082615 -0.660508
1.0584102 -0.48100573 -0.5951915 -0.084945634 0.086620696 -0.9580057 0.03427268 1.2944537
-0.98212457 -0.68955654 -0.8406818 -0.32566923 -0.46176285 -0.93619543 0.5652387 -0.49950692
-0.9221903 0.9753792 -1.4676255 0.32171714 1.302211 0.41440648 0.6897272 0.26029658
-0.77487904 -0.9714428 -0.3968176 -0.23385362 -0.5751397 1.138672 -0.97326505 1.1490405
0.30782583 -0.4899299 -0.37973657 -0.42098328 0.8387541 0.85023516 0.7745206 -1.5636429
1.4999617 -0.27402276 -0.115092136 0.049675822 -0.53806496 -1.8371154 0.53651154 -0.6296532
0.9805445 -0.39787003 1.4279644 -0.46958873 -1.4772667 -0.31044105 0.5902925 -0.2766503
1.260283 -1.3522968 0.26514283 -0.2623102 0.13276127 -0.49288285 0.54875046 0.6564411
-0.33599535 0.8093511 -1.0218503 -0.112186484 0.6705274 -0.23105045 -1.0807939 0.14222848
-0.8156436 0.35024503 0.14062192 0.18588051 -0.59645325 -0.65827006 -0.7576661 0.43242887
0.7360604 1.5017678 -1.8155873 0.11780181 0.2577659 -0.45811 -0.5658833 -0.36668292
0.9818224 -1.0437859 -1.4071873 0.5079289 0.51873964 -0.0930379 -0.45570844 0.8701834
-0.30568948 0.6911483 -1.6006163 0.19774924 -0.88549995 0.4857336 0.34423122 -0.2805593
-0.33096275 -0.43005356 0.8940068 0.26994893 -1.2207673 0.46009696 -0.00066763733 -0.33883226
-0.924041 0.7528991 -0.21495073 -1.0245814 2.2221508 -0.783942 -0.7614667 0.18039866
-1.1078995 0.7309474 0.27510065 -0.8303652 -0.8098385 1.4821173 -0.39836067 -0.7723115
0.0018144101 -0.1421844 0.94224215 -0.24742588 0.66629183 -0.04352177 -0.9922452 -0.67660826
1.308016 -0.51626384 -0.6000329 -0.07714097 0.42555684 -1.0057517 0.03998723 -0.43070656
-0.2165426 0.5685645 -0.38986793 -0.40035033 0.31560853 0.06735502 0.46382573 0.16962746
-0.767913 0.78089607 0.15526718 -0.5176734 -0.41940093 -0.9519138 -0.92635405 0.82927394
-0.24349032 -0.55234075 -0.3342723 1.1717587 -0.89706695 -0.52211624 0.5588699 -0.13921094
0.12634976 0.7760894 1.2413037 -1.6263787 0.17016089 0.44237685 0.1409899 0.21686439

fc1.bias f4 [100]
00000000: 113e 89c0 4b1f d13f 9b60 34c0 ba3e 45bf
00000010: 485c 16c0 5670 1a3e c23d 123f 2695 4cc0
00000020: 3531 88bf cda3 a8bf 0906 e73d b424 48c0
00000030: dced 96bf 7f17 803f be2d d1bf 17de e4bf
00000040: 9927 443f 9362 4a3f 2f83 3bbf 0cd7 0fbf
00000050: 1eaa 01bf 3158 d13e b834 db40 31fe 87bf
00000060: dcf2 9ac0 72d3 21c0 b750 febf d6bd 8ebf
00000070: b0ad c83c 6068 acbd 8ed7 06c0 304c d2c0
00000080: 1112 3fc0 0dc1 37c0 cc23 32bf 0041 233e
00000090: 3db2 a0c0 4c15 35be 36f1 35c0 0263 1ac0
000000a0: 0989 fcbe 48a2 afc0 5802 9240 374e 97c0
000000b0: 9263 473f d6a1 333f f34b eabf fee6 8ec0
000000c0: 9c44 233f 11af d3be 1f99 a8c0 1ab7 08c0
000000d0: 006b 55bf 9e1d 15c0 4623 25c0 35b2 dac0
000000e0: 3fc0 45bf 6f3b fd3f 5ffd 563f be50 733f
000000f0: 4145 f8be a03a 60c0 bb84 4dc0 bf08 033e
00000100: 9271 b83e 703a 5a40 10e8 0740 1db8 cec0
00000110: 1939 1bbf 7fa0 103f 4eb5 c0bd bb31 f5be
00000120: 6728 f0bf ec14 88c0 62f3 4bbf 5b80 ffbe
00000130: c7ac 813f bec6 d8bc b199 48c0 a8e6 2940
00000140: 25f9 b9c0 c712 9abf 0f47 20c0 d1b0 59c0
00000150: 8acd bbbf fb35 58be 7dfe 10c0 1ef1 e2bf
00000160: 8184 18bf cc96 64bf fc3c b4bd d75e 18c0
00000170: cb61 243e 8ef5 3cc0 ad45 8cbf faca 6dc0
00000180: 08a9 acbe 4138 97bf 5a5c 103e 134b 07bf
-4.2888265 1.6337675 -2.8183963 -0.7704884 -2.3493824 0.15081915 0.57125485 -3.1966033
-1.0640017 -1.3174988 0.11280448 -3.1272402 -1.1791339 1.000717 -1.6342084 -1.7880276
0.7662292 0.7905666 -0.73247045 -0.5618751 -0.50650203 0.40887597 6.8501854 -1.0624448
-4.842146 -2.5285306 -1.9868382 -1.1151683 0.024496883 -0.084183455 -2.1069064 -6.5718
-2.9854777 -2.871158 -0.6958587 0.15942764 -5.0217576 -0.17683905 -2.8428473 -2.412293
-0.493233 -5.4885597 4.562786 -4.7282977 0.7788631 0.7016882 -1.8304428 -4.4656973
0.63776565 -0.41344503 -5.2686915 -2.1361756 -0.83366394 -2.3299327 -2.580278 -6.834254
-0.7724647 1.9783763 0.83980364 0.9504508 -0.48490337 -3.5035782 -3.2112262 0.12796305
0.36024147 3.4098167 2.123539 -6.459975 -0.60634 0.564949 -0.09409581 -0.47889504
-1.876233 -4.252554 -0.7966825 -0.49902615 1.0130852 -0.026461955 -3.1343806 2.6547031
-5.811663 -1.203698 -2.504337 -3.401417 -1.46721 -0.21114342 -2.2655327 -1.7729833
-0.59577185 -0.892926 -0.08800694 -2.3807886 0.1605293 -2.9524875 -1.0958763 -3.7155137
-0.3372271 -1.1814042 0.1409773 -0.5284893

fc2.weight f4 [50, 100]
00000000: 6586 8abd 0d4a 04be 602f 92bd fc40 10be
00000010: edd5 4a3c c1c4 ddbd a246 09be 1774 01be
00000020: 4dab fdbd eb8c fabd afd3 46bd 68c0 d6bb
00000030: 9629 12be bbe7 153c 0990 aa3c 0fb8 cdbd
00000040: b483 d7bc 7933 65bc 91ac 333d 4fdc 3bbd
00000050: 09b2 143d 82d9 50bd 9d38 26be 93ac 10be
00000060: 99d3 bbbd 359b ecbd 389b edbb 11ee afbd
00000070: 3723 1bbe 1c11 91bd 64de 1cbd cf6e e6bd
00000080: 55bf 1bbe d93e 22be 5ac0 093b d72e 65bd
00000090: 4d55 03be 863a 623d 9fc3 253c 877f b2bd
000000a0: 63db d03a b73d cabc 1b3f 97bd f276 febc
000000b0: bc73 1cbe a374 afbd 6407 91bd 318b 0cbe
000000c0: d2f0 f0bd ffb8 27bd 7ede 95bd 7510 35bd
000000d0: b360 f03c 171b f8bb 181e 45bd 981a d5bc
000000e0: 374f 08be 1db2 b63c 7020 fa3c 3379 3ebc
000000f0: 16f7 15bd 5561 07be d282 24ba 3dc7 703c
00000100: cb89 c73c 7621 a73b 406e b1bd da4e a8bd
00000110: 2fe0 0abe 4102 c3bc 4668 90bc fa1e b1bd
00000120: c68e 17be 7e0a 86bd f92b 18be 509f 723b
00000130: 6839 e9bd 039e 80bd 4c80 a8bc a7a4 fcbd
00000140: 0012 b6bd 094c 10be 00af 13be b113 063b
00000150: 88fc d4bd afb6 a7bd 9ab0 20bc a00b 1bbe
00000160: 688a d6bd 5ed5 7dbc 12d8 99bd 6d2f 7abd
00000170: 8cc8 efbb 44b9 e6bd b7b0 c4bb a90c 8f3c
00000180: 83ce 2abd 9c5f 0bbd 714e 3a3c 1154 0b3d
00000190: da8b fdbe ad55 f6bf 01a9 b1be ae00 d03d
000001a0: 4452 56c0 73c9 0fbe b0ff 29c0 8db1 b9bf
000001b0: f0cc 07bf bc71 9cbf 18db 17c0 abaa 22bf
000001c0: 7d8a 913f 36b0 1d3e 5c1a 04c1 1b6c e33e
000001d0: fc4b 1240 334b 2d3e a7fb cfbf 08d7 dd3f
000001e0: d535 84bf 6d0c a1bf f2af b93e 0ddc cb3d
000001f0: d860 7d3e ecd8 33bf 0420 953f 7c09 86bf
00000200: c310 683f 8081 84bf 9292 0240 519a 2c40
00000210: 286d dd3f a9a9 62bf 4362 cd3e 08bc 173e
00000220: b3f4 43be 00c4 72bd eddb ab3d 834b b33e
00000230: ec36 9dbe 1aa6 253f 14f4 933e 402d e13e
00000240: d8ed 2c3e f0d7 ecbf a14a e03f a79b 9ebf
00000250: 039a 153f 1f56 22c0 8bef 163f afc0 dbbf
00000260: bb53 963f ceca c040 1c95 a2be 7399 453f
00000270: 9857 01c0 98e7 c3be 9b32 e73e 7326 58be
00000280: 0008 d93e 98f5 4abe 966a 063f b601 2140
00000290: 0449 513f 8f91 ed3f 9e1c 3ebf 8fa0 bb3f
000002a0: ae86 97be 5790 c2bf 5cce adbd 89a9 143f
000002b0: 6369 373f 7f71 3bbd 8929 2fbe 83c3 743c
000002c0: 2203 8abf 8add e1be d5a0 f83d 9b9a cf3f
000002d0: 07ea c740 32a9 4b3d b8d7 503e 5a5c b23e
000002e0: cfe6 98bf 844c 15bf 0c04 3bbf 025b f740
000002f0: 8741 6b3e 98f8 c73e 3718 b4be e20c 23bf
00000300: b433 2840 e658 b53f 2091 173e 60fc 4bbe
00000310: b6a3 f8c0 e4bb 25c0 d3d0 173f 6521 0d3e
00000320: 505d 99c0 9e2f 5cbe 2288 6d40 3c79 a13e
00000330: a5a9 023e 725a 37bf 4bbb 0d3e ca7c 0540
00000340: 6605 d8bf 55ac d53e c2db b2bf 1e66 4c3e
00000350: 4484 66bf ab02 0e3f 3fd0 ee3f a29f 9cbe
00000360: b2dd 0240 b3df 18c0 c5a7 a63f 13f6 05be
00000370: 4e2f 95bd e3cf b3be a4fe d83f 32a5 61c0
00000380: 0628 5d3d 5c0c 0340 a7b5 a23f 203d 0ac0
00000390: f0db 733e f7ea c2be dd96 983f 7c22 2ebd
000003a0: 8d1d 83bf 106d 0940 a66e 943f 0bf0 05be
000003b0: 11cf 093d 9c53 06c0 c243 ba3f df9a a040
000003c0: 5872 5b3d 736d 3dbf e170 663e e368 1cc0
000003d0: 0207 d2be 0968 9a3d 6a41 063f 60b7 0a3f
000003e0: 34f2 0f3f 15f1 183f 1182 b63e 0bc6 a3be
000003f0: 0b13 8d3e 6906 a63e 14d9 41c0 6105 cebd
-0.06763915 -0.12918873 -0.07137942 -0.1408729 0.012380105 -0.108285435 -0.1340585 -0.12641941
-0.12386189 -0.12233909 -0.04854172 -0.0065536983 -0.14273676 0.009149487 0.020820634 -0.10044872
-0.026307918 -0.013989323 0.043865744 -0.0458644 0.0363026 -0.05098868 -0.16232534 -0.14128332
-0.091712184 -0.11553041 -0.0072511695 -0.085903294 -0.15150152 -0.070833415 -0.038298026 -0.11251604
-0.15209706 -0.15844287 0.0021019191 -0.055952873 -0.12825508 0.055231594 0.0101174405 -0.0871573
0.0015934523 -0.024687631 -0.07385083 -0.031062577 -0.15278524 -0.085671686 -0.07081488 -0.13724972
-0.11764683 -0.04094791 -0.07317828 -0.044205148 0.029342985 -0.0075715887 -0.048124403 -0.026013657
-0.13311468 0.022301728 0.030533046 -0.011625576 -0.036612593 -0.13220723 -0.0006275597 0.01469594
0.024357697 0.0051004244 -0.08663607 -0.08218165 -0.13562082 -0.023804786 -0.017627846 -0.086484864
-0.14800557 -0.0654497 -0.14860524 0.0037021227 -0.113879025 -0.06280138 -0.02056899 -0.123360924
-0.08890152 -0.14091505 -0.14422226 0.0020458514 -0.10399729 -0.08189141 -0.00980773 -0.15141153
-0.10475618 -0.015492765 -0.07511915 -0.061080385 -0.007317608 -0.11265805 -0.0060025114 0.017462092
-0.04170085 -0.034026727 0.011371241 0.03401572 -0.4952076 -1.9244896 -0.34699252 0.1015638
-3.348771 -0.1404169 -2.656231 -1.4507309 -0.53047085 -1.2222209 -2.3727474 -0.6354167
1.1370388 0.1539925 -8.256435 0.44418415 2.2858877 0.16923217 -1.6248673 1.7331247
-1.0328928 -1.2581917 0.36267048 0.09954081 0.24743974 -0.7025287 1.1650395 -1.0471644
0.90650576 -1.035202 2.040196 2.6969187 1.7298937 -0.8854013 0.4011403 0.14817822
-0.19136314 -0.05926895 0.08391557 0.35018548 -0.30705965 0.64706576 0.28897154 0.43979836
0.16887605 -1.8503399 1.7522775 -1.2391251 0.5843813 -2.5365064 0.58959264 -1.7168177
1.1744303 6.0247564 -0.31754386 0.7718727 -2.0209713 -0.3826263 0.45155796 -0.21108417
0.42388916 -0.19820249 0.5250639 2.5157294 0.8175204 1.8560046 -0.74262416 1.4658374
-0.2959494 -1.5200299 -0.084866256 0.5807119 0.7164518 -0.045762535 -0.17105688 0.014939192
-1.0782206 -0.44114333 0.12140051 1.6219057 6.247318 0.049721904 0.2039479 0.34836084
-1.1945437 -0.5831988 -0.7305305 7.7298594 0.22974215 0.3905685 -0.35174724 -0.6369153
2.6281557 1.4167755 0.14801455 -0.19920492 -7.7699842 -2.589593 0.59303015 0.1378227
-4.7926407 -0.2150254 3.711434 0.31537807 0.12760027 -0.71622384 0.13840978 2.0857415
-1.6876647 0.4173304 -1.3973315 0.1996083 -0.9004557 0.5547282 1.8657302 -0.3059054
2.0447812 -2.3886535 1.3019949 -0.13082151 -0.07284413 -0.35119542 1.695271 -3.5257077
0.053993247 2.0476294 1.2711686 -2.1599808 0.23814368 -0.3806989 1.192104 -0.042513356
-1.0243393 2.1472816 1.1596267 -0.1307985 0.03364474 -2.098853 1.4551928 5.018905
0.053575844 -0.7399513 0.22503997 -2.4439018 -0.41020972 0.075393744 0.52443564 0.5418606
0.5622895 0.5974286 0.35646108 -0.31987032 0.2755359 0.32426766 -3.0288744 -0.1005962

fc2.bias f4 [50]
00000000: 4bdb 15be af9e d63e 5b85 a53f ed36 40bd
00000010: 59a9 31bf 351c cebf 62e6 debf 755a 15bf
00000020: 38a7 03c0 561a 873f 8936 2dbf d300 fe3f
00000030: aab3 353f 8d3d 183f a48a edbd 6e58 a7bf
00000040: 6a13 16c0 0311 ecbe 18c0 15bf 195c 4540
00000050: 0a86 8c3e 67c5 d6bc e4fb a2bd 54a9 9f3f
00000060: 8952 b6bd 29c2 2dbe 9621 9d3e d07d 40c0
00000070: f2b5 1abd bc7a c83f d05e 11be 9f96 e8be
00000080: 7de3 5b3f 7de4 dabd 35d3 dabb bd84 133d
00000090: b65b d43e 77a3 4cc0 b5b3 1e3f 3fdc d4be
000000a0: 3f82 9bbf b523 e13f a07a 013b 0319 38bf
000000b0: 1a33 c9bf 92f5 573c d2f4 02bf 1f5a f63f
000000c0: b049 04c0 a049 22c0
-0.14634435 0.4191794 1.2931322 -0.04692738 -0.6939903 -1.6102358 -1.7414057 -0.5834115
-2.0570812 1.0554912 -0.6766134 1.9844002 0.7097727 0.5946892 -0.11598709 -1.3073862
-2.344935 -0.4610673 -0.58496237 3.0837462 0.27446014 -0.026217176 -0.079582006 1.247355
-0.08902461 -0.16968597 0.30689687 -3.007679 -0.037771173 1.5662456 -0.14196324 -0.45427415
0.85893995 -0.10688112 -0.00667801 0.03601526 0.4147622 -3.197477 0.6199296 -0.41574284
-1.2149123 1.7589022 0.0019756928 -0.71913165 -1.571872 0.013181107 -0.51154816 1.9246253
-2.0669975 -2.5357437

fc3.weight f4 [25, 50]
00000000: 7226 7bbd 1663 4abd ec2b 0ebe 1c39 18be
00000010: 2061 d5bd d1f6 c9bd 2261 813d b5fc 94be
00000020: f983 e2be 3824 93bd 32e2 acbe 9a3b f1bd
00000030: d3bb a5bd 0121 84be 4ec9 703d 4c59 d0be
00000040: e3dd 0dbe b3ce 18be 7c8b 3dbe c7d5 55be
00000050: 714c f2bd f581 7b3d 2fa3 f63c 9417 a4be
00000060: 086b 7a3d 868e 63bd 167e b5bd 10e9 b0be
00000070: 294e acbd 7222 403d b852 c9bd 1f43 7c3d
00000080: 7894 b4be d811 2b3d f52e cabd 2612 8fbd
00000090: e823 babc 3af6 a9bd 8f64 95be c054 00bf
000000a0: 431b 84be 6a74 d7be d9e9 ed3d 453e a8be
000000b0: 0c6d cbbe 95c5 23be 66f4 1ebe 3037 183d
000000c0: 3fe9 03be 7176 84be c0d0 09bd 6c5c 3ec0
000000d0: dfb1 a1be 9876 eb3d 56ca 94be 6aa5 20bf
000000e0: 8a52 adbf b853 ccbf a752 e43f 0716 20be
000000f0: 1dde 233f 78e1 5cbe c93f 1b3f 97d1 05c0
00000100: 0595 873d a835 abbf 14f0 293f 9702 3e3d
00000110: 6f5e e8be e2f9 bd3f 1a3b 6e3f 73ce e2bd
00000120: 6468 f23c 4849 653f 7105 963d db56 d43d
00000130: d246 80bf 338c e3bf 5b8b 04bd 4259 4c3d
00000140: b90d 2a3e 392c 00c0 6b44 6ac0 4d28 293e
00000150: 9175 803e c82c 81bd 318b 57c0 dd17 8d3f
00000160: 2100 953f c3d6 d73c e1a4 2ec0 7812 a6bf
00000170: 7e69 0bbc ed68 eabf cbd5 b2bf 99fb 433e
00000180: 05e4 083e 17a3 663e b895 16c0 41c4 dc3f
00000190: c5ca bfba 58a9 8dbf f77f a33e 349e cf3c
000001a0: 1880 04c0 81c4 20bc e747 54c0 59b3 97bf
000001b0: ed02 103e 4eb9 453e ff42 2c3f ecb9 433e
000001c0: 8e73 c33f cf1a 263e 8977 af3d 2cfe 283f
000001d0: 398b 8fbf 89b5 9b3d 0227 c23f 4ebf bdbe
000001e0: 1a8a 8f3e 941b 75bd 4255 62bc 6a52 873f
000001f0: 9e98 d539 94c5 c03d 7567 33bf cbc5 bf3b
00000200: 29ec 333e 3ba0 913f 8e30 ab3b 9333 7bc0
00000210: 425a 093e 7e61 c53d 709d d13d 6cdc 01be
00000220: 83f6 11bf 0876 503f 7213 9dbf 33d5 383d
00000230: a03d 95c0 6513 c03f 0eea 393d da1b a8be
00000240: 66e6 863f e87b 4a3e 2d94 813d 3297 12bf
00000250: 6e21 9cc0 d4df 123e 7d64 5a3c f858 b1bf
00000260: a9ed 483e b3b8 063d d4c8 49be ccc0 7a3f
00000270: 4ae8 3d3e 090c 02bf 6243 a63e 0c95 8e3f
00000280: 1ea9 0abf 0097 12bf 6721 a83f 97c1 5fbe
00000290: 0231 eabd 0658 dcbe f285 9cbf 84d1 35bd
000002a0: 80c6 12bd 6b00 15c0 fd51 0fc0 a9cb 88bc
000002b0: 6eb7 3cbe 5a8a 2abe 684c edbd 2937 29be
000002c0: 4369 d4c0 e2a0 37bf e45b 053d 84f2 48bf
000002d0: cc7b 4ebd 25c8 93be 6f99 3f3f 93fe 0dbe
000002e0: c844 03be f0c3 e63d c6bc 80bf ceac 303e
000002f0: dbe9 f83e 3e61 253e 95dc 93be 01f5 42be
00000300: fcc7 ee3d 9b1e 0dbe 1c9e e0bc 807b 19bb
00000310: c01a 0ec0 832f bdbf fc1e 313e e71d 473e
00000320: d099 2dbd 3c4d 9abf ee72 11bf fb49 d1bb
00000330: b4d4 c2be a623 083f 376a 4b3d ccaf b6be
00000340: f8b9 ba3e a53c c9c0 a9af 12bf a266 3dbe
00000350: 156f 69bf 0312 33bf be7b 943b 48fb 2d3f
00000360: e457 9dbd 5bd3 bc3d c5b9 75bf 1d2d 3cbf
00000370: 97da 233f bbd3 f73d f3be 17bd 9a64 54bf
00000380: b0df 9a3c 9ef2 08be fbed 28c0 1c61 38bf
00000390: e144 76bb 11de 863c 4c64 6cbb ddbb f7be
000003a0: d965 b9be 3bb3 9abd 0cad 14be c3f5 e2bc
000003b0: 582b cebf 6be7 01bf cab2 0dbf 5006 093f
000003c0: f28b a03d 8ac9 f1bd 8e5a 98bd 4cae 47be
000003d0: 7106 75be 6853 f3bb deab 18bc 05da bb3d
000003e0: 85c3 76be b4ac ddbf a050 0fbd cbc3 513f
000003f0: d2ff c6bc 1252 cbbd 6ce8 6dbf 1f58 a6bf
-0.06131596 -0.049410902 -0.13883942 -0.14865535 -0.10418916 -0.098615296 0.06317355 -0.2909905
-0.44241312 -0.071846426 -0.33766323 -0.11778946 -0.08092465 -0.2580643 0.05878573 -0.40693128
-0.13854174 -0.149226 -0.1851024 -0.20882331 -0.11830986 0.061403234 0.030107109 -0.3204924
0.06113723 -0.055555843 -0.088619396 -0.34552813 -0.08413345 0.04690785 -0.098302305 0.06158745
-0.35269523 0.041765064 -0.098722376 -0.069858834 -0.0227222 -0.08298917 -0.29178283 -0.5012932
-0.2580205 -0.42081004 0.116168685 -0.32860008 -0.39731634 -0.1599334 -0.15522918 0.037162006
-0.12881945 -0.25871614 -0.033646345 -2.974391 -0.31581017 0.11497229 -0.2906062 -0.627524
-1.3540814 -1.5963049 1.7837723 -0.15633403 0.6401079 -0.21570385 0.60644203 -2.0909173
0.0662022 -1.337575 0.66381955 0.04638919 -0.45384547 1.4841883 0.9305893 -0.11074533
0.029590793 0.89564943 0.073252566 0.10368129 -1.0021613 -1.777716 -0.032359462 0.04988981
0.16606797 -2.0026991 -3.660426 0.1651928 0.25089696 -0.063073695 -3.3678706 1.1022907
1.1640664 0.026347524 -2.7288134 -1.2974386 -0.008509038 -1.8313271 -1.3971494 0.19138946
0.13368233 0.22523151 -2.352888 1.7247392 -0.0014632574 -1.1067305 0.31933567 0.025343992
-2.0703182 -0.009812475 -3.3168886 -1.1851608 0.14063616 0.1930897 0.6728973 0.19113892
1.526964 0.16221164 0.085677214 0.66012836 -1.1214362 0.076029845 1.5168154 -0.37060016
0.2803505 -0.059840754 -0.013814272 1.0572026 0.00040740235 0.09412685 -0.7007974 0.005852436
0.17570557 1.1377023 0.005224294 -3.9250228 0.13413337 0.09637736 0.10235107 -0.1268174
-0.5701677 0.814301 -1.2271559 0.045125198 -4.6637726 1.5005919 0.045389228 -0.3283375
1.0539062 0.19773829 0.063270904 -0.57261956 -4.879081 0.14343196 0.013329622 -1.3855276
0.1962191 0.032890987 -0.19705516 0.97950435 0.18545642 -0.50799614 0.32473284 1.1139235
-0.541643 -0.5726166 1.3135194 -0.21851192 -0.11435129 -0.43035907 -1.2228377 -0.044389263
-0.035833836 -2.3281505 -2.2393792 -0.016698675 -0.18429348 -0.1665434 -0.11586839 -0.16524948
-6.6378493 -0.7172986 0.032558337 -0.7849505 -0.05041103 -0.28863636 0.74843496 -0.13866644
-0.12819207 0.11267841 -1.0057609 0.1725342 0.48615918 0.16150376 -0.28879228 -0.19038774
0.11659238 -0.13781206 -0.027419142 -0.002341956 -2.2203827 -1.4780124 0.17296976 0.19445
-0.042383015 -1.205482 -0.56815994 -0.006386993 -0.38052905 0.53179395 0.04966184 -0.35680997
0.36470008 -6.288653 -0.57299286 -0.18496183 -0.9118512 -0.6994936 0.004531353 0.6796155
-0.076827794 0.0922 -0.95986587 -0.7350634 0.64005417 0.12100931 -0.037047338 -0.82966006
0.01890549 -0.13373801 -2.6395252 -0.7202318 -0.0037577676 0.016463311 -0.0036070524 -0.48385516
-0.36210516 -0.07553717 -0.14519137 -0.027705079 -1.6106977 -0.5074374 -0.55350935 0.5352526
0.078391925 -0.11806019 -0.07439147 -0.19500083 -0.23928238 -0.0074257143 -0.00931832 0.09172443
-0.24098022 -1.731833 -0.034989 0.8193938 -0.024291907 -0.09927763 -0.9293277 -1.2995642

fc3.bias f4 [25]
00000000: edb2 dfbe 3310 db3e 35bc e93f 9495 913f
00000010: 860e 1dbf ae28 6f3f f823 963f b1e0 43c0
00000020: a797 6d40 89ae 02bf dd2b 3cbf 469b 05bf
00000030: 3a41 39bd 69a2 0ebf 2301 8d3f 90b7 1b3f
00000040: d14f 56bf c831 673e 0399 9c3e fcd2 a4be
00000050: 0758 d8bf dd56 92be dc3a 953e 0e8b 0140
00000060: 0915 d43f
-0.43691197 0.42785797 1.8260561 1.1373773 -0.61350286 0.9342145 1.1729727 -3.060589
3.7123811 -0.5104757 -0.7350443 -0.52190053 -0.04522822 -0.5571657 1.1015972 0.6082697
-0.8371554 0.22577584 0.3058549 -0.32192218 -1.6901864 -0.28581896 0.2914647 2.0241122
1.656892

fc4.weight f4 [5, 25]
00000000: cef0 93be ffc6 843e 0775 d13d 73d5 833e
00000010: 2677 e7be 26be 6d3e 0daf b73d 9ec5 e93e
00000020: 189a 27be f303 b43d efbc 943d 80a5 e0bd
00000030: c493 263b 5673 02bb c2b4 ebbd 4130 ea3d
00000040: 9401 3cbe a6bf 0d3e b6f0 fabd 08f3 15be
00000050: 0ed6 11bd 386c 84bd b3ef 3c3e e059 3bbe
00000060: b836 ab3d eb03 c1bd 443b 1e3f 7b3b 3a3e
00000070: 78d4 c13e b8ab dfbe d46e fb3e 0b42 463e
00000080: 4921 db3e 38d2 8dbe d99d 7a3e 85dd 383e
00000090: 8254 96be cf57 1b3e 5708 39be a678 94be
000000a0: ed44 a13e 5883 8dbe 125a da3e 3a92 f5bc
000000b0: 0b68 a2be cab9 5fbe 99c6 35bc 5043 fd3e
000000c0: 3222 dbbe a082 4a3e f780 a6be 7a4b 963f
000000d0: 4cca a03e ceb3 f63e d723 a8be e30b 5e3f
000000e0: 4f53 bd3e b2b7 973e cc77 f1be 7c7a eb3e
000000f0: 563d 0f3f 3d8e 13bf 032f 673d 2d92 11bf
00000100: 8692 08bf 6d16 1e3f 80f4 cbbe bc8f 573f
00000110: 225a f83d 8f20 adbe 3ed7 11bf f5dc d03c
00000120: 999b 853f 012d 57bf 84ed bd3e ebce dbbe
00000130: 40e4 f93f 4c39 013f 7e96 6d3e e9c7 4fbe
00000140: af6a a03f 5252 223f 09e3 323d 627a 36bf
00000150: f1f3 3f3f b635 603f 6f72 77bf 0349 af3d
00000160: 2599 96bf 1901 5dbf 88dc 843f 09fb 0dbf
00000170: e7d7 b43f 9060 b43e 979b e3be 6082 79bf
00000180: c3da 3dbd 36d2 ee3f f6e6 b2bf 3081 1c3f
00000190: aa5c 86be 3061 4240 3606 433f a972 7cbe
000001a0: 622b 88bd f282 cb3f a353 833f 1a5a c4be
000001b0: 2193 80bf 115e 8f3f 7172 b6bd c9e6 bcbf
000001c0: 396a 8cbd ac19 06c0 d0ee a3bf bdc2 ce3f
000001d0: 0911 3fbf d832 0940 6d76 263f 3ed4 0fbe
000001e0: 0447 dbbf e596 ba3d 09f0 4240 94b9 0cc0
000001f0: e8a9 713f
-0.28894657 0.25933072 0.10227399 0.25748786 -0.4520809 0.23217067 0.08968935 0.45658582
-0.16367376 0.08789816 0.07262599 -0.109690666 0.0025417665 -0.0019905171 -0.11509086 0.11434985
-0.18359977 0.1384264 -0.12252943 -0.1464349 -0.03560453 -0.064659536 0.18450813 -0.18296003
0.08360046 -0.094245754 0.6180918 0.18186752 0.37857413 -0.43685699 0.49107993 0.19361131
0.42798832 -0.27699447 0.24474277 0.18053253 -0.2936135 0.15170215 -0.18069588 -0.28998297
0.314979 -0.2763927 0.42646843 -0.029976953 -0.31720003 -0.21848217 -0.011094713 0.49465418
-0.42799526 0.19776392 -0.32520267 1.1741784 0.3140434 0.48184055 -0.32839844 0.8673689
0.36977622 0.29632336 -0.4716171 0.45991886 0.55952966 -0.57638913 0.05644132 -0.5686367
-0.5334858 0.6175297 -0.39834976 0.84203696 0.121265665 -0.33813903 -0.5696906 0.025495986
1.043811 -0.84053046 0.37095273 -0.42931303 1.9522781 0.50478053 0.2320194 -0.20291103
1.2532557 0.6340686 0.04367355 -0.7128049 0.749816 0.87581956 -0.96658987 0.08558848
-1.1765486 -0.863298 1.0379801 -0.55461174 1.4128388 0.3522992 -0.44454643 -0.9746456
-0.046351206 1.8657901 -1.3976734 0.61134624 -0.26242572 3.0371819 0.7618135 -0.24653114
-0.066488996 1.5899336 1.0259899 -0.38349992 -1.00449 1.1200582 -0.08908547 -1.475793
-0.06856198 -2.095317 -1.2807255 1.615318 -0.7463537 2.1437283 0.65024453 -0.14045808
-1.7131047 0.09110812 3.0459006 -2.1988268 0.9439988

fc4.bias f4 [5]
00000000: 416c 3fbe 4a5a 6dbd 25f0 4e3c 5a0b a8bd
00000010: b610 2d3e
-0.1869364 -0.057947434 0.012630497 -0.0820529 0.16900906
