GraphPredictor/models/model1.pt (torch, 26046 bytes, 6 tensors)

fc1.weight f4 [100, 5]
-0.18451616 0.34432158 0.065685295 -0.40040725 0.38952625 0.33321056 -0.0078089125 -0.31227294
-0.44991344 0.494521 0.3811953 0.2957396 0.36341977 -0.27452314 -0.4528044 -0.565204
-0.18204278 -0.71822405 -0.19665101 0.29792914 0.05144194 0.2994674 0.043010235 -0.5010925
-0.47236848 -0.25619927 -0.22208442 -0.3942782 -0.35097024 0.4058128 0.09648892 -0.36868277
0.1172033 0.2945795 0.21148811 -0.6295255 0.07567889 0.05647345 0.011104548 0.17232285
-0.023916963 -0.27207762 -0.07771401 0.18650441 0.17724468 -0.077579476 -0.21854481 -0.13360108
-0.6559562 -0.48490638 0.08752602 -0.12843059 0.09478722 -0.2851048 -0.43919823 -0.28182024
0.4159758 0.06326354 0.6351721 -0.68282604 0.84737825 -0.40783396 0.2053434 0.16079547
-0.23024844 0.056687575 0.1993976 0.43965262 0.030967748 -0.69023496 -0.3518274 0.48826814
0.33763894 -0.41262063 0.10523067 0.4882434 0.33797586 -0.018944986 -0.12642446 0.20083597
-0.24037789 0.30785552 -0.51863325 0.21019979 0.31568968 -0.100616254 0.48319733 -0.3013781
0.13107458 -0.7577886 -0.5610573 0.3514044 0.5879851 -0.14142421 -0.70790035 -0.48422402
0.37390608 0.22314401 0.20935088 -0.6944084 0.17804591 0.23303758 -0.17297573 0.24621308
-0.64527076 -0.24233697 0.53824806 -0.17832817 -0.13526396 -0.36442727 0.27394053 -0.11750024
0.2208388 0.14982954 -0.6413171 0.033934727 0.0055732857 0.36850524 0.113414474 -0.49659842
-0.9633323 0.18987244 0.36387098 0.2040731 -0.36896783 -0.051233985 -0.23367092 -0.5758818
0.86458683 -0.61519337 -0.11687704 0.289475 0.3892259 0.13580264 -0.37186953 -0.04432042
-0.27878353 -0.4131235 -0.84823585 -0.12554067 -0.8924738 -0.32144332 1.1109536 0.07140924
-0.5181527 0.33282852 0.2860245 -0.23004718 -0.17156915 -0.57437676 -0.025591299 0.36546403
0.14876643 0.14658932 -0.5986813 0.052849613 -0.024771314 0.37967342 0.21279658 -0.58436227
-0.36442477 -0.72157687 -0.066189826 0.44364935 0.0663628 -0.47973073 0.018052323 -0.15171684
-0.2583334 0.38689345 0.6087195 0.6504322 -0.42849833 0.27366132 -0.12013829 -0.050369613
0.309815 -0.1100472 0.43281612 0.36206305 -0.4677006 0.83514047 -0.021301039 0.3657349
-0.62627345 -0.59415615 0.11214337 0.57713664 -0.14831558 -0.49146652 -0.30699477 0.41039795
-0.06071532 0.5011238 -0.50197774 -0.2263895 -0.6518983 0.029524619 0.16672224 0.15602772
0.4670754 -0.056244016 -0.04318111 -0.6021552 0.35790673 0.60896313 0.26433828 -0.26195142
-0.050283305 -0.27933306 -0.4693149 -0.091314755 0.35140264 0.22578724 0.16407582 0.34729874
0.42487752 -0.28189847 -0.09758049 -0.072047345 -0.16442849 0.23427202 -0.48773152 0.40773004
0.18218496 -0.21555705 -0.340252 -0.024732595 0.04356892 0.17904817 0.43844286 -0.56438637
-0.44913095 0.27238756 -0.444095 0.07050853 -0.042126637 -0.42671108 -0.18776256 0.56972533
-0.28695285 -0.12000102 0.13413611 -0.0098928185 -1.0702491 0.4038229 -0.32910797 0.3570259
-0.032065615 0.47660008 0.34876487 0.4439174 -0.26240376 0.39016202 0.31124166 -0.4594404
00000000: cef1 3cbe eb4a b03e 0386 863d 2e02 cdbe
00000010: fc6f c73e 939a aa3e e8e1 ffbb 3de2 9fbe
00000020: 0e5b e6be db31 fd3e 082c c33e 2e6b 973e
00000030: 2812 ba3e 4c8e 8cbe fad5 e7be 36b1 10bf
00000040: 6c69 3abe 88dd 37bf e25e 49be 2b8a 983e
00000050: c9b4 523d cb53 993e 802b 303d 9947 00bf
00000060: 48da f1be 8d2c 83be 196a 63be d5de c9be
00000070: 5fb2 b3be b2c6 cf3e fc9b c53d fdc3 bcbe
00000080: 4908 f03d 20d3 963e 5790 583e 9528 21bf
00000090: 89fd 9a3d b450 673d daef 353c 6775 303e
000000a0: 82ed c3bc c24d 8bbe 8628 9fbd 03fb 3e3e
000000b0: a17f 353e fde1 9ebd 36ca 5fbe b9ce 08be
000000c0: bfec 27bf a645 f8be d840 b33d 4f83 03be
000000d0: cd1f c23d 42f9 91be 97de e0be be4a 90be
000000e0: c8fa d43e 5190 813d a49a 223f b0cd 2ebf
000000f0: c8ed 583f 9dcf d0be 8a45 523e 91a7 243e
00000100: 3fc6 6bbe 3b31 683d e22e 4c3e 261a e13e
00000110: 13b0 fd3c 3db3 30bf b922 b4be 48fe f93e
00000120: 03df ac3e 0343 d3be 2d83 d73d 0afb f93e
00000130: 2c0b ad3e 8432 9bbc 6a75 01be f2a7 4d3e
00000140: 9f25 76be 3d9f 9d3e 26c5 04bf 9d3e 573e
00000150: 14a2 a13e e50f cebd a465 f73e 3b4e 9abe
00000160: 6a38 063e 6ffe 41bf 74a1 0fbf 47eb b33e
00000170: 3186 163f 82d1 10be f538 35bf 36ec f7be
00000180: 9e70 bf3e dd7f 643e 1460 563e c0c4 31bf
00000190: ab51 363e 67a1 6e3e 8d20 31be 481f 7c3e
000001a0: 7730 25bf 2f27 78be a0ca 093f a99b 36be
000001b0: a382 0abe 3696 babe ef41 8c3e f7a3 f0bd
000001c0: 9123 623e ea6c 193e 5c2d 24bf 24ff 0a3d
000001d0: 1ca0 b63b b8ac bc3e d945 e83d 2642 febe
000001e0: f29c 76bf ec6d 423e 4c4d ba3e 8af8 503e
000001f0: 5ae9 bcbe bada 51bd 6e47 6fbe fd6c 13bf
00000200: 9055 5d3f 507d 1dbf 3b5d efbd 1136 943e
00000210: 9e48 c73e d90f 0b3e af65 bebe 5489 35bd
00000220: b7bc 8ebe ec84 d3be fc25 59bf bc8d 00be
00000230: 2a79 64bf 3894 a4be ba33 8e3f 023f 923d
00000240: a8a5 04bf 8068 aa3e ce71 923e 7d91 6bbe
00000250: d3af 2fbe 5b0a 13bf d8a4 d1bc 1a1e bb3e
00000260: 3a56 183e 831b 163e 2d43 19bf d678 583d
00000270: 36ed cabc 8e64 c23e 59e7 593e c498 15bf
00000280: e295 babe 43b9 38bf 888e 87bd 0226 e33e
00000290: 38e9 873d 449f f5be 77e2 933c a95b 1bbe
000002a0: 4744 84be e616 c63e 0bd5 1b3f ba82 263f
000002b0: 2264 dbbe 561d 8c3e 100b f6bd 5e50 4ebd
000002c0: 12a0 9e3e 6d60 e1bd 139a dd3e 5460 b93e
000002d0: 7476 efbe c4cb 553f 847f aebc 9b41 bb3e
000002e0: 7553 20bf 9e1a 18bf 6cab e53d 3abf 133f
000002f0: 0ae0 17be 80a1 fbbe 6b2e 9dbe ae1f d23e
00000300: a1b0 78bd a649 003f 9d81 00bf a6d2 67be
00000310: cfe2 26bf 9ddd f13c 3cb9 2a3e bbc5 1f3e
00000320: 8224 ef3e 2060 66bd adde 30bd d826 1abf
00000330: 8d3f b73e 02e5 1b3f 5957 873e 7f1e 86be
00000340: def5 4dbd be04 8fbe 0b4a f0be 3b03 bbbd
00000350: 0ceb b33e c534 673e 7e03 283e 24d1 b13e
00000360: 8c89 d93e ff54 90be 48d8 c7bd 8f8d 93bd
00000370: f15f 28be 01e5 6f3e f2b7 f9be fec1 d03e
00000380: b28e 3a3e fdba 5cbe 8335 aebe 039c cabc
00000390: 5375 323d 6758 373e 957b e03e a07b 10bf
000003a0: 7ef4 e5be 6276 8b3e 6b60 e3be c766 903d
000003b0: fb8c 2cbd e079 dabe d444 40be 85d9 113f
000003c0: 7ceb 92be 18c3 f5bd fa5a 093e 7d15 22bc
000003d0: ecfd 88bf e0c1 ce3e d780 a8be 19cc b63e
000003e0: 3c57 03bd ed04 f43e 4f91 b23e 2449 e33e
000003f0: c959 86be 51c3 c73e 115b 9f3e c63b ebbe

fc1.bias f4 [100]
0.47303855 0.58207595 -0.27846527 -0.14344728 1.4838872 -2.3231294 -0.11811345 -0.16848822
0.21362647 -0.18269032 0.492121 0.88204837 1.5021067 -0.8557247 0.06566507 1.8406994
-0.5231169 0.56112117 -1.1253107 -1.2116694 -1.6427921 -0.5734244 -1.692256 -1.0125672
1.261518 2.7431238 0.23820354 -0.42400488 0.58468413 -0.77006626 -0.7358344 -1.2178788
0.49619535 0.08591658 1.2422285 -0.09346669 -1.4688288 -1.4330133 0.98937225 0.441059
1.5048988 -0.40463123 -0.15796128 -0.6434019 -0.2433358 -0.68015367 0.32833353 -0.18948725
0.6218471 0.23548016 -0.50415266 -0.065391 0.44377452 0.2751709 -0.14822567 -0.006553279
-1.722915 -0.52219015 -1.3308712 0.5775052 -1.8982557 -1.6829733 0.89268017 -0.78642154
-0.655108 0.37843442 -0.5093479 0.057747193 -0.685478 -0.7656146 -0.5324439 0.10703511
-0.4454629 -1.4097366 -0.13316695 0.11381496 -0.3430501 0.27039298 -0.5083644 1.1925114
-0.8339795 0.19051118 -0.47692174 -1.2103375 -0.15041211 -0.452913 3.1589136 -0.78020126
-0.03683654 -0.01977208 -0.2309791 -0.6827015 -1.828712 -0.7862511 -0.8632542 0.37291592
0.87897724 -0.22483176 -1.3598313 -1.4174224
00000000: 1c32 f23e ee02 153f 0093 8ebe d8e3 12be
00000010: 04f0 bd3f 27ae 14c0 77e5 f1bd 2d88 2cbe
00000020: e6c0 5a3e 2c13 3bbe 49f7 fb3e eccd 613f
00000030: 0845 c03f c610 5bbf 697b 863d 0a9c eb3f
00000040: fdea 05bf a3a5 0f3f 2e0a 90bf fc17 9bbf
00000050: 0347 d2bf f1cb 12bf d89b d8bf cd9b 81bf
00000060: 6c79 a13f 578f 2f40 a1eb 733e 2b17 d9be
00000070: dcad 153f 1023 45bf a55f 3cbf 74e3 9bbf
00000080: 510d fe3e 08f5 af3d 5801 9f3f 776b bfbd
00000090: 9502 bcbf fb6c b7bf 8047 7d3f 7cd2 e13e
000000a0: 86a0 c03f d32b cfbe 9ac0 21be fdb5 24bf
000000b0: 052d 79be 8d1e 2ebf 551b a83e f208 42be
000000c0: 5f31 1f3f b621 713e 2610 01bf b7eb 85bd
000000d0: 6a36 e33e 33e3 8c3e 78c8 17be e3bc d6bb
000000e0: 7b88 dcbf 41ae 05bf fd59 aabf 61d7 133f
000000f0: 0bfa f2bf ab6b d7bf b086 643f ec52 49bf
00000100: 28b5 27bf 28c2 c13e a064 02bf 5288 6c3d
00000110: 7c7b 2fbf 52ff 43bf 3e4e 08bf 3935 db3d
00000120: b713 e4be 4072 b4bf eb5c 08be d117 e93d
00000130: 43a4 afbe f370 8a3e 2b24 02bf 37a4 983f
00000140: ae7f 55bf 5d15 433e 162f f4be 57ec 9abf
00000150: a205 1abe 36e4 e7be a42b 4a40 45bb 47bf
00000160: e9e1 16bd 0ff9 a1bc c985 6cbe 87c5 2ebf
00000170: 3c13 eabf c147 49bf 3afe 5cbf d6ee be3e
00000180: a704 613f 4c3a 66be f40e aebf 196e b5bf

fc2.weight f4 [50, 100]
0.02584552 0.22986026 0.24875453 0.055649128 0.13461703 0.27225173 -0.022042876 0.12435027
0.03004251 0.0030387046 0.14956021 -0.6184105 0.072113834 -0.012008862 -0.19237635 0.1761647
0.18415597 -0.0821683 -0.023205968 -0.0088089835 0.16187596 0.1463756 0.206281 -0.045379523
-0.14220977 -0.32393757 -0.009418141 0.22252437 -0.46601543 0.23523058 0.34807035 -0.08454615
0.13908397 0.26468948 0.31544217 0.10659384 0.4483598 -0.36222318 -0.11564857 0.2528242
0.17399977 0.28675812 -0.059589203 0.03240039 0.12560178 0.012880883 0.034398053 0.13658614
0.16211955 0.10373423 0.07782147 -0.055417355 -0.025960913 0.13248272 0.0043920996 -0.032234356
0.14907798 -0.048470244 -0.052799113 0.45459008 -0.111882515 0.11053183 0.1501316 0.050103802
-0.035494823 0.17694253 0.11500276 0.06584701 0.41404578 0.13151667 0.17078158 0.07424012
-0.05791431 0.36702582 0.27773803 0.04438335 -0.051860295 -0.055791467 0.005093184 -0.9737305
0.2587063 0.16801302 0.09699593 0.28658736 -0.046097938 -0.45384166 -0.75094724 0.05623778
0.2386012 0.0169291 0.06888393 0.19540711 -0.03112752 0.041642938 0.0333235 0.08533597
-0.16950244 0.112157166 -0.32229272 0.1688502 -0.16819887 -1.1209111 0.23034123 -0.30753818
-0.0076257666 -0.15769514 -0.2745098 -0.0045109107 -0.0886928 0.0111944275 0.11576876 0.26100728
0.529161 0.32845774 0.1049782 -0.17928964 -0.053199377 0.07071244 0.09829374 0.078285664
-0.10352092 -0.18619023 -0.08355849 0.3087487 0.14437018 -0.08050102 0.17428568 0.10122408
-0.039230205 -0.033331454 0.06649482 0.24569638 -0.32697904 -0.4579001 -0.32610786 -0.14812903
-0.22887653 0.31543997 0.25794584 -0.38035667 -0.47788522 0.10172225 -0.19173805 0.18543577
-0.45193046 -0.1314599 -0.08369823 -0.11845543 0.10003549 -0.15899499 -0.06040255 0.052260753
-0.8055399 -0.22503603 -0.060599014 -0.04863324 -0.23200369 0.14794794 0.252761 -0.75027514
-1.5278 0.050526854 0.015156092 -0.013881997 -0.13429932 -0.6438945 -0.1534811 0.27801922
-0.31510556 -0.039316602 -0.11145249 -0.008464265 0.02294275 -0.058535703 0.36516163 -0.18030135
0.12898804 0.22900584 0.23030755 0.3819365 -0.22473463 -0.36367437 -0.046310127 0.09168397
-0.16859972 0.16531624 0.26258242 0.065469794 -0.26488096 -0.09177539 -0.058016025 -0.18603227
0.018763823 -0.26747936 -0.18863684 0.14674704 -0.08546755 0.009628368 0.48995528 -0.06094149
-0.25411913 -0.13676126 0.12498163 -0.044354215 0.1387305 0.086819366 -0.09726205 -0.040993717
0.3033964 0.17134108 0.1743237 0.2407227 0.029875606 0.17513049 0.14214922 -0.37612665
0.058715858 0.038988177 0.12082935 0.020190436 0.00095620827 0.18070614 0.030858034 0.15491033
0.106812865 0.2657356 0.10811575 0.21135628 0.17050815 0.0431017 0.08593396 0.010191024
0.09041956 -0.35585198 0.05714713 -0.1932961 -0.15289328 0.42738733 0.17234139 -0.027188526
-0.2087534 0.102182135 -0.10664445 0.1664812 0.6349208 -0.040562596 0.08023213 0.33674175
0.101737924 -0.16280451 0.0038686285 -0.010858513 0.9394711 -0.054599136 0.092201725 -0.13111301
00000000: fcb9 d33c 7d60 6b3e 82b9 7e3e 57f0 633d
00000010: 0cd9 093e 9464 8b3e 4393 b4bc 5bab fe3d
00000020: b61b f63c 0125 473b 5026 193e 2750 1ebf
00000030: 6bb0 933d d1c0 44bc 4efe 44be 8564 343e
00000040: 6293 3c3e db47 a8bd 711a bebc 8e53 10bc
00000050: d0c2 253e 7ce3 153e 543b 533e e1df 39bd
00000060: 709f 11be 25db a5be 8c4e 1abc 6edd 633e
00000070: 9399 eebe 49e0 703e 4736 b23e 8826 adbd
00000080: 076c 0e3e 6185 873e a381 a13e df4d da3d
00000090: 6a8f e53e 5175 b9be 28d9 ecbd 2c72 813e
000000a0: ff2c 323e f6d1 923e cf13 74bd 45b6 043d
000000b0: c19d 003e 570a 533c f9e4 0c3d 3ddd 0b3e
000000c0: ab02 263e 9d72 d43d dd60 9f3d 4ffd 62bd
000000d0: fbab d4bc 8da9 073e 9aeb 8f3b 2c08 04bd
000000e0: e6a7 183e bc88 46bd e243 58bd 08c0 e83e
000000f0: a922 e5bd 835e e23d 19bc 193e a539 4d3d
00000100: 0563 11bd 6c30 353e 9186 eb3d ccda 863d
00000110: cffd d33e 4eac 063e 5ee1 2e3e 340b 983d
00000120: 8e37 6dbd cfea bb3e ae33 8e3e 51cb 353d
00000130: 766b 54bd 9885 64bd b9e4 a63b 6746 79bf
00000140: 2775 843e 9b0b 2c3e cda5 c63d 94bb 923e
00000150: 31d1 3cbd ef5d e8be 143e 40bf 9659 663d
00000160: df53 743e e5ae 8a3c 0513 8d3d cd18 483e
00000170: 24ff febc c991 2a3d 397e 083d a0c4 ae3d
00000180: 0c92 2dbe a8b2 e53d 8d03 a5be 11e7 2c3e
00000190: 533c 2cbe 047a 8fbf 92de 6b3e a575 9dbe
000001a0: 91e1 f9bb d67a 21be 8c8c 8cbe 43d0 93bb
000001b0: 92a4 b5bd d568 373c 2c18 ed3d bfa2 853e
000001c0: 1877 073f 9d2b a83e cffe d63d b497 37be
000001d0: 97e7 59bd afd1 903d 3a4e c93d 3c54 a03d
000001e0: c702 d4bd a7a8 3ebe b720 abbd 4f14 9e3e
000001f0: c7d5 133e b8dd a4bd f277 323e 924e cf3d
00000200: daaf 20bd 9086 08bd 702e 883d d597 7b3e
00000210: cc69 a7be e271 eabe 9cf7 a6be 23af 17be
00000220: 9c5e 6abe 5981 a13e 7a11 843e 1cbe c2be
00000230: 5fad f4be c153 d03d fb56 44be e0e2 3d3e
00000240: 6e63 e7be 6d9d 06be fa69 abbd c398 f2bd
00000250: 68df cc3d 95cf 22be aa68 77bd 5f0f 563d
00000260: dd37 4ebf d86f 66be ac36 78bd a633 47bd
00000270: 6092 6dbe aa7f 173e e469 813e 0812 40bf
00000280: f38e c3bf 3ff5 4e3d 4251 783c 5171 63bc
00000290: c385 09be 45d6 24bf 262a 1dbe 8958 8e3e
000002a0: 8455 a1be 720a 21bd 3441 e4bd b3ad 0abc
000002b0: 6ff2 bb3c 22c3 6fbd 77f6 ba3e eba0 38be
000002c0: 7115 043e 8280 6a3e bed5 6b3e 2e8d c33e
000002d0: d620 66be 8733 babe b0af 3dbd cec4 bb3d
000002e0: 68a5 2cbe a948 293e 3471 863e 0715 863d
000002f0: 7a9e 87be bcf4 bbbd 36a2 6dbd 3e7f 3ebe
00000300: 97b6 993c 0ef3 88be 042a 41be db44 163e
00000310: 9c09 afbd 4dc0 1d3c 6bdb fa3e c99d 79bd
00000320: e71b 82be 250b 0cbe 5ef6 ff3d c4ac 35bd
00000330: 5e0f 0e3e 5ace b13d 5331 c7bd 07e9 27bd
00000340: c656 9b3e 0974 2f3e e981 323e 0380 763e
00000350: b0bd f43c 6855 333e 918f 113e ac93 c0be
00000360: 0a80 703d 11b2 1f3d 6175 f73d 6a66 a53c
00000370: 0daa 7a3a 080b 393e fdc9 fc3c d0a0 1e3e
00000380: b4c0 da3d 7f0e 883e ca6b dd3d c86d 583e
00000390: b099 2e3e 688b 303d 25fe af3d 41f8 263c
000003a0: e42d b93d 3b32 b6be 1c13 6a3d 6aef 45be
000003b0: 0e90 1cbe 83d2 da3e 437a 303e 79ba debc
000003c0: 74c3 55be de44 d13d 6868 dabd 0c7a 2a3e
000003d0: 2b8a 223f f724 26bd be50 a43d 6a69 ac3e
000003e0: f95b d03d 3ab6 26be d188 7d3b e8e7 31bc
000003f0: 2e81 703f 58a3 5fbd 42d4 bc3d 7d42 06be

fc2.bias f4 [50]
-0.04208641 0.03536792 0.07364686 0.098855756 0.06441075 0.36364853 0.26875803 -0.025615143
-0.44043848 -0.09677058 -0.07137478 -0.08867458 -0.034964584 0.034491908 0.75529504 -0.0048839743
0.078816175 0.296598 0.3051409 0.11427046 0.34137812 0.24271445 -0.162437 -0.2916112
0.09335395 0.043161873 0.10681526 0.07153052 -0.01995324 -0.15602548 1.616561 0.15193546
-0.17263693 0.12651652 0.08155803 -0.20592502 -0.0340663 -0.011093551 0.08246535 0.0059108157
0.54811114 -0.13227893 -0.56290925 -0.27675003 -0.18829487 -0.13635933 0.08014148 0.045190815
-0.07796634 -0.02529023
00000000: cd62 2cbd f4dd 103d 2ad4 963d e374 ca3d
00000010: c9e9 833d 2430 ba3e a79a 893e d9d6 d1bc
00000020: 2781 e1be a72f c6bd f12c 92bd 059b b5bd
00000030: 0637 0fbd 6347 0d3d 045b 413f bf09 a0bb
00000040: 606a a13d b1db 973e 6e3b 9c3e a206 ea3d
00000050: 1dc9 ae3e 238a 783e e355 26be 104e 95be
00000060: 5b30 bf3d 81ca 303d f6c1 da3d 987e 923d
00000070: fa74 a3bc 25c5 1fbe 79eb ce3f f894 1b3e
00000080: bcc7 30be 8c8d 013e e507 a73d 02de 52be
00000090: 1b89 0bbd bac1 35bc 98e3 a83d 84af c13b
000000a0: 0351 0c3f 2174 07be d21a 10bf 2eb2 8dbe
000000b0: 5fd0 40be c8a1 0bbe 3721 a43d 011a 393d
000000c0: d1ac 9fbd 752d cfbc

fc3.weight f4 [5, 50]
0.09147623 -0.018160347 -0.09503423 0.031948432 0.0894257 -0.031009935 -0.07929646 0.091846086
0.04204259 -0.051233582 0.18469319 0.012519032 0.17953096 0.17659107 0.0088567445 -0.04031371
-0.018835219 -0.114833266 -0.039519273 -0.06569101 0.018128073 -0.037299782 0.07964184 0.13174911
0.052304734 0.10625532 -0.16387263 -0.10001595 -0.041597217 -0.01917814 0.49894562 0.10945463
-0.026638452 0.011025574 0.19981143 -0.058737 -0.048580218 0.00029134186 0.1926016 0.029370818
-0.061605338 0.11531589 -0.068268105 -0.022530058 -0.018207494 0.15524508 -0.0018307379 -0.1291049
-0.09008488 -0.003417346 -0.023253847 0.03278462 -0.056560382 0.15546197 0.09415972 -0.15834929
0.11147224 0.18484959 -0.0021647466 -0.12321702 0.16227117 0.070128515 0.24898362 0.006710862
-0.029622966 0.13545568 -0.04221398 -0.16847005 0.009534096 -0.12352469 -0.03919214 -0.14487405
0.16649114 -0.0010877814 -0.028633516 0.10198199 0.084229 -0.015916126 -0.07551656 -0.120452
1.1895523 0.044302884 0.00602637 -0.077051245 0.22045395 -0.09489385 -0.19394967 -0.03288311
0.0009957289 0.18832056 -0.06239237 0.022340696 -0.024626555 -0.23785512 0.17397167 -0.029670151
0.10814846 -0.12473172 0.07867143 0.015189993 0.12701178 -0.088822655 -0.08728992 0.3027194
0.11462186 -0.24621452 0.13218342 0.045184765 -0.19107726 0.06620314 -0.021566201 0.02919538
0.04347542 0.021214118 -0.11818012 0.17142601 -0.011470322 -0.19574772 -0.20674896 -0.13012959
0.030132255 -0.19223426 0.3599926 0.1291364 0.035808504 0.046075508 0.00473398 0.11095163
-0.13629895 0.089077175 2.3318663 0.12931795 -0.15977111 -0.12090848 0.07622996 -0.041374832
-0.120126195 0.18356155 0.22939341 0.17481096 -0.10473688 0.12425127 0.03486937 -0.26810417
0.047083676 0.122374244 0.17463921 0.090852216 0.07550032 0.13297296 0.08068443 -0.21869752
-0.13653944 0.59123564 0.083064325 -0.24228166 -0.002005828 0.20967187 -0.28471223 0.048813604
-0.023780853 -0.09364654 0.100834504 -0.061932027 -0.24316704 0.23446397 0.24623115 -0.11029744
-0.2357115 0.04620918 0.104913466 -0.10919424 0.63621306 0.21483806 0.13147804 0.050949797
0.168979 0.17746657 0.045039285 -0.15573838 3.7570858 0.2008186 -0.21815552 -0.23114614
0.109888576 0.00022796837 0.017096326 0.09778807 0.12870985 0.17421697 -0.27574474 0.13279065
-0.22268805 -0.40559986 0.11181429 -0.02877479 0.23398504 0.024521213 0.13026953 0.08679535
0.20117219 -0.28051323 -0.23742409 0.95129305 0.1474183 -0.31914684 0.23317297 0.113709055
-0.4900971 -0.06713442 0.054894578 0.085875854 0.12569119 -0.027669346 -0.37967736 0.26683784
0.2671135 -0.28852013 -0.2312042 -0.11638931 0.2031319 -0.2016478 1.124954 0.094496995
0.2818155 0.18993095 0.16728066 0.2073992 0.05798772 -0.17607126 5.3554077 0.21859826
-0.29333532 -0.17729577 0.12473714 0.06175422 0.032970034 0.25856176 0.14288495 0.056074742
-0.34222353 -0.01257575 -0.37263688 -0.37447068 0.06817749 -0.028595528 0.17385021 -0.10997061
0.030287357 0.33591565
00000000: e457 bb3d 02c5 94bc 4ea1 c2bd 5cdc 023d
00000010: d224 b73d 8c08 febc 2f66 a2bd cd19 bc3d
00000020: da34 2c3d 4eda 51bd 3620 3d3e a01c 4d3c
00000030: f7d6 373e 4ad4 343e e11b 113c fd1f 25bd
00000040: 514c 9abc b42d ebbd f6de 21bd 0289 86bd
00000050: 5381 943c a8c7 18bd 431b a33d 3de9 063e
00000060: 7d3d 563d 649c d93d 3ace 27be 2ad5 ccbd
00000070: d861 2abd 7a1b 9dbc cd75 ff3e c029 e03d
00000080: e238 dabc 9ca4 343c 5e9b 4c3e 3596 70bd
00000090: 0dfc 46bd 3ebf 9839 5b39 453e 129b f03c
000000a0: e155 7cbd bd2a ec3d 26d0 8bbd f590 b8bc
000000b0: e227 95bc 91f8 1e3e 5ff5 efba 1334 04be
000000c0: 6c7e b8bd 8df5 5fbb da7e bebc 2a49 063d
000000d0: dcab 67bd 6c31 1f3e d0d6 c03d 5126 22be
000000e0: 8f4b e43d 3649 3d3e 6cde 0dbb 3459 fcbd
000000f0: 6a2a 263e 8a9f 8f3d 90f5 7e3e cae6 db3b
00000100: ddab f2bc e5b4 0a3e 91e8 2cbd 6a83 2cbe
00000110: e634 1c3c 83fa fcbd f087 20bd dd59 14be
00000120: a77c 2a3e e393 8eba d690 eabc efdb d03d
00000130: 4180 ac3d 8962 82bc 6da8 9abd 8aaf f6bd
00000140: 4043 983f f176 353d db78 c53b 0bcd 9dbd
00000150: aebe 613e b557 c2bd be9a 46be 71b0 06bd
00000160: 1e83 823a 1bd7 403e 248f 7fbd d603 b73c
00000170: a1bd c9bc 4b90 73be a125 323e d10e f3bc
00000180: f17c dd3d 5873 ffbd 7d1e a13d 73df 783c
00000190: 600f 023e a7e8 b5bd 0fc5 b2bd 0afe 9a3e
000001a0: debe ea3d a91f 7cbe 175b 073e a913 393d
000001b0: c2a9 43be 8395 873d 9aab b0bc 262b ef3c
000001c0: 4813 323d 3bc9 ad3c 6b08 f2bd 4d8a 2f3e
000001d0: 04ee 3bbc 1772 48be 00b6 53be b140 05be
000001e0: ebd7 f63c 0fd9 44be f350 b83e 553c 043e
000001f0: f0ab 123d acb9 3c3d 811f 9b3b 9c3a e33d
00000200: f491 0bbe 186e b63d 4c3d 1540 ed6b 043e
00000210: 0a9b 23be dd9e f7bd 741e 9c3d a878 29bd
00000220: b904 f6bd 8ff7 3b3e 1be6 6a3e a501 333e
00000230: 4a80 d6bd 7377 fe3d 2fd3 0e3d f344 89be
00000240: d0da 403d 599f fa3d 9fd4 323e ba10 ba3d
00000250: e99f 9a3d 102a 083e e13d a53d 3ef2 5fbe
00000260: ffd0 0bbe 385b 173f a11d aa3d af18 78be
00000270: 3674 03bb 39b4 563e cdc5 91be c6f0 473d
00000280: 10d0 c2bc c2c9 bfbd 5282 ce3d 70ac 7dbd
00000290: c800 79be 5317 703e 0524 7c3e a0e3 e1bd
000002a0: 5b5e 71be d645 3d3d dfdc d63d 3ba1 dfbd
000002b0: dcde 223f 82fe 5b3e 2ea2 063e bcb0 503d
000002c0: d508 2d3e ccb9 353e 1d7b 383d e279 1fbe
000002d0: 1874 7040 64a3 4d3e 2964 5fbe 93b1 6cbe
000002e0: 430d e13d cb0a 6f39 980d 8c3c 1d45 c83d
000002f0: 84cc 033e ef65 323e 6a2e 8dbe 46fa 073e
00000300: 5608 64be c9aa cfbe e4fe e43d 1cb9 ebbc
00000310: c699 6f3e b6e0 c83c 6065 053e c3c1 b13d
00000320: 1500 4e3e 6e9f 8fbe 4d1f 73be f187 733f
00000330: d3f4 163e 3767 a3be e5c4 6e3e 4be0 e83d
00000340: 02ee fabe c57d 89bd 23d9 603d aedf af3d
00000350: 31b5 003e d3aa e2bc 1265 c2be f89e 883e
00000360: 1ac3 883e e9b8 93be cbc0 6cbe 855d eebd
00000370: cf01 503e c37c 4ebe 7efe 8f3f a487 c13d
00000380: 1f4a 903e 427d 423e 9f4b 2b3e 7560 543e
00000390: 8884 6d3d 064c 34be 805f ab40 39d8 5f3e
000003a0: 0c30 96be 068d 35be 3076 ff3d fef1 7c3d
000003b0: 960b 073d 3562 843e 6f50 123e a1ae 653d
000003c0: ec37 afbe 850a 4ebc 43ca bebe 9fba bfbe
000003d0: a4a0 8b3d 2b41 eabc ca05 323e 4538 e1bd
000003e0: 311d f83c 23fd ab3e

fc3.bias f4 [5]
0.14097835 -0.00016687404 0.059003286 -0.033617906 0.30911773
00000000: a15c 103e e9fa 2eb9 6ead 713d eeb2 09bd
00000010: ae44 9e3e
