GraphPredictor/models/model7.pt (torch, 31156 bytes, 8 tensors)

fc1.weight f4 [100, 5]
0	0x3fc8cd76	1.5687702
1	0xbd59ea4a	-0.05320195
2	0xbee74c73	-0.45175514
3	0x3deefe0f	0.116695516
4	0x3f43acfe	0.7643584
5	0x3efc70c4	0.49304783
6	0x3f2e6a66	0.681311
7	0xbf2935dc	-0.6609781
8	0xbff80327	-1.9375962
9	0x3f76bea3	0.9638464
10	0x3d963d06	0.07335858
11	0x3eca733d	0.39541045
12	0x3fa731a4	1.3062024
13	0xbf882703	-1.0636905
14	0xbf8d4d6d	-1.1039253
15	0xc0001989	-2.0015585
16	0x3f808aa0	1.0042305
17	0xbec4ceee	-0.38439125
18	0x3cf0040e	0.029298808
19	0x3ecc4a34	0.39900362
20	0xbf1629bf	-0.5865745
21	0xc031e312	-2.7794843
22	0x40226b2b	2.537791
23	0xbf121f37	-0.5707888
24	0x3e1d62c2	0.15369704
25	0xc0b15f88	-5.5429115
26	0xbf5d0fd5	-0.8635228
27	0x3ec962fe	0.39333338
28	0xbd2264ae	-0.039646797
29	0x3f89ea2a	1.0774586
30	0x3ee0223d	0.43776122
31	0x40079087	2.1181962
32	0xbd5379b3	-0.051629733
33	0x3e7c0bb0	0.24613833
34	0x3e0efe01	0.13964082
35	0xbf219494	-0.6311734
36	0x3e813714	0.25237334
37	0x3f4bfe35	0.79684764
38	0x3f4db146	0.8034862
39	0xbf926c8f	-1.143938
40	0xbff99538	-1.9498663
41	0x3ee74b43	0.45174608
42	0x3f58e98e	0.84731376
43	0xbfa9f7a6	-1.3278701
44	0x3d9d8bdb	0.07692691
45	0xbefb749a	-0.49112397
46	0x40071c88	2.1111164
47	0xbf98e432	-1.194464
48	0xbeb5d7dd	-0.35516253
49	0xbee3eb75	-0.44515577
50	0x3fbc5900	1.4714661
51	0xbfb836ba	-1.4391701
52	0xbf97d28c	-1.1861129
53	0xbeb3a579	-0.35087183
54	0x3f2b51c1	0.6692162
55	0xbf1834ad	-0.59455377
56	0x3f2929f6	0.6607965
57	0xbf7b70de	-0.98219097
58	0x3ed951f4	0.42445338
59	0xbe8b8850	-0.27252436
60	0xbe4b8ba1	-0.19877483
61	0xbfae3736	-1.3610599
62	0x3f96bb9e	1.1776006
63	0x3f347ceb	0.7050311
64	0xbf4effaf	-0.8085889
65	0x3f972a71	1.1809827
66	0xbe850d80	-0.25986862
67	0xbf2c76f2	-0.67368996
68	0x3f7242d9	0.9463325
69	0x3f9d5974	1.2292924
70	0xbfd51286	-1.6646278
71	0x3ea21481	0.31656268
72	0x3fa65ebe	1.2997663
73	0x3ed50fd2	0.41613632
74	0xbf282da4	-0.6569464
75	0xbf08da4a	-0.5345808
76	0xbf0fa869	-0.5611635
77	0xbe79fb3c	-0.24412245
78	0x3f8b77a4	1.0895886
79	0xbf1e6d60	-0.61885643
80	0xc0030d37	-2.0476816
81	0xbfd64f0c	-1.6742873
82	0x3fc03a2c	1.5017753
83	0xbe8028ed	-0.25031224
84	0xbe29da19	-0.16587104
85	0x3f181cd1	0.5941897
86	0xc031cecf	-2.7782476
87	0xbe0326d1	-0.12807776
88	0xbf87a5e2	-1.0597498
89	0x3f414e74	0.75510335
90	0xbe03d767	-0.12875138
91	0xbfb0f84b	-1.3825773
92	0x3f950266	1.1641357
93	0xbfc0262e	-1.5011652
94	0x3ea98f52	0.33117157
95	0xbec2c684	-0.3804208
96	0x3fa8eff5	1.3198229
97	0xbf3e9bc4	-0.7445643
98	0xbfc31f3c	-1.5243907
99	0x3ecf80c9	0.40527943
100	0x3e5f27cb	0.21792524
101	0xbfc0e717	-1.5070523
102	0x3ee0911d	0.43860713
103	0xbfb7c0ec	-1.435575
104	0x3ec53aaf	0.38521335
105	0x3f434711	0.76280314
106	0x3f5d5829	0.86462647
107	0x3f7bd231	0.983676
108	0xbf085239	-0.5325046
109	0xc001cbc2	-2.0280614
110	0xbd03e049	-0.032196317
111	0x3e2a06fc	0.16604227
112	0xbf465a47	-0.774815
113	0xbd4d4755	-0.050116856
114	0xbf488900	-0.78334045
115	0xbfb5b6b3	-1.419638
116	0xbfbdd2ba	-1.4829934
117	0x3e3cbf9a	0.18432465
118	0x3f977ee9	1.1835605
119	0xbf709be4	-0.9398787
120	0xbfa92a33	-1.3216003
121	0x3f8a151d	1.0787693
122	0xbffe3745	-1.9860617
123	0x3f1b1468	0.6057801
124	0xbd94572b	-0.072431885
125	0x3e9ed288	0.31019998
126	0x3ec89b83	0.39181146
127	0xbe113d24	-0.1418348
128	0xbf9ee872	-1.2414687
129	0xbef7d110	-0.4840169
130	0xbf06c952	-0.5265094
131	0x3f064a14	0.52456784
132	0x3f318622	0.69345295
133	0xbfa16215	-1.2608057
134	0xbe882d8d	-0.26597252
135	0x3f833d74	1.0253129
136	0xc022523e	-2.5362697
137	0x3f886ae1	1.0657617
138	0xbf56dc0a	-0.839295
139	0x3f9a67d2	1.2062933
140	0xc080fb9b	-4.0307136
141	0x3eb5f6ed	0.35539952
142	0xbe9d6605	-0.30741897
143	0xbf7aa1e4	-0.97903275
144	0x3f9cafd5	1.224116
145	0xbff31e98	-1.8993711
146	0xbfd4b5f1	-1.6618024
147	0xc00274d9	-2.0383818
148	0xbeacf870	-0.33783293
149	0x3f845b8e	1.034044
150	0x3e8f28c3	0.27960786
151	0xbefe62b2	-0.49684674
152	0xbf4738b6	-0.7782091
153	0x3e82382e	0.25433487
154	0xbe2539dc	-0.16135353
155	0xbfd78ede	-1.6840475
156	0x3f043a0b	0.51651067
157	0xbe92547f	-0.2858009
158	0xbf5c1523	-0.8596975
159	0xbe9aedb1	-0.3025947
160	0xbeee87ce	-0.46587986
161	0x3ddbab92	0.10726084
162	0xbe1eeb62	-0.15519479
163	0x3ef217e4	0.47283852
164	0x3f479bdd	0.77972203
165	0x3fa39d97	1.2782468
166	0xbc72d376	-0.014820924
167	0xbf4e49ab	-0.8058116
168	0xbe40d669	-0.18831791
169	0x3f0c2aa6	0.54752576
170	0xbf6d1e79	-0.9262462
171	0x3f5fd76f	0.874381
172	0xbd73eb7e	-0.059550755
173	0xbf9b1514	-1.2115808
174	0x3dba4913	0.09095969
175	0xbeb9e8d9	-0.3631046
176	0xbcb2f7e1	-0.021846713
177	0xbf6a92f5	-0.9163049
178	0xbf9f93a2	-1.2466929
179	0x3f2c27a8	0.6724801
180	0xbf07d3e9	-0.53057724
181	0xbfb43b39	-1.4080573
182	0x3e5776b2	0.21041372
183	0x3f97c3ea	1.1856663
184	0xbfcd0681	-1.601761
185	0xbfe00695	-1.7502009
186	0x3fa7ecaf	1.3119105
187	0x3e178dee	0.14800236
188	0xbe41820a	-0.18897262
189	0xbec7dc73	-0.39035377
190	0x3e57efa8	0.21087515
191	0xc01217eb	-2.2827098
192	0xbedd1b4a	-0.43184882
193	0x3eca76d8	0.39543796
194	0x3ff52156	1.9150798
195	0xbf1836f7	-0.5945887
196	0x3d9400f2	0.07226743
197	0x3f45092a	0.7696711
198	0xbed587ce	-0.41705173
199	0xbf9af6e2	-1.2106593
200	0x3e1619df	0.14658307
201	0xbf2817f7	-0.6566157
202	0x3f5e5d31	0.8686095
203	0xbf9cd782	-1.2253268
204	0x3e597fb9	0.21240129
205	0x3f572e8c	0.840554
206	0x3ee51473	0.44742164
207	0xbed0524c	-0.40687788
208	0xbf382458	-0.71930456
209	0xbf70d9b4	-0.9408219
210	0xc04914e2	-3.1418996
211	0xbe2af802	-0.1669617
212	0xbf7ac4fe	-0.97956836
213	0xbeb6dee4	-0.35716927
214	0xbe0402b3	-0.12891655
215	0xbf887228	-1.0659838
216	0x3f91eed9	1.1401016
217	0x3f5c30b4	0.86011815
218	0x3f90c5e2	1.1310389
219	0xbee00b35	-0.4375855
220	0x3d5f0043	0.05444361
221	0xbf20589c	-0.6263521
222	0x3fa9200e	1.3212907
223	0x3d07cfa2	0.033157
224	0xbfd80a53	-1.6878151
225	0xbe238d5a	-0.1597189
226	0x3e963510	0.29337358
227	0xbe7aab60	-0.24479437
228	0xbfd8f15a	-1.6948655
229	0x3f89e6f5	1.0773607
230	0xbbd9b51d	-0.006643905
231	0x3f4e8702	0.80674756
232	0xbebb6655	-0.3660151
233	0xbfd61eb5	-1.6728121
234	0x3f7d6ff2	0.9899894
235	0xbf2308e5	-0.63685447
236	0xbddcacbe	-0.107751355
237	0x3fa574cb	1.2926267
238	0xbfed2476	-1.8526752
239	0xbc723ca5	-0.014784967
240	0xbf85b3fe	-1.0445554
241	0x3fc9a895	1.5754572
242	0xbf8bba79	-1.0916282
243	0x3e938798	0.28814387
244	0xbf3aac84	-0.7291949
245	0x3ed8b1c6	0.4232313
246	0x3f52c67d	0.8233412
247	0x3f1c0d9f	0.60958284
248	0xbf2db4a7	-0.6785378
249	0x3f8d2d50	1.1029453
250	0x3ec539b3	0.38520584
251	0x3f204173	0.6259987
252	0xbffc3615	-1.9704005
253	0xbd93b73e	-0.07212685
254	0xbf6ddd01	-0.9291535
255	0xbda344b4	-0.079720885

fc1.bias f4 [100]
0	0x3f47d6de	0.78062236
1	0x400a1e54	2.158101
2	0xbfcc32e3	-1.5953029
3	0xc01b323b	-2.4249408
4	0x3e518013	0.20459013
5	0xbfb33b13	-1.4002403
6	0x3f8e8836	1.1135318
7	0x3ef51205	0.4786531
8	0xc02fb099	-2.7451537
9	0x410cfba4	8.811436
10	0xbfa00bef	-1.2503642
11	0xc0cbc0bc	-6.367277
12	0x3fcfff79	1.6249839
13	0xbf128390	-0.57232
14	0xc05955fb	-3.3958728
15	0xc01133ef	-2.2687948
16	0xbf7ebd88	-0.9950795
17	0xc0abd032	-5.3691645
18	0xbec5d56e	-0.38639396
19	0x406c617b	3.6934497
20	0xbfed448b	-1.8536543
21	0xc0b510ac	-5.658285
22	0x4029e436	2.654554
23	0xc0a125b6	-5.0358534
24	0xc0afca7e	-5.4934683
25	0xc0bbbe9f	-5.867019
26	0xbfbe960d	-1.4889542
27	0xc0166c45	-2.3503582
28	0xc0244bc3	-2.5671241
29	0xbfc6efda	-1.5541947
30	0xbf722264	-0.94583726
31	0x401d810f	2.461002
32	0xc0577c09	-3.3669455
33	0xc053bd0c	-3.3084135
34	0x3f91d3e1	1.1392785
35	0xbfa4f985	-1.2888647
36	0xbfe78fcd	-1.809076
37	0x3acf9820	0.0015838183
38	0xc077d5d7	-3.8724267
39	0x3f0f4c92	0.5597621
40	0x3f422ad0	0.75846577
41	0x4057db99	3.3727782
42	0xc05b0b02	-3.4225469
43	0xbd318688	-0.04334119
44	0xbfa42e4b	-1.2826627
45	0x3f7d2224	0.9888022
46	0x3e0c3ac0	0.13694286
47	0x40a18536	5.047511
48	0xc0854b23	-4.165422
49	0x3feba252	1.8408911
50	0xc10d206a	-8.820414
51	0xc100a854	-8.041096
52	0x3fec79bc	1.847465
53	0x3f690b17	0.91032547
54	0xc0ba2fe6	-5.818347
55	0xbf2c96c4	-0.6741755
56	0x3fcd61e5	1.60455
57	0xbfe0e7e7	-1.7570771
58	0xc0c62b24	-6.192766
59	0x3f7a9151	0.97877985
60	0xc03570b2	-2.8350034
61	0x3f6a0b29	0.9142328
62	0xc058177f	-3.376434
63	0xc01f2619	-2.4867003
64	0x401cd377	2.4504068
65	0xbf8ed2cd	-1.1158081
66	0xbfea20ed	-1.8291298
67	0x40104ee7	2.2548158
68	0x3f89aaf9	1.0755302
69	0xbeec08d4	-0.46100485
70	0x402d729b	2.71012
71	0xc09a79fb	-4.82739
72	0xbedc0914	-0.42975676
73	0x40fdb1d1	7.927956
74	0xc0a50001	-5.1562505
75	0xbf972d31	-1.1810666
76	0xc1073067	-8.449317
77	0xc0579106	-3.3682265
78	0x3fdceebc	1.7260356
79	0xc023e2d0	-2.5607185
80	0x407dc5e5	3.9652035
81	0xc08be9eb	-4.3723044
82	0xc068cf22	-3.6376424
83	0x3e2c403c	0.16821378
84	0xbe80a35e	-0.2512464
85	0xc0c5856d	-6.1725373
86	0xbe4c7b18	-0.19968832
87	0xbf108844	-0.56457925
88	0xbf9c95e5	-1.2233244
89	0x3fd62be2	1.6732142
90	0x4063439e	3.551002
91	0xc0fed67d	-7.9636827
92	0xc02f274b	-2.7367733
93	0x4082c55e	4.0865927
94	0x3ffe16f8	1.985076
95	0xbf2a0a9f	-0.66422457
96	0x40ba843b	5.8286414
97	0xbcd55178	-0.026039824
98	0x40257d06	2.5857558
99	0xbf5fa940	-0.8736763

fc2.weight f4 [50, 100]
0	0x3cdb2d16	0.026754897
1	0x3c0bcd05	0.008532767
2	0xbdf15daf	-0.11785447
3	0xbe13f4ed	-0.144489
4	0xbd1b9d62	-0.03799189
5	0x3d63e979	0.05564258
6	0x3d85bd1f	0.065302126
7	0x3cf54735	0.02994118
8	0xbdc92176	-0.09820835
9	0xbd5360eb	-0.0516061
10	0xbd9929a9	-0.07478649
11	0xbd9b1109	-0.075716086
12	0xbe021aab	-0.12705486
13	0x3d49d477	0.049274888
14	0xbe1398c4	-0.14413744
15	0xbdcd3865	-0.10020522
16	0xbd889d59	-0.06670637
17	0xbe7a8ac4	-0.24466997
18	0x3d0b7031	0.03404254
19	0xbe079e3a	-0.13243952
20	0xbe0901f8	-0.13379657
21	0xbda4e6c3	-0.08051827
22	0x3c1211fb	0.00891542
23	0xbd48e83b	-0.049049597
24	0xbdbe1e01	-0.092830665
25	0xbd215a06	-0.039392494
26	0x3d54d6aa	0.051962532
27	0x3d6891c0	0.056779623
28	0xbd2063d9	-0.039157722
29	0xbd58b542	-0.052907236
30	0xbb3c9d18	-0.0028780159
31	0x3ba3871e	0.0049904725
32	0xbb3a92e1	-0.0028468894
33	0xbe01fcfc	-0.12694162
34	0x3d12e819	0.035865877
35	0x3ce7f7d0	0.028316408
36	0xbd17ddbf	-0.037076708
37	0x3cd0da31	0.025494667
38	0xbd91bb0e	-0.07115756
39	0xbbd412fc	-0.0064719897
40	0x3ca4b5b2	0.02010617
41	0xbe170baf	-0.1475055
42	0xbdc69bbb	-0.09697672
43	0xbccc09de	-0.024907049
44	0x3c5184e2	0.012788029
45	0xbd5fdcfe	-0.054654114
46	0x3c083241	0.008312763
47	0x3adede7c	0.0017003561
48	0xbda2adfd	-0.07943342
49	0xbd870b61	-0.06593967
50	0x3c801403	0.015634542
51	0xbdb75a88	-0.08952814
52	0xbe1e1576	-0.15437874
53	0x3d112b8d	0.035441924
54	0xbb992b07	-0.0046743187
55	0xbcb519da	-0.022107054
56	0x3d0de0e9	0.03463832
57	0xbd5869d9	-0.05283532
58	0x3d0323dd	0.032016624
59	0xbdf6d496	-0.12052266
60	0xbdc056e5	-0.09391574
61	0xbdac2f81	-0.08407498
62	0xbda14995	-0.07875363
63	0xbe22d125	-0.15900095
64	0xbc8697e9	-0.016429858
65	0xbd9bc026	-0.07605009
66	0x3c405e3f	0.01174122
67	0xbdd500f6	-0.10400574
68	0xbe11ad2d	-0.14226218
69	0xbd354929	-0.044259224
70	0xbbe98020	-0.0071258694
71	0xbdfc68a3	-0.12324645
72	0x3c88355d	0.016627008
73	0x3b6e7016	0.0036382726
74	0xbafa84e5	-0.0019113092
75	0x3c9e53fd	0.019327158
76	0xbe0fb487	-0.1403371
77	0x3a1741cf	0.0005769999
78	0xbd9bbf50	-0.07604849
79	0xbdae4289	-0.08508784
80	0xbe1f223a	-0.155404
81	0xbc419ffb	-0.0118179275
82	0xbe0aa764	-0.13540417
83	0xbbdc32a3	-0.0067199036
84	0x3cf1c80f	0.02951434
85	0x3c007c74	0.007842172
86	0xbc30c8ba	-0.010790044
87	0xbd607ae5	-0.0548047
88	0xbd99b6d4	-0.07505575
89	0xbe0b2a4b	-0.13590352
90	0xbcd23fc9	-0.02566518
91	0x3c7799a7	0.015112317
92	0xbe1e3ef2	-0.15453699
93	0xbd110398	-0.035403818
94	0xbdbc5891	-0.0919658
95	0x3ca43877	0.020046456
96	0xbd2429b7	-0.040078845
97	0xba7aea4d	-0.00095716567
98	0x3c23a745	0.009988611
99	0x3c15b0bb	0.009136374
100	0xbddcc750	-0.10780203
101	0xbdaf33a2	-0.0855477
102	0xbda957ab	-0.082686745
103	0xbde4fa38	-0.11180538
104	0xbd936276	-0.07196514
105	0xbdb4c2e7	-0.08826237
106	0xbd57f910	-0.05272776
107	0xbc623914	-0.013807554
108	0x3d34a228	0.044099957
109	0xbe0e686f	-0.13907026
110	0xbd7aed14	-0.06126125
111	0xbd7d4c3b	-0.061840277
112	0xbdd7f451	-0.105446465
113	0xbd680f9e	-0.05665552
114	0xbad110ec	-0.0015950478
115	0xbddabbc1	-0.106803425
116	0xbdc361d3	-0.09540143
117	0x3c74fff5	0.014953603
118	0x3df42968	0.1192196
119	0x3bbb9312	0.0057243193
120	0xbd749354	-0.059710816
121	0x3cbb74ca	0.022882838
122	0x3b89ff80	0.004211366
123	0x3bf6b8cc	0.0075293537
124	0xbe21da9d	-0.1580605
125	0xbdc5c212	-0.096561566
126	0x3d0dd61c	0.03462802
127	0xbd31ccb8	-0.043408126
128	0xbe1f79ff	-0.15573882
129	0xbdcea6ec	-0.100904316
130	0xbde3b95d	-0.111193396
131	0x3bdb10bc	0.0066853445
132	0xbd87be88	-0.06628138
133	0xbd07abf6	-0.03312298
134	0xbdab89e3	-0.08375909
135	0xbddc8f20	-0.107694864
136	0xbd56b3f3	-0.052417707
137	0xbd37c595	-0.044866163
138	0x3cc8aa0d	0.024495149
139	0xbd12afe2	-0.035812266
140	0x3de04177	0.109499864
141	0xbd07a30e	-0.033114485
142	0x3a4c5b11	0.00077955524
143	0xbe085e1b	-0.13317148
144	0xbcde6908	-0.027149692
145	0xbbacbc80	-0.0052714944
146	0xbdf99e50	-0.12188399
147	0xbe1fa8bc	-0.15591711
148	0x3b6ccaf4	0.0036131712
149	0xbe0cfcc1	-0.13768293
150	0xbd8f3c41	-0.069939144
151	0xbd850976	-0.06495945
152	0xbda1f068	-0.07907182
153	0xbe1faff7	-0.15594469
154	0x3bd305f9	0.006439921
155	0x3cd48705	0.025943289
156	0x3d113b59	0.03545699
157	0x3ca91b0d	0.020642782
158	0xbe1871b8	-0.1488713
159	0xbd868cc8	-0.06569821
160	0x3cdda57a	0.027056444
161	0xbdc74a21	-0.09730936
162	0x3c2bc17e	0.010483144
163	0x3e1644cb	0.1467468
164	0xbdc33e89	-0.09533412
165	0xbd06aadb	-0.032877784
166	0x3c0ef8f7	0.00872635
167	0x3d8c11f1	0.068393596
168	0xbd89393f	-0.06700372
169	0xbd00e0c5	-0.031464357
170	0xbcf1e68d	-0.02952888
171	0xbdb405ff	-0.08790206
172	0xbd982452	-0.074288025
173	0xbe0b26be	-0.13588998
174	0xbc1dda2c	-0.009634536
175	0xbdfbb2c4	-0.12289956
176	0xbbddf373	-0.006773406
177	0xbdbde532	-0.09272231
178	0x3cd8e09b	0.026474288
179	0xbdcd525f	-0.10025477
180	0xbb8b64a2	-0.0042539397
181	0xbd20b811	-0.03923804
182	0x3e016b67	0.12638627
183	0x3c466807	0.012109763
184	0xbe12cf28	-0.14336836
185	0xbccf69e2	-0.025319044
186	0xbdf0d4e1	-0.117593534
187	0xbd4128cc	-0.047158048
188	0x3cbed229	0.023293572
189	0xbe1dae2c	-0.15398473
190	0xbd118628	-0.035528332
191	0x3cd79ca5	0.026319811
192	0xbe1d8361	-0.15382148
193	0xbdf53ffc	-0.11975095
194	0x3b37ea1e	0.0028063129
195	0x3e1e9ec7	0.15490256
196	0xbdb1cf77	-0.08682149
197	0xbd8e979b	-0.0696251
198	0xbd8b9baf	-0.06816804
199	0x3cb5e0c1	0.022201898
200	0xc01bdf04	-2.4354868
201	0xbfacc81a	-1.3498566
202	0xbf083c0e	-0.53216636
203	0x40c78561	6.2350316
204	0xbf17e213	-0.59329337
205	0xc104b0d6	-8.293173
206	0x3fc02e77	1.501418
207	0x3f31a921	0.69398695
208	0xbf8029bb	-1.0012735
209	0x3ee9b1ef	0.45643565
210	0x40f51504	7.6588154
211	0xbfa8fc67	-1.3202027
212	0xc007a881	-2.1196597
213	0x40efbeff	7.492065
214	0xbf7cb390	-0.9871149
215	0x4044630b	3.068545
216	0x40f2f34a	7.5921984
217	0xc039c8ac	-2.902873
218	0x3ec9e4b7	0.39432308
219	0x3eb56c97	0.3543441
220	0xc0b01ea2	-5.5037394
221	0x3e0a3567	0.13496934
222	0xbf03b8f3	-0.51454085
223	0x404b0da7	3.1727083
224	0xc04f6436	-3.2404914
225	0xbe8c602a	-0.27417117
226	0x3e47c161	0.19507362
227	0x3f96f5a0	1.1793709
228	0x407a4fda	3.9111238
229	0x3e00d2b5	0.12580378
230	0x41099ae6	8.600317
231	0x3f215153	0.63014716
232	0xc1ad5d60	-21.670593
233	0xbf291d59	-0.66060406
234	0xbe9bb1ae	-0.30408996
235	0xc09654f2	-4.6978693
236	0xbe85a824	-0.26104844
237	0xbe78dff8	-0.24304187
238	0xc1290e20	-10.5659485
239	0xbf8f8bf7	-1.1214589
240	0x3f204764	0.62608933
241	0x3eb82d57	0.35972092
242	0xbf10994e	-0.56483924
243	0x3eb05c02	0.34445196
244	0xbe387bd1	-0.18015982
245	0xbf8803ae	-1.0626123
246	0xbfe47f35	-1.785132
247	0xbe8e4304	-0.27785504
248	0xbe528425	-0.20558222
249	0xc090f634	-4.530054
250	0xba03144c	-0.0005000278
251	0xc0cc5702	-6.385621
252	0x3e14a83d	0.14517303
253	0xc02a2ef2	-2.6591153
254	0x4058b2b7	3.385908
255	0xbd4c3687	-0.04985669

fc2.bias f4 [50]
0	0xbe3781f8	-0.17920673
1	0xbe16f093	-0.1474021
2	0x3f387e5f	0.72067827
3	0xbea546ca	-0.3228057
4	0xc00dcdfd	-2.2156975
5	0xbfc7e91c	-1.5618014
6	0xbd7d7e60	-0.0618881
7	0xbd8cb071	-0.06869591
8	0x402848b0	2.6294365
9	0xbfca6605	-1.5812384
10	0xbdb3626b	-0.08759006
11	0xbfbcf5a3	-1.4762462
12	0xbe0388f5	-0.12845214
13	0xbcd61f5c	-0.026138
14	0x400f8bc5	2.2429059
15	0xbea013a3	-0.31264982
16	0x404eba29	3.2301123
17	0x3e816d8e	0.25278896
18	0xbfab1d9c	-1.3368411
19	0xbf911253	-1.1333717
20	0x3fa29180	1.2700653
21	0xbd8334b6	-0.06406538
22	0xbfdc622b	-1.7217458
23	0xbe8ce6ff	-0.27519986
24	0x40179f8a	2.3691125
25	0x40251602	2.5794683
26	0xc0155bb1	-2.3337214
27	0xbd09a028	-0.033600003
28	0xbf9ea04e	-1.2392671
29	0xc00f6ff2	-2.2412076
30	0x3f3a28be	0.7271842
31	0x3d2c5842	0.042076357
32	0xbfed47f9	-1.8537589
33	0xbf2657bf	-0.6497764
34	0xbfda1542	-1.7037737
35	0x4017b992	2.3707013
36	0x3cdd4efd	0.027015204
37	0xbf22c2c1	-0.6357842
38	0xbe0f0d1a	-0.13969842
39	0xbdb8f02f	-0.090301864
40	0xbf0a59e2	-0.540434
41	0xc0c28611	-6.0788655
42	0xbfed6fde	-1.8549764
43	0xbdfbfd11	-0.12304128
44	0xc07902e2	-3.890801
45	0x405d26e5	3.455499
46	0x4055a639	3.3382704
47	0xc02313ea	-2.5480905
48	0x3ea991b5	0.33118978
49	0xbf3f1c76	-0.746528

fc3.weight f4 [25, 50]
0	0xbd09075f	-0.033454295
1	0x3e031b6b	0.12803428
2	0xbd247ece	-0.040159993
3	0xbd9d1fde	-0.07672094
4	0x3eab2b5d	0.3343152
5	0xbff1b827	-1.8884324
6	0x3da4a6c0	0.080396175
7	0xbd9a7cfd	-0.07543371
8	0xbf1b2a89	-0.6061178
9	0x3fb4dc43	1.4129719
10	0x3e1856ca	0.14876857
11	0xc0582edb	-3.3778598
12	0xbdc75332	-0.09732665
13	0x3dfaba7c	0.122426
14	0xbfa83520	-1.3141212
15	0xbc57f785	-0.013181572
16	0xbf9300d3	-1.1484627
17	0x3afbdc54	0.0019215443
18	0xc08c9c15	-4.394053
19	0x3fb9ae09	1.4506236
20	0x40e9b1ec	7.302969
21	0xbdf460b5	-0.11932508
22	0x3e87acbb	0.2649897
23	0xbc0b5000	-0.00850296
24	0xbf1a34fe	-0.6023711
25	0x3fe7a57a	1.8097374
26	0x3eba02e6	0.36330336
27	0x3d89ab06	0.06722073
28	0xbeab84c3	-0.33499727
29	0x3f1114e0	0.5667248
30	0xc03595d9	-2.837271
31	0xbdb5a2b1	-0.088689215
32	0xbf139aac	-0.57657886
33	0xc00f32fe	-2.2374873
34	0x3fae7ee4	1.3632474
35	0x3f089342	0.533497
36	0xbdd470d0	-0.1037308
37	0xbe7db8ee	-0.24777576
38	0x3f8827bb	1.0637125
39	0x3e055b81	0.13023187
40	0xc006c6dd	-2.1058877
41	0xbe961b7e	-0.2931785
42	0xbfea0647	-1.8283166
43	0x3dfca712	0.12336554
44	0xbdfb924c	-0.12283763
45	0x40565c81	3.349396
46	0xbf16657f	-0.5874862
47	0xbf8f2d9b	-1.1185793
48	0xc0b9324a	-5.787389
49	0x3effac7b	0.4993628
50	0xbda2fbd4	-0.07958189
51	0xbbfc8744	-0.0077065546
52	0xbd015d9d	-0.031583417
53	0xbea8f4aa	-0.32999164
54	0x408bbece	4.3670416
55	0xc115b879	-9.357537
56	0xbd4cf0e9	-0.050034437
57	0x3dbb1d56	0.09136455
58	0x400f8f91	2.2431376
59	0xbfa3ddbf	-1.2802047
60	0x3d7d42bc	0.06183122
61	0xbe40c31a	-0.18824425
62	0x3e176ca7	0.14787541
63	0x3db6612a	0.08905251
64	0xbf2502d7	-0.6445746
65	0x3d6c60eb	0.057709616
66	0xbe80d36c	-0.25161302
67	0x3db1c3ed	0.08679948
68	0x4060c72e	3.512157
69	0x40ba6c50	5.8257217
70	0xbf042e6d	-0.5163334
71	0xbc8851f9	-0.01664065
72	0x3ecbb41d	0.39785853
73	0xbb028e80	-0.0019921362
74	0xbe5ae995	-0.21378167
75	0x40b195fd	5.549559
76	0x3f90dd63	1.1317562
77	0x3da72531	0.081613906
78	0x40a05d8f	5.0114207
79	0x405c09f6	3.438108
80	0xbed206e3	-0.4102088
81	0x3e6a52c5	0.22883137
82	0x3e183043	0.1486216
83	0x3f793735	0.97349864
84	0xc05782aa	-3.36735
85	0xc0a0f451	-5.029824
86	0xbd7865c2	-0.06064392
87	0xbfb1ab64	-1.3880429
88	0xbc35e781	-0.011102558
89	0xbcd4a126	-0.025955748
90	0x3f9862fc	1.1905208
91	0x3ffb191e	1.961704
92	0xc09fd3b4	-4.9945927
93	0x3aa7700b	0.001277448
94	0x3f1af6de	0.6053294
95	0x3eac4047	0.3364279
96	0xbf4ca9b3	-0.7994644
97	0x3f873dac	1.0565696
98	0xbf9a8404	-1.2071538
99	0x3f94459f	1.1583747
100	0xbd258c33	-0.040416908
101	0xbd45009d	-0.048096288
102	0xbe17a3df	-0.14808606
103	0x3cff830b	0.031190416
104	0xbde9e605	-0.11420826
105	0xbea77abd	-0.3271083
106	0x3d2e7e8e	0.04260116
107	0x3daa8bb2	0.08327426
108	0xbf07a5e2	-0.5298749
109	0xbadb1ea7	-0.0016717509
110	0x3cbdbcfb	0.023161402
111	0xbe839382	-0.25698477
112	0x3df45196	0.11929624
113	0x3dc1924e	0.094517335
114	0xbe87352a	-0.26407748
115	0xbaf0dc0c	-0.0018376126
116	0xbee47fed	-0.4462885
117	0xbd6b6414	-0.05746849
118	0x3c8b430e	0.016999748
119	0xbcac60e8	-0.021042302
120	0xbe256a47	-0.16153823
121	0xbc78d103	-0.015186551
122	0xbe4049d3	-0.18778162
123	0x3c977f30	0.018493265
124	0xbf601f93	-0.8754818
125	0xbe0682cf	-0.13135837
126	0xbdf49977	-0.119433336
127	0x3d3d236b	0.046176355
128	0x3d2757c6	0.04085519
129	0xbd97b82a	-0.074081734
130	0xbeb73840	-0.35785103
131	0x3c7a8491	0.015290395
132	0xbb05d56d	-0.00204214
133	0xbe8b73e1	-0.27236846
134	0xbec25536	-0.37955636
135	0xbebfeb2c	-0.3748411
136	0xbdb67007	-0.08908086
137	0x3d85ec88	0.065392554
138	0x3c5e8c6e	0.013583286
139	0xbdafd36c	-0.085852474
140	0xbe50d69c	-0.20394367
141	0xbe84db37	-0.25948498
142	0xbe5ebc02	-0.21751407
143	0xbe49d09d	-0.19708486
144	0xbe17c72e	-0.14822075
145	0xbed41669	-0.41423348
146	0xbdd4fab3	-0.103993796
147	0xbe8dadb7	-0.27671596
148	0xbecb1c94	-0.3967024
149	0xbdcae83a	-0.09907575
150	0x3d7775e8	0.06041518
151	0xbe1a012d	-0.15039511
152	0xbee6aab6	-0.45052117
153	0xbc1f279c	-0.009714033
154	0xc0c0b8f3	-6.022577
155	0xc04e8199	-3.22666
156	0xbdb77db9	-0.089595266
157	0x3e0383f5	0.12843306
158	0xc1131a64	-9.193943
159	0xc114498f	-9.267959
160	0xbdedea99	-0.116170116
161	0xc1bba4a4	-23.45539
162	0x3d45ef60	0.04832399
163	0xbdf3bf7c	-0.11901757
164	0xc1192656	-9.571859
165	0xbdd6dd74	-0.104914576
166	0xc0a4a582	-5.1452036
167	0xbd78ca47	-0.06073978
168	0x3facedb2	1.3510039
169	0x407ed494	3.9817247
170	0xc129cf9d	-10.613187
171	0xbe11902b	-0.14215152
172	0xbd4049ff	-0.04694557
173	0xbda919e4	-0.08256891
174	0x3e5754c4	0.2102843
175	0xc0a491cb	-5.142797
176	0xbec6b45d	-0.3880948
177	0x3c966254	0.018357433
178	0xbfea6e57	-1.8314923
179	0xc0319e4e	-2.7752872
180	0x3f60831f	0.87700075
181	0x3df05d25	0.11736516
182	0x3bd39044	0.006456407
183	0xbf0143a3	-0.5049383
184	0x3f4b4fce	0.7941865
185	0xbf5daaff	-0.86589044
186	0x3e1e2b2d	0.15446158
187	0xbe0248f4	-0.12723142
188	0x3e206e47	0.15667067
189	0x3d9779d8	0.07396287
190	0xbd0a848f	-0.033817824
191	0x3eeefa98	0.46675563
192	0xc03614a7	-2.8450105
193	0x3d91c54b	0.07117709
194	0x3d9f94f5	0.07792083
195	0x3f95cd26	1.1703231
196	0xc00aaeee	-2.1669269
197	0xc0737a03	-3.804322
198	0xbfebeac4	-1.843102
199	0xbd7ee0b9	-0.06222603
200	0xbdf87b14	-0.1213285
201	0x3dae75da	0.08518572
202	0xc01d2edc	-2.455985
203	0xbd88bafe	-0.06676291
204	0xbf46c40f	-0.7764291
205	0xbcfaf7bb	-0.030635705
206	0xbdfcf639	-0.12351651
207	0x3c210a48	0.009829111
208	0xc0469c8f	-3.1033056
209	0xc0d77f1d	-6.7342668
210	0xbdb14c7a	-0.08657165
211	0xc043d43c	-3.0598288
212	0x3d578710	0.05261904
213	0xbe3bfc0f	-0.18357871
214	0xbfb5a1e6	-1.4190032
215	0xbe31b627	-0.17354642
216	0xbf708c5c	-0.9396417
217	0xbd284846	-0.04108455
218	0x40060ce8	2.0945377
219	0xc08d81fd	-4.4221177
220	0xc0c65903	-6.1983657
221	0x3d7b3359	0.061328266
222	0x3eb5b3c0	0.354887
223	0x3e0ee75f	0.13955449
224	0xbee0292a	-0.43781406
225	0xc10e8f23	-8.9099455
226	0x3f6565cd	0.8960846
227	0x3a9302f6	0.0011216092
228	0x3f1c90d3	0.61158484
229	0xbecb0c3a	-0.39657766
230	0xbfd93541	-1.6969377
231	0xbe29fc43	-0.16600136
232	0xbf859290	-1.0435352
233	0xc0b4381c	-5.6318493
234	0xbf0769c4	-0.5289576
235	0xc0ab1438	-5.346218
236	0xbd8d196b	-0.06889614
237	0xbe59a1cf	-0.21253131
238	0x3e9dd202	0.30824286
239	0x3da0e820	0.07856774
240	0xbe91f458	-0.28506732
241	0x3f0fb59b	0.5613648
242	0xc02702ef	-2.609554
243	0xbdf50002	-0.11962892
244	0x3e749a02	0.23886874
245	0xc00d08b3	-2.203656
246	0x3dd40112	0.10351767
247	0xc0c21a6a	-6.0657244
248	0x3d08483e	0.03327202
249	0x3f87a0c6	1.0595939
250	0x3db028fa	0.08601566
251	0x3dcca625	0.09992627
252	0x3f65acc9	0.89716774
253	0x3c87853a	0.01654302
254	0xc09754ec	-4.7291164
255	0x3f8b26d5	1.0871226

fc3.bias f4 [25]
0	0xc02335bd	-2.550155
1	0x3f8a65dd	1.0812336
2	0xbf46bb26	-0.77629316
3	0x4191e591	18.237093
4	0xc0387aa5	-2.8824856
5	0xc0503770	-3.2533836
6	0xc03ea9ae	-2.9791064
7	0xbf380b42	-0.7189218
8	0xc0cb357d	-6.3502793
9	0x4027acc4	2.6199198
10	0xc035d89f	-2.8413465
11	0xc11ff51c	-9.997341
12	0xbf668b52	-0.90056336
13	0x405e442e	3.4729114
14	0x40f31686	7.5964994
15	0x3f9c6892	1.2219412
16	0x3f7c6e92	0.98606217
17	0x40d6ad03	6.7086196
18	0xbe0c8b08	-0.13724911
19	0xc047580e	-3.1147494
20	0xbec967ec	-0.393371
21	0xbf48ea06	-0.7848209
22	0xbfbb9cfe	-1.4657285
23	0x40ba00de	5.812606
24	0x4006072f	2.0941885

fc4.weight f4 [5, 25]
0	0x3c5889d9	0.013216459
1	0x3d588008	0.052856475
2	0x3e693ff1	0.22778298
3	0xbe3404ad	-0.17579909
4	0xbeb43ea0	-0.3520403
5	0x3d242a14	0.04007919
6	0x3e3784b0	0.1792171
7	0xbdaffc1d	-0.08593009
8	0xbe8d293f	-0.2757053
9	0xbdc2bb4d	-0.09508381
10	0x3e167c3c	0.14695829
11	0xbe72fd83	-0.2372952
12	0xbe2ccd8a	-0.16875282
13	0x3e34c335	0.1765259
14	0xbe3a96c9	-0.18221582
15	0x3de6a26c	0.11261448
16	0x3d7fe363	0.062472712
17	0x3ea65762	0.32488543
18	0x3deb5174	0.11490145
19	0xbdf15ecc	-0.11785659
20	0x3ecf4378	0.40481162
21	0xbd920b79	-0.071310945
22	0x3c48d469	0.012257674
23	0xbe00f666	-0.12593994
24	0x3df28381	0.11841489
25	0xbc9b79dd	-0.018979007
26	0x3e00f5aa	0.12593713
27	0x3e418049	0.18896593
28	0xbe9ce6d1	-0.3064485
29	0xbe0663ec	-0.13124055
30	0x3e1f1709	0.15536131
31	0x3edef93e	0.43549532
32	0xbd785c91	-0.060635153
33	0xbea0198d	-0.31269494
34	0xbe7471f4	-0.23871595
35	0x3ed9c9e6	0.4253685
36	0xbebdc1a0	-0.37061787
37	0x3d1113f5	0.035419423
38	0x3ee5c463	0.44876394
39	0xbebe2fef	-0.37145945
40	0x3c5adc8c	0.013358247
41	0x3de8c577	0.113657884
42	0x3ed593d7	0.41714355
43	0x3eab9318	0.3351066
44	0xbe986409	-0.2976382
45	0xbe97f5c6	-0.29679698
46	0xbe5e45dc	-0.21706337
47	0xbe15a483	-0.14613537
48	0xbe9794f8	-0.29605842
49	0x3e3bc8fd	0.1833839
50	0xbd84dcf4	-0.06487456
51	0x3e6a48b3	0.22879295
52	0x3e01d8b5	0.12680323
53	0xbf0210ce	-0.5080689
54	0xbe176557	-0.14784752
55	0x3ea4bb21	0.32174018
56	0x3f4fe559	0.8120933
57	0xbda1baa0	-0.07896924
58	0xbe8a6fd6	-0.2703845
59	0xbef2ebfd	-0.4744567
60	0x3e4cfb89	0.20017828
61	0xbf9dafa3	-1.2319225
62	0x3d45ba13	0.048273157
63	0x3f6afd0e	0.9179238
64	0xbf21c09d	-0.6318453
65	0xbe00e762	-0.12588266
66	0x3e3181a9	0.17334618
67	0x3d84be05	0.06481556
68	0x3f2e827e	0.68167865
69	0xbf084903	-0.5323641
70	0x3e7e4b59	0.2483343
71	0xbedf8f55	-0.4366404
72	0xbe1703b5	-0.14747508
73	0xbf086e53	-0.5329334
74	0x3e7cff64	0.24706799
75	0xbe0a37ce	-0.1349785
76	0x3ebb11c9	0.36537006
77	0xbe3111ba	-0.17291918
78	0xbf4905b3	-0.7852432
79	0xbee7eddf	-0.4529867
80	0x3f0ab21a	0.5417801
81	0x3faafafa	1.3357842
82	0xbee3e43d	-0.4451007
83	0xbe1d5f44	-0.15368372
84	0xbf472cce	-0.7780274
85	0xbf9e0f88	-1.234849
86	0xc01ba696	-2.4320426
87	0xbe8cc134	-0.27491152
88	0x3fcf1f1b	1.6181368
89	0xbf75cc07	-0.96014446
90	0xbe9f9ee1	-0.31175902
91	0x3e7c3ebe	0.24633309
92	0x3ec14762	0.37749773
93	0x3f90445c	1.1270862
94	0xbf59e2a3	-0.85111445
95	0x3e2176f8	0.15768039
96	0xbf37c648	-0.7178693
97	0xbe55a07b	-0.20862
98	0xbf57a7d1	-0.8424044
99	0x3e9deadd	0.3084325
100	0xbe64a36b	-0.22327964
101	0x3f0a79aa	0.54091895
102	0xbe2a9fd8	-0.16662538
103	0xbf91da70	-1.1394787
104	0xbf3f8def	-0.7482595
105	0x3f53d3e3	0.8274519
106	0x4003a51d	2.0569527
107	0xbdee0dc5	-0.1162372
108	0x3d26c306	0.040713333
109	0xbf96e05b	-1.1787218
110	0xc0232538	-2.5491467
111	0xc07d8004	-3.9609385
112	0xbeb98b85	-0.36239257
113	0x401afd33	2.421704
114	0xbfb045a1	-1.3771249
115	0xbf0cc498	-0.5498748
116	0x3ea8d1eb	0.32972655
117	0x3e836455	0.25662485
118	0x3fdb77fd	1.7145993
119	0xbfa1883e	-1.2619703
120	0x3ed38dbc	0.41319072
121	0xbf8a80d3	-1.0820564
122	0xbede4ce8	-0.4341805
123	0xbf9e7bdd	-1.238155
124	0x3ebc1143	0.3673192

fc4.bias f4 [5]
0	0x3f860700	1.0470886
1	0x3f83c708	1.0295115
2	0x3f82c474	1.0216203
3	0x3f82b04b	1.021005
4	0x3f8ab2f6	1.0835865
