GraphPredictor/models/model4.pt (torch, 26046 bytes, 6 tensors)

fc1.weight f4 [100, 5]
00000000: a072 923e 0c2e 923f 7688 57bf 545d bbbf
00000010: 6e6e 9a3f 012e eb3f d6fe b2bf d166 00bf
00000020: 9624 8c3f 6ad3 2bbf 0284 00bf dfc3 893f
00000030: e289 34be 2d9d a0bf 5751 013f 3b7a cebf
00000040: a716 e73f e26a 88bf 526a 1e3f 5707 2fbf
00000050: 4c26 b83e 267f 903f 7b72 b2bf e78b edbd
00000060: f1f1 953f 7ff7 cdbf c705 073f 92c9 643e
00000070: 8973 e0be 4427 85bc 6e62 efbf 34d2 60bf
00000080: d38d fdbd 7680 6abe 932a 6d3f 678f f23f
00000090: 2aa4 023f 21b4 3cbf 5658 c93f 4292 efbe
000000a0: 7e05 ffbd 2d5e 533e ebfa 3bbc bca7 b43e
000000b0: 39fe 483e d882 0bc0 47f4 163e e04d ba3e
000000c0: c1f1 f1be 3810 8f3b 39b4 dbbe c13e 433f
000000d0: 3fca 61bf 326e 063e 537c 88bd 5c12 173f
000000e0: a4ad 56bf ae12 3cbf 547c 8b3f 7e2b d1be
000000f0: 200d a53e e77b 83bf 1cc6 853f 04b2 9abf
00000100: fb32 2b3e 408e ddbe f43a da3f 45b5 d33f
00000110: ee5d 31bd c785 91bf 8706 18bf 1263 e63e
00000120: 77a9 993f fca4 2a3f 2c04 a8be 8ed7 ad3f
00000130: 025a e7be 0a8f 723e b35b 0ebf efe7 593f
00000140: 2ee0 6abf 5f89 a13e 6d2c 8c3f 08ed 9dbf
00000150: 20bf ed3c 0de6 783d ef03 10bf a8c9 a3bb
00000160: 8e9a 5e3f 615e 43bf d24f 03bf 59ab 08bf
00000170: 4567 253f 1818 edbf a6d6 443f 49f3 b23f
00000180: 3f34 13c0 84f6 4bbd f145 7e3d e3ca 443f
00000190: 3dcd cebf bf90 3bbf 182d 6bbf 839a 85bd
000001a0: 7364 663e 7e5f 533e b94c a93f 53b1 79be
000001b0: ccd0 85bf ae1a 3b3f dca1 943f 4f34 eb3f
000001c0: 61b2 85be 94e0 90bd 7a59 c0be 5121 9ebe
000001d0: 698a 103e e076 a53f e84b 93bf df52 043f
000001e0: 82ff f53d 6046 233f 95a3 5cbf 39f0 6fbf
000001f0: acda 973d 3056 36bf 0f27 4d3f c234 793f
00000200: 3467 233f bd44 8bbf 27e9 28be b4a1 03bf
00000210: 487b 0b3e e3fc 103f 28d5 07bf 1f64 0d3f
00000220: e8fd d1bf 6da4 3a3e 964b 843f c57e 2abf
00000230: 0ee7 d1be 68a5 cebf ae6c 923e 7342 e83f
00000240: 40ca 94bf a0bf e13e 1296 793f bb85 8e3e
00000250: d303 43bf 85a4 763f 2da4 983f 519d 31bf
00000260: 0342 1cbe 4600 8b3f 9cec 79bf a422 ff3e
00000270: dcfa 353f c47a 09c0 ebc4 a5bf bdbf c03f
00000280: 475f 80bf 5866 a9be a298 873f 2155 83be
00000290: c17c 60be 09bf a2be a704 7ebf 4e0e d33f
000002a0: 8469 b7be 98ad d8be 101f b0bf 87a9 853f
000002b0: c598 6c3d 39c6 d1be a7e5 a1bd 4c53 65be
000002c0: 7ff9 483e d86a 983b b803 58be 3041 fd3c
000002d0: 3c01 b6bf b9e0 ce3f d0e0 fdbe 163a 223f
000002e0: e4cb a4bf 05ed a5bd 5c98 0b3e 3c06 4fbe
000002f0: 6ac1 b3bd f50a 6b3b d667 84bf b100 0bbf
00000300: 3ce0 3abf 77a0 9d3f 9843 31bf 06ef b53f
00000310: ccc4 12c0 9652 d63d 5aa4 b8bd e8d5 943e
00000320: 4a33 aa3f 17a7 d0bf 33ab 23bc 1f65 433d
00000330: b289 98be a89b 583f f9a4 e1bf a2c9 ae3e
00000340: c984 e43f 3f73 e1be 1f92 453f f132 0ebf
00000350: 4af9 0cbf 9431 a9bf 4ef4 873f ef3f 903e
00000360: 9f64 99be 296a babe 4297 213f 1a27 d2be
00000370: 7916 b3be ec06 b2be ec10 633f d690 073f
00000380: adce 313d 71c7 ef3f c9fd 13bf 445f e5be
00000390: e9eb 813f af83 a1bf bc3d 893d be4a bbbe
000003a0: 5efd 85bf 093c 813f 824e 86be bdb4 bc3f
000003b0: 11d0 44bf 4cb7 563e 6714 513f 2b6f eabe
000003c0: 92e8 7dbe f564 9ebe 32a1 b5bf 99e9 13be
000003d0: e3a6 593f 1790 f6bf 9354 af3f 2332 9a3e
000003e0: 3b8a 81bf ad4c 133d cf73 e23f ea77 a6bf
000003f0: 48fd 5a3d 7018 a6be 5e5e 48be f0b7 2f3e
0.28603077 1.1420302 -0.841926 -1.4637856 1.206495 1.8373414 -1.398402 -0.50156885
1.0948665 -0.6711947 -0.5020143 1.07629 -0.17630723 -1.2547966 0.5051474 -1.6131052
1.8053788 -1.0657618 0.6188098 -0.68370575 0.35966718 1.1288803 -1.3941187 -0.1159895
1.171446 -1.6091155 0.5274319 0.22342518 -0.43838146 -0.016254075 -1.8701913 -0.87820745
-0.123805664 -0.22900566 0.9264309 1.8950013 0.51031744 -0.73712355 1.5730083 -0.46791273
-0.124522194 0.20641394 -0.011473398 0.3528422 0.19628228 -2.179861 0.14741622 0.3638754
-0.47254756 0.004365947 -0.42910936 0.7626763 -0.8819923 0.13127974 -0.06664338 0.5901239
-0.83858705 -0.73466 1.0897317 -0.40853494 0.32236576 -1.0272187 1.0451083 -1.2085576
0.16718666 -0.4327259 1.7049241 1.6539694 -0.04330247 -1.1368951 -0.5938496 0.4499746
1.2004842 0.66657996 -0.32815683 1.3581407 -0.45185858 0.23687378 -0.5560867 0.8511953
-0.9174832 0.31550118 1.0951058 -1.2337961 0.0290218 0.06076627 -0.56256 -0.0049984045
0.8695458 -0.76315886 -0.5129367 -0.53386456 0.646107 -1.8522978 0.7689003 1.3980495
-2.3000638 -0.049795642 0.06207842 0.7687208 -1.6156384 -0.7326774 -0.9186568 -0.065236114
0.22499256 0.20641896 1.3226539 -0.2438405 -1.0454345 0.73087585 1.1611896 1.8375338
-0.26112655 -0.07074085 -0.37568265 -0.30884793 0.141153 1.2926903 -1.150754 0.5168895
0.12011625 0.6377926 -0.86187106 -0.93725926 0.07414755 -0.7122526 0.80137724 0.9734613
0.6382935 -1.0880352 -0.1649519 -0.51418614 0.13621247 0.56635875 -0.53059626 0.552309
-1.6405611 0.18226786 1.0335567 -0.66599685 -0.40996593 -1.6144228 0.2859854 1.8145279
-1.1624222 0.4409151 0.97494614 0.27836403 -0.7617771 0.96344787 1.1925102 -0.6938067
-0.15259556 1.0859458 -0.9762666 0.49831116 0.71085906 -2.148118 -1.295072 1.5058514
-1.0029076 -0.33085895 1.0593455 -0.25650886 -0.2192259 -0.31786373 -0.9922585 1.648874
-0.3582269 -0.42319942 -1.375948 1.0442361 0.05776288 -0.40971544 -0.07905131 -0.22395056
0.19626425 0.0046514086 -0.21095169 0.030914873 -1.4219127 1.616233 -0.4958558 0.6336988
-1.2874722 -0.081018485 0.13632339 -0.20217222 -0.08777125 0.0035864685 -1.0344188 -0.5429793
-0.72998405 1.2314595 -0.69243765 1.4213569 -2.2932615 0.10464971 -0.090157226 0.29069448
1.3296902 -1.6300992 -0.009989548 0.04770386 -0.29792553 0.8461251 -1.7628471 0.3413821
1.7853023 -0.44033238 0.7717609 -0.5554648 -0.55067885 -1.3218255 1.0621431 0.28173777
-0.2995958 -0.3640912 0.63121426 -0.41045457 -0.34978083 -0.34770906 0.88697696 0.5295538
0.043409992 1.873274 -0.5780912 -0.44799244 1.0150119 -1.2618312 0.06701228 -0.3658046
-1.0467947 1.0096446 -0.26231772 1.4742657 -0.76879984 0.2096836 0.81671757 -0.4578794
-0.2479575 -0.309364 -1.4189818 -0.14444579 0.85020274 -1.9262723 1.3697685 0.30116376
-1.012031 0.035961796 1.7691592 -1.3005345 0.053464204 -0.3244052 -0.19567248 0.1716001

fc1.bias f4 [100]
00000000: de5f ecc0 7f93 0dc0 0b51 c8be f9d2 6cbe
00000010: 47b7 79c0 bdc3 4bbf b556 2abf f021 02c0
00000020: 92a9 58bf 8e62 c6c0 02b3 febe 6c71 ae3f
00000030: 4f75 8fbd b874 fc3f 6ce9 69c0 84dc 4140
00000040: 1fb6 c8bf 8105 80be 1c7f 19c0 207f 47c0
00000050: 7268 42c0 7ff5 c1c0 4f19 09bf afb3 17c0
00000060: 17f7 6ac0 fbf9 2cc0 9878 01c0 cfed 3cc0
00000070: d5da 213c 5326 c6bf bd43 55c0 15c2 05c1
00000080: 1c62 27c0 ab64 d7bf a02d dfbf a50a a7be
00000090: 4685 91c0 4ff6 cabe 6038 b0c0 e19d cec0
000000a0: 5512 0ec0 ea51 57be b32d 11c0 949b d8be
000000b0: 4d81 adc0 5e5b 7ec0 5585 4fc0 e9b0 76be
000000c0: 94bd bc3e dde2 87c0 182b 1ac0 3f3c d7bf
000000d0: 2980 54c0 8ae3 b7bf f5c6 f3c0 1db9 1940
000000e0: d66a 81bf d088 8140 4fe8 cdc0 09b2 fd3c
000000f0: ca61 51c0 ae5e 83c0 ed62 b9c0 f0e4 dabf
00000100: 3bf8 8ec0 3382 94c0 c86d b1be 775f 99c0
00000110: fcbd f2bf 0284 51c0 aa28 71bf 6906 22c0
00000120: d7a5 07be b6a8 bdbf 5537 b1c0 b1e9 acc0
00000130: d886 8dc0 280e d2c0 8f20 13bf 397c 10bf
00000140: edc5 8b40 b9e1 e2be 4994 3fc0 7aa7 dbc0
00000150: f30a 833e 00b7 6140 35a0 0bc0 18b4 cebe
00000160: dfe0 aabf ad9b ddc0 03d7 23c0 31ff 5abf
00000170: 1c3e d2bf 52e3 b7bf 21a3 90bf 23c4 b13f
00000180: c984 04c0 8ed2 27bb a2f1 223f b1e0 133f
-7.3867025 -2.2121274 -0.3912433 -0.23127355 -3.9018114 -0.7959555 -0.66538554 -2.0333214
-0.84633744 -6.1995306 -0.49745947 1.3628364 -0.07004797 1.972312 -3.654872 3.0290842
-1.5680579 -0.250042 -2.3983831 -3.117134 -3.0376248 -6.061218 -0.5355424 -2.370342
-3.6713312 -2.7027576 -2.0229855 -2.9520147 0.009878834 -1.5480446 -3.3322594 -8.359883
-2.6153631 -1.6827596 -1.7435799 -0.3262531 -4.5475187 -0.39641044 -5.5068817 -6.4567723
-2.219869 -0.21027341 -2.2684143 -0.42306197 -5.422034 -3.9743266 -3.242513 -0.24090923
0.36863387 -4.2464433 -2.4088802 -1.6815261 -3.3203223 -1.4366314 -7.6180367 2.4019234
-1.0110729 4.0479507 -6.434608 0.030968683 -3.2715936 -4.1053076 -5.793326 -1.7101116
-4.4678016 -4.6408935 -0.3465407 -4.7929034 -1.8964229 -3.273682 -0.94202673 -2.5316412
-0.13246857 -1.4817111 -5.5380044 -5.403527 -4.4227104 -6.564228 -0.57471555 -0.5643955
4.367911 -0.44312838 -2.9934256 -6.864194 0.2559429 3.5267944 -2.1816533 -0.40371776
-1.3349875 -6.9252534 -2.5599983 -0.8554564 -1.6425204 -1.4366248 -1.1299783 1.3887981
-2.0706046 -0.0025607678 0.6364995 0.57764727

fc2.weight f4 [50, 100]
00000000: 92c4 f53e c8bb e13d 37cf 9fc0 617e 8dbf
00000010: 72f5 f2c0 0fd2 9f3f f00b 1040 5f87 fe3e
00000020: b2b4 df3f 444d 0140 cd71 c2be 2641 a93e
00000030: 2d0c b93e 7e96 363f 7a0f f63f 07c8 c9bf
00000040: fb51 cfbc 4348 f53e aba1 c0bf e779 97c0
00000050: 85f0 863f 16ea 0bc1 e19f 10bf d5d3 b7bf
00000060: b98b fc3e b570 13bf 0340 4bbd 7bfa ef40
00000070: b433 f83f 8278 93c0 72de eb3f 54cf df3e
00000080: be65 bfbf afc0 6cbf fca8 a4bf 2f9d 50bf
00000090: c880 2ac0 d456 9f3e c7b0 18c2 5396 bec0
000000a0: c3c9 85c0 5a1f 08c0 1dcb 9340 43c3 d4bf
000000b0: f09a 3b41 88ee 9d3e e6d8 0241 61a5 a33f
000000c0: 2e60 9ac0 c859 25c1 010c 32bd e3a7 063f
000000d0: 6dd4 5cc0 7f19 efbe ba9d f03f e584 9fbf
000000e0: 6f4a 5f3f 526a eb3f e390 0840 a3eb 1b3f
000000f0: 679a 1d40 95f2 2740 9bbc 8f3f 93ed 0541
00000100: 33c5 a13f f748 9d3f e1c8 a73f afc2 1d3e
00000110: 2001 5bbf 8c9c 0e3f cc4d 00c1 526c 0540
00000120: 30d3 86bf 01d2 c6bf 21f7 90bc 3b28 13bf
00000130: b92c 0b3e bb8e b940 a8d5 a2c0 0905 e6c0
00000140: dc6f 27c0 9c74 8d40 5500 013f fc0d d2bf
00000150: 618c 93bf cf93 43bf 9517 51c0 9765 b7c0
00000160: 4932 3cbf f069 3d3f d168 a53e b7b4 53bf
00000170: 479a b9bd ea53 1541 d54b 593f ee9b 943d
00000180: fcb2 0a41 997b debf dedf 15c0 4ad2 dc3e
00000190: 563f a240 f448 08c2 2b09 703f 8687 18c2
000001a0: 1cbe 44be d2d0 15c0 2fbc 663f cce6 1cbf
000001b0: 5dc6 18be 589f 8ebe 14f4 4bbe c48a ea3f
000001c0: 5480 3cc1 7e01 5a3f d166 043f 128b 023d
000001d0: 5647 c8c0 7b63 12c2 4401 c23f f28e 09bf
000001e0: e465 7240 0bd3 b93f 83fd 27c0 6747 553d
000001f0: 4d78 0b41 440e 38c0 41c5 a4c1 4eac cdc0
00000200: 934e 2140 a278 12be cc95 fb41 100b bebf
00000210: 2c4d e6c0 6a67 26c1 ac0a 54bf dad5 8140
00000220: 31ba a8c1 9076 5cc2 8a1f 09be 2889 6a3f
00000230: 2596 32bd 64ba f63e 4a3d 5ebf 6848 68be
00000240: 2572 31be 5138 7c41 024f 55c1 9494 1241
00000250: b12a ecbf 3a1a 8ebc 5d11 f1c1 269f 45c0
00000260: 95ab febc ebae a1c0 2086 f6be c5cb 6ac1
00000270: a469 c23c b73a 0440 5815 2b40 7d7a f4c0
00000280: 5d84 933f d62a 6d40 3f6f 033f b2ed 4f3f
00000290: a9af f740 a148 2342 31c8 81c1 5a21 fdbf
000002a0: 87b3 76bf 6c84 8fc2 60e9 2f3f d86d b8c0
000002b0: 367f 93be 6631 5d3e fd89 8cc1 a084 d03f
000002c0: 0df4 8e40 f0eb 47c1 d35e 41bf f562 ae3f
000002d0: 1b87 a8bf 7753 903d 4b86 1f41 79bc b4be
000002e0: b185 e33e ebbe cabe 7df2 7c41 4fd7 b5bd
000002f0: c3f5 10c1 a80f a1be cb7c 67c0 2109 b7bf
00000300: 90d0 d441 6447 dfc0 a1a1 9dbf 8921 b8c0
00000310: a208 63bd acb4 e6be 0972 a3be e7a5 433e
00000320: bf80 bd3b 8b98 e8bd 70fe 26bd 60f0 a4bb
00000330: 092b 08be ae0a 0dbe c604 9ebd b9f6 38bd
00000340: 8b48 3abd a89a 1c3c 239c d7bc bbd7 9bbd
00000350: ce11 ba3c 5cc1 80bd c301 a3bd 700b 11be
00000360: 7c75 24bd 1db3 2fbd 35b3 0d3d 104f 98bd
00000370: a076 31bd 9950 febd 8195 09be 665e 78bc
00000380: 1a0d a8bd b5c0 23bd 1091 03be c012 1e3c
00000390: 20d5 81bc 3c17 99bd 9366 24bd 74c2 cebd
000003a0: c2f1 7d3d 6dee 5abd 80ef 94bb 2377 80bd
000003b0: 52b4 9dbd cdd2 893d a0a3 763b ac5a fe3c
000003c0: 9ac2 0abe 922d 6abd 7bb4 f43c 96a7 17bd
000003d0: 649d c4bd ae13 f73d c770 c6bd 216b c43d
000003e0: 858e f9bd 5ab9 ccbd 5453 163d 7844 0abd
000003f0: 6b36 bfbb 49a1 f33a 00b6 0dbe 1aeb b3bd
0.48001534 0.110221446 -4.994045 -1.1054193 -7.5924616 1.248598 2.2507286 0.49712655
1.7477019 2.020341 -0.37977448 0.33057517 0.36142102 0.7132338 1.9223473 -1.5764169
-0.025307646 0.47906694 -1.5049337 -4.7336307 1.0542151 -8.74465 -0.56493956 -1.4361521
0.4932535 -0.5759385 -0.049621593 7.499326 1.9390779 -4.6084604 1.842726 0.43712866
-1.4952924 -0.9248151 -1.286407 -0.81489843 -2.6641102 0.31120932 -38.172634 -5.95585
-4.180879 -2.1269135 4.618544 -1.6622089 11.725327 0.30846047 8.177954 1.2784845
-4.8242407 -10.334419 -0.04346848 0.52599925 -3.4504654 -0.4669914 1.8798134 -1.2462431
0.8722295 1.8391821 2.1338432 0.6090643 2.462549 2.624181 1.1229433 8.3705015
1.2638305 1.2287892 1.3108178 0.15406297 -0.8554859 0.5570762 -8.018993 2.0847363
-1.0533199 -1.5532838 -0.017695965 -0.5748326 0.13591279 5.798673 -5.088581 -7.1881146
-2.6162024 4.4204845 0.5039113 -1.6410518 -1.1527215 -0.76397413 -3.2670643 -5.731151
-0.7351423 0.7398977 0.3230653 -0.82697624 -0.09062629 9.332987 0.84881335 0.07256304
8.668697 -1.7381469 -2.3417888 0.43129188 5.0702314 -34.071243 0.9376399 -38.132347
-0.19213146 -2.3408704 0.90130895 -0.6128967 -0.1491942 -0.27855945 -0.19917327 1.8323598
-11.78133 0.85158527 0.51719385 0.03187091 -6.258708 -36.59715 1.5156636 -0.5373374
3.787469 1.451753 -2.6248481 0.052070048 8.71687 -2.8758707 -20.596315 -6.4272833
2.5204208 -0.1430383 31.448143 -1.4847126 -7.1969204 -10.400248 -0.82828784 4.057355
-21.090914 -55.115784 -0.13390937 0.91615534 -0.04360022 0.4818908 -0.8681227 -0.22683871
-0.17328699 15.763749 -13.331789 9.161274 -1.8450528 -0.01734649 -30.133478 -3.0878386
-0.031087676 -5.0526023 -0.48149204 -14.674748 0.023732014 2.0660837 2.6731777 -7.639952
1.1524769 3.7057395 0.51341623 0.8122207 7.740193 40.820927 -16.22275 -1.9775803
-0.96367687 -71.75864 0.68715477 -5.7634087 -0.28807992 0.21600875 -17.567377 1.6290474
4.4672914 -12.495102 -0.75535315 1.3623949 -1.3166231 0.0704717 9.970286 -0.35300043
0.44437936 -0.39598784 15.809201 -0.088789575 -9.06 -0.31457257 -3.6169918 -1.4299661
26.601837 -6.9774647 -1.231495 -5.7540936 -0.055428155 -0.45059717 -0.3192294 0.19106255
0.00578317 -0.1135722 -0.040769994 -0.0050335377 -0.13297667 -0.13773605 -0.07715754 -0.045157168
-0.04547934 0.009558357 -0.026319569 -0.07609507 0.022713568 -0.062868804 -0.079593204 -0.1416452
-0.040151104 -0.042895425 0.034594733 -0.07436955 -0.04332602 -0.124177165 -0.13435937 -0.015159225
-0.08205624 -0.0399787 -0.12848306 0.009648025 -0.015848696 -0.07475135 -0.040136885 -0.10095683
0.061998136 -0.053450037 -0.004545152 -0.062727235 -0.07700409 0.0672966 0.003763415 0.031049095
-0.13550797 -0.057172365 0.029871216 -0.037025057 -0.096003324 0.120643005 -0.09689479 0.09590746
-0.121853866 -0.099962905 0.03670056 -0.033756703 -0.0058353445 0.0018587495 -0.13838959 -0.087850764

fc2.bias f4 [50]
00000000: ffa4 f33f c491 a03f 702e 1abe b511 8ebd
00000010: ef15 683f f8ed a33f 715b 973f 3bc2 3640
00000020: 0608 febd f549 ca3e 2d93 debe f306 16bd
00000030: aace 6ebf a8cb e1bd f88b 1ebf abe9 4dbf
00000040: bedb cf3f 7f4a 05bf 4309 893f 6973 cbbf
00000050: 6970 c23f 6161 7fbe 4e2e 8b3f 2643 dd3e
00000060: a6a8 8a3c 6ed2 b73c 0559 eabc 51f4 8b40
00000070: 4f8b 5940 670c 873f 74b7 cebe a9b1 8fbd
00000080: 1c00 b63c 7667 9cbf e160 0140 67c2 1040
00000090: 5a0e c3bd ad37 a23f 9be5 adbf da53 bb3f
000000a0: 77d5 1140 fd47 c9bd add6 e6bf c4e9 b0bf
000000b0: 0631 2bc0 b820 03bf ac8e 133c 7967 2cc0
000000c0: d47e 8bbf e01b a33f
1.9034728 1.2544484 -0.15056777 -0.06936971 0.9065847 1.2806997 1.1824781 2.855605
-0.12403874 0.3950955 -0.4347166 -0.03662772 -0.93284094 -0.110251725 -0.61932325 -0.80434674
1.6238935 -0.52066797 1.0705951 -1.5894595 1.5190555 -0.24939491 1.0873506 0.43215293
0.016926121 0.022439208 -0.028606901 4.373574 3.3991277 1.055066 -0.4037434 -0.07016308
0.022216849 -1.2219074 2.021538 2.2618654 -0.09524222 1.2673241 -1.3585695 1.4634964
2.2786539 -0.09828184 -1.8034264 -1.382134 -2.6748672 -0.512218 0.009006184 -2.6938155
-1.089808 1.2742882

fc3.weight f4 [5, 50]
00000000: 861f 45be 76b2 693d 303e 433d b272 3dbe
00000010: 94d6 d93d 37a0 803e 069b 0fbd eabe 6fbe
00000020: f374 4e3d 9074 f9bd e8ed 423e 1cf9 9f3d
00000030: 1d24 bc3d b47d ee39 ceac 0c3f ad38 dcbd
00000040: 993d 7d3e 30ca 19be 4ef3 51be 20f7 8f3d
00000050: bb2e 923e ea1d babe 0114 bf3c 8db7 fe3d
00000060: 9b1d 4abe 781d 13be 0833 a43d 6c53 253e
00000070: 9751 78bd 58f0 09bf 7089 8abe 1e9c 183e
00000080: 58ed b4bd 70ae 19bf 7c0d 4f3d d3aa 4b3e
00000090: b09e 9d3d 8394 febe a2f0 073e 7f12 fcbd
000000a0: ed42 403e 04ba 90bd 0b12 27bd cddf bc3b
000000b0: 2748 1bbd 75e0 4abc 8fa4 d73e 49c1 25bb
000000c0: fda4 513d c6db 0f3e 9790 eebe afae 1f3e
000000d0: 19db 353e 60f1 533d 0e17 9a3e 90ea 393f
000000e0: c518 a9bd 158d 59be e278 72bd 3e88 94be
000000f0: 5681 ad3e 1814 103e 748c 8c3e e16b f03b
00000100: 11e9 9b3f a3f6 57bf 852d 2c3f eb1f b6be
00000110: 1fc3 fbbe b315 663e 4e8d 2b3f 3298 5fbf
00000120: c8df 823d 9819 bc3e 3f33 b2bd 2326 8dbd
00000130: 0a97 0d3e 52a5 db3e 09ef 0bbe e59d bcbf
00000140: 1e54 bbbe a5da b33e 4c7c 27be 6c52 58bf
00000150: 9228 fc3d 2a24 ad3e f9bd 4c3c 441b 89bf
00000160: 8df7 a53e f883 7ebe 45bf fb3e a16d a8be
00000170: af38 1fbe 55d2 1ebd fd5e 63be 9f71 01bf
00000180: a22d 603f b1dc 6cbd 2d62 693e dbdf 9f3e
00000190: df44 5fbf 8174 9c3e 86a0 943d e09e 82bd
000001a0: c66c 183f a166 c03f b740 27be 1723 d9bd
000001b0: 0ae5 7fbe 0d88 f7be f201 89bd 584b c1bd
000001c0: 8beb 0a3f 4223 ed3d 1c86 0a40 caa0 08c0
000001d0: 7bce b13f 804a 32bf b842 72bf 18d0 fb3e
000001e0: e581 a43f d8ac d3bf 52c8 273e 358c 453f
000001f0: 3db4 593c 0c98 b33d 54af 1d3d 259d 4d3f
00000200: 6bff 8fbe 54ad 4ac0 dd59 bcbe 7feb 223f
00000210: d804 92be 4281 7abf 3bf6 773e a33a 083f
00000220: 6807 e13d f0db f0bf 187a 163f c169 00bf
00000230: 1d1f 793f 9eea 2bbf 3658 a7be 7c20 07be
00000240: ac6e 0bbf 9738 b2bf 6a2c de3f 7e25 6ebe
00000250: 58d5 033f 990c 1a3f 5a0f b5bf f002 043f
00000260: a4ac a63b 8821 453d 7e52 803f 1cf6 2340
00000270: 2942 90be b640 6d3d 2f20 08bf 6d9e 2bbf
00000280: 52b8 34bc eb74 ac3d f7e0 763f d4fd 813d
00000290: ebb7 5b40 318e 80c0 b8c3 1b40 2acb 98bf
000002a0: 09ce cbbf f26e 5e3f 8a4a 0a40 e7db 30c0
000002b0: d2c3 a53e eac2 ac3f d2a1 1fbd 7487 00be
000002c0: c775 683c fafe a83f e06c 00bf b36d acc0
000002d0: 8f14 21be 0c47 913f f4f0 eabe 8dbe 92bf
000002e0: 2e67 cc3e 4ffc 493f 439f 16bc 6556 47c0
000002f0: d4f8 6b3f d8f1 75bf b992 d13f 45f1 93bf
00000300: 5293 12bf 8048 84be adff 82bf 5dde 2ec0
00000310: 5cc5 2e40 db7e 06bf 4ae8 673f dfe4 803f
00000320: 6fbd 07c0 ca1d 4d3f ab07 98bc a079 48bd
00000330: 8082 c53f 6111 7d40 671f e6be 6547 a63e
00000340: c944 6cbf 782c 62bf 6058 a13e 24c1 88bc
00000350: 850d c83f b7b4 20bd 22de a140 65cd d0c0
00000360: 2344 7840 9810 f0bf 8c4b 1dc0 9de6 b23f
00000370: 4fa5 5540 c8f0 89c0 01fe 0f3f 9fa7 0a40
00000380: 74de 74bd e420 42bd 9c38 99bd b303 0140
00000390: 7331 56bf 769a 04c1 8e15 6fbe 68eb dc3f
000003a0: 46fd 32bf 7c90 92bf 0a4a 1d3f e4f9 8d3f
000003b0: ddc5 92bd 9158 97c0 1cfe ac3f dda5 d9bf
000003c0: 63ee 2040 cf73 ebbf af1d 64bf 065f dcbe
000003d0: 1829 dabf 6073 90c0 0ea8 8740 2fae 7dbf
000003e0: 5bc5 b53f 83cb c53f
-0.19250306 0.05705496 0.04766673 -0.18500784 0.10636631 0.25122234 -0.03505995 -0.23412672
0.0504045 -0.12180436 0.19036067 0.07811186 0.091865756 0.00045488554 0.5495118 -0.107529975
0.24730529 -0.15018535 -0.2050297 0.07029557 0.28551278 -0.36350948 0.023324968 0.12437353
-0.19737856 -0.1436671 0.08017546 0.16145104 -0.060624685 -0.5388236 -0.27057981 0.14903304
-0.08834332 -0.60031796 0.05054997 0.19889383 0.07696283 -0.4972268 0.13275388 -0.12308215
0.1877553 -0.0706673 -0.04078869 0.005763984 -0.037910607 -0.012382616 0.42117736 -0.002529221
0.051182736 0.1404868 -0.46594688 0.1559398 0.1775936 0.051743865 0.30095714 0.7262354
-0.082566775 -0.21245225 -0.059197314 -0.29010195 0.33887738 0.14070165 0.27450907 0.007337079
1.2180501 -0.8436071 0.6725696 -0.35571226 -0.49172303 0.22469215 0.6701249 -0.87341607
0.06390339 0.36738276 -0.08701181 -0.068920396 0.13827148 0.42899567 -0.13665403 -1.4735686
-0.36587614 0.3512775 -0.16356009 -0.84500766 0.12312426 0.33816653 0.012496465 -1.0711446
0.3241543 -0.2485503 0.49169365 -0.3289614 -0.15548967 -0.038774807 -0.22204204 -0.50564
0.8756963 -0.057827655 0.22791357 0.31225476 -0.87214464 0.30557635 0.0725718 -0.06377959
0.59540975 1.503132 -0.1633328 -0.10602396 -0.24989715 -0.48345986 -0.06689824 -0.09438199
0.5426566 0.115789905 2.1644354 -2.1348138 1.3891138 -0.6964493 -0.94633055 0.491822
1.2852141 -1.6537123 0.1638501 0.77167064 0.013287601 0.08769235 0.038497284 0.8031791
-0.28124556 -3.166829 -0.3678731 0.6364059 -0.2851932 -0.9785348 0.24215023 0.5321447
0.10987741 -1.881712 0.5878005 -0.5016137 0.973131 -0.6715487 -0.32684487 -0.13195986
-0.54465747 -1.392352 1.7357304 -0.2325649 0.5149741 0.6017547 -1.414531 0.5156698
0.0050864983 0.04812768 1.0025175 2.5618963 -0.28175476 0.05792304 -0.5317411 -0.67038614
-0.0110302735 0.08420738 0.9643702 0.06347242 3.4331005 -4.0173573 2.4338207 -1.1937001
-1.5922252 0.8688804 2.1607995 -2.7634218 0.32375962 1.3496983 -0.038972683 -0.12551671
0.014188237 1.3202813 -0.5016613 -5.388391 -0.15730499 1.1349807 -0.45886958 -1.1464401
0.3992247 0.7890062 -0.009193244 -3.114648 0.92176557 -0.9607215 1.6372901 -1.1558005
-0.5725604 -0.25836563 -1.0234276 -2.732322 2.7307959 -0.52537316 0.9058882 1.0069846
-2.120937 0.8012358 -0.018558344 -0.048944116 1.543045 3.9541857 -0.44945833 0.32476345
-0.9229246 -0.88349104 0.31512737 -0.01669366 1.5629126 -0.039234843 5.058366 -6.5250726
3.8791587 -1.8755064 -2.457736 1.3976628 3.3382146 -4.3106422 0.56246954 2.1664808
-0.05978246 -0.04739465 -0.074815005 2.0158508 -0.83669204 -8.28771 -0.23348066 1.725934
-0.69917715 -1.1450343 0.614411 1.1091886 -0.07166646 -4.7295613 1.3515048 -1.7003742
2.51455 -1.8394717 -0.89107794 -0.43041247 -1.7043791 -4.514084 4.2392645 -0.9909391
1.4200853 1.5452732

fc3.bias f4 [5]
00000000: 92bf 0540 fe17 1340 5d5a 1640 e12f 2f40
00000010: e8b5 5e40
2.0898175 2.2983394 2.3492653 2.7372973 3.4798527
