GraphPredictor/models/model8.pt (torch, 114346 bytes, 10 tensors)

fc1.weight f4 [200, 5]
00000000: 7372 47bf 918c 283f b3af 973f 6615 9b3e
00000010: 8bfe 9bbd ae8f cabf 5a6d a9be 4b67 47bf
00000020: 520d 25bf 8291 df3e ef32 75be 15bd 083e
00000030: d0db cabf 9d73 40bf 601d d53e b7c3 0a40
00000040: 793d bf3e 18a5 1ebd e0ae ca3e 2141 01be
00000050: 41b9 82be 8ee2 0bc0 90ee cb3e 46c0 823c
00000060: db28 26bd dee0 2a3f 0f0f 9abc 4e3a c33e
00000070: 6385 4f3e 285b 91bd 0b0c dfbc 76c2 473b
00000080: 3ae4 aa3f b475 f43e ac84 35be 6f7b ec3d
00000090: 6ebd 613d d80d 93be 7c0d eb3d 1a61 33bc
000000a0: 7028 d73f aeea 84bf f12b a33f 0c4f 303f
000000b0: c1cf a63c 9456 41bf fd91 6e3f c1e3 1a3f
000000c0: bade 3c3f 8786 00bf 54b0 ae3f 6f2b 0a3f
000000d0: cc4b 873f a02c 6cbe 9d0e e73c 6acd 4e3f
000000e0: e5c6 eb3d ea53 1e3e 0145 41be 0303 903d
000000f0: 1366 153f 2fad 973e fb8f a53e f440 e43e
00000100: ac62 07be 3196 303f 1e0c 6e3f 9768 9f3f
00000110: 0d09 1b3f 942f c7be 8f7a 83bf 826a 85be
00000120: 9d6f 913e 75b5 333d 0054 46bf 20db 10c0
00000130: 500c fcbf e1c6 c73e 83cb 4dbe f824 a43e
00000140: d7f3 643f 2529 193f 8810 543f 424d a1be
00000150: 1e23 b13d 0a1c f03f 9908 d03f e19b 813e
00000160: 5c09 df3e 57e5 d1bd b4c8 683e d3de 543c
00000170: 2896 ed3b 4bf7 1cbe 26a4 e13e 199b 793f
00000180: 05e4 17bd 9e9e 973f 5f2c c93e e878 d9be
00000190: 79cf ecbe ae48 8bbe f537 8f3f a05d 9d3e
000001a0: b325 17bf 15ec 39bc 838f 7d3f 60fb 553f
000001b0: 0458 033e 5885 a8be d2ff 753f 72b5 e7be
000001c0: 3a48 ab3f 3a53 5e3f 7aec b8be 313b 76bf
000001d0: 2680 85be f6f1 d9be e214 973d 1efc 283f
000001e0: 486a 58c0 0d4e cabf 4e83 933f b308 483f
000001f0: f01a b4be 849b 7b40 4e6a 8c40 8228 b5bf
00000200: 8ce7 26bf 57e1 e73e 076a 86bf 88dd 9bc0
00000210: 1d70 a53e 79ad d33e 7048 75be 4b97 ca3f
00000220: f4b4 053f a982 953f 46cc aa3e 20df 8abe
00000230: 2c96 ef40 aaae c83e ccc4 9bbf 9167 8abf
00000240: ded1 bb3e 9c6b 563e 22bf 8f3f 0f85 7abd
00000250: 15fe 9f3d d50f 033f 263b 46be c45f cb3f
00000260: 5e40 e6be 6c4a 4fbf 00e9 d93e 1656 2d40
00000270: 645b 47bf 2259 453f be9b f7bd 9822 c83b
00000280: 580c 933d 2ae5 203b af55 313d ff42 953d
00000290: 6840 d5bc eb00 2c3e 5d95 80bf 9bc7 8b3f
000002a0: dcf6 e33e d480 1bbe 79dc 383e 980c 6fbf
000002b0: 3d39 a03f ab95 e13e ae1d e0bd c9b8 46bf
000002c0: 7b55 6abe 994f 17bf b598 6f3d 0d4b 343f
000002d0: 268f 3f3f c299 d8be 5ee5 7f3f 7ff6 fe3d
000002e0: 91fd 2fbf 3b14 ba3f c65e 0b40 cdd5 9d3e
000002f0: 98e8 53be ff98 4b3e 87da 47bf 0e59 b13f
00000300: 7da1 67be 615e 963e ba11 aabc 3ef2 30bf
00000310: d657 7e3f 28a6 113f 4d5b 303f c5ac f6be
00000320: ddf5 663f 7c43 4c3f d530 a43f cbea b13e
00000330: 48fe 58be c06b 22bf 3891 f2bc f7af f73e
00000340: 9d04 963e 50ae 4bbf 84dd b73d 24a6 83be
00000350: 68ec 993d 832b d5bd fb98 cc3c 6916 43be
00000360: 6507 fd3c ed77 2ebf 476b 9cbe b1fe 1c3f
00000370: 2f8e a43f a881 cd3f 825a 14bf 3343 3e3f
00000380: 500d 2cbe b0d6 42be 5a41 4840 1796 94bf
00000390: 3662 d6be d8d3 093f 0ef6 44c0 8701 2a3f
000003a0: 4b70 e03e 09b0 603e 9109 47be 123c 29bf
000003b0: e07f c8bf 28d6 d5be 641a 09bf db1b 843e
000003c0: 44ec e83f e647 26c0 36c6 593f f0e4 5cbe
000003d0: df3c 773d a920 823e e988 b9bd e52e 513f
000003e0: 1773 c83e f0aa 18bf 9c1f 07c0 a272 63bf
000003f0: 85e7 8b3f 30cb cd3d 318c 70be 2456 1bbf
-0.7790901 0.6583949 1.1850494 0.30289763 -0.076169096 -1.5825098 -0.3309124 -0.7789199
-0.6447345 0.436657 -0.23945211 0.13353379 -1.5848331 -0.7517641 0.41623974 2.1681955
0.37351587 -0.038731664 0.39586544 -0.12622501 -0.25531963 -2.1857028 0.39830446 0.015960824
-0.040566307 0.6674937 -0.018806009 0.3813042 0.20265727 -0.07097465 -0.027227422 0.0030480898
1.3350899 0.4774605 -0.17726392 0.115469806 0.055112295 -0.287215 0.11477181 -0.010948444
1.6809216 -1.0384119 1.2747785 0.68870616 0.020362737 -0.7552273 0.9319151 0.60503775
0.73777354 -0.5020527 1.3647561 0.53972524 1.0570006 -0.23063898 0.02820521 0.80782187
0.115125455 0.15461698 -0.18873979 0.070318244 0.5835888 0.29624316 0.3233641 0.44580805
-0.13221234 0.68979174 0.9298724 1.2453793 0.60560685 -0.38903487 -1.0271777 -0.26057822
0.28405467 0.043874223 -0.77471924 -2.2633743 -1.9691257 0.3901892 -0.20097165 0.32059455
0.8943457 0.59828407 0.82837725 -0.31504256 0.08649276 1.8758557 1.6252624 0.2531424
0.43561828 -0.10248821 0.22732812 0.012992579 0.007250566 -0.1532871 0.44070548 0.97502285
-0.03708269 1.1845281 0.39291665 -0.42475057 -0.4625204 -0.27203888 1.1188952 0.30735493
-0.590419 -0.01134779 0.99047107 0.8358669 0.12826544 -0.32914233 0.96093476 -0.4525562
1.3381417 0.86845744 -0.36117917 -0.9618407 -0.26074332 -0.42567414 0.0737703 0.660097
-3.381487 -1.5805069 1.1524446 0.78138274 -0.35176802 3.931367 4.3879766 -1.4152987
-0.6519706 0.45289108 -1.0501107 -4.8707924 0.32312098 0.41343287 -0.23953414 1.5827421
0.5222924 1.1680499 0.33358973 -0.27123356 7.4870815 0.39195758 -1.2169433 -1.0812856
0.36683553 0.20939487 1.1230204 -0.06116205 0.07812134 0.5119603 -0.19358501 1.58886
-0.44970983 -0.80972934 0.42560577 2.7083793 -0.77873826 0.7708913 -0.12090252 0.0061076395
0.07180089 0.0024550655 0.043294605 0.07288169 -0.026031688 0.16797225 -1.0045582 1.092029
0.44524276 -0.15185863 0.18052854 -0.9337859 1.2517468 0.440595 -0.10943161 -0.7762571
-0.2288417 -0.5910583 0.058495242 0.7042702 0.748278 -0.42304808 0.9995936 0.12449359
-0.68746287 1.4537424 2.1776595 0.3082718 -0.20694196 0.19882582 -0.7806782 1.3855302
-0.22620197 0.2936888 -0.020760406 -0.6911963 0.99352777 0.5689416 0.68889314 -0.48178688
0.9021891 0.79790473 1.2827402 0.34749445 -0.2119075 -0.63445663 -0.029610261 0.48376438
0.29300395 -0.79562855 0.089777976 -0.25712693 0.07515794 -0.1040869 0.02497529 -0.19051518
0.030887315 -0.6815174 -0.30550596 0.6132613 1.2855891 1.6055193 -0.57950604 0.7432129
-0.16801953 -0.1902721 3.1289887 -1.1608304 -0.41871804 0.5383887 -3.077518 0.6640858
0.43835673 0.21942152 -0.19437243 -0.66107285 -1.5664024 -0.4176495 -0.53555894 0.25802502
1.8197103 -2.5981383 0.8506807 -0.21571708 0.060360786 0.25415543 -0.09059317 0.8171218
0.39150307 -0.5963583 -2.1113043 -0.8884679 1.0930029 0.100485206 -0.23490979 -0.60678315

fc1.bias f4 [200]
00000000: b6d1 a9bf 74d8 d2be 616f bb3e e4dc e6bf
00000010: 7b54 1fbf 8616 80c0 e259 91bf 6d3a 02c0
00000020: b349 96bf 60d6 22bf 2d79 0cc0 affd 69c0
00000030: 5304 18c0 f850 96bf 1ea9 a1be ddd4 d1bf
00000040: c40c 84c0 ef62 66c0 c914 b5bd b7d0 13bf
00000050: 666b 85bf f36b 90be c1c3 043e 0bb8 b0bf
00000060: 956f 583e be30 703e a975 ec3f d4e8 bcbf
00000070: fa82 533f 5062 79c0 9e11 abbf defd 52c0
00000080: 857b 89bf bc36 98bf 0789 73bf 1d26 a6bf
00000090: da90 87bf b806 8ec0 2507 6bc0 e887 a3be
000000a0: 517a 71bf f95d 53bf 5ff0 d2bf 8067 9dbf
000000b0: 7feb f9bf ccc2 bbbf afe4 febf d754 eebf
000000c0: bf3b 31c0 901b fcbe 1fa3 a3bf 3530 adbf
000000d0: 7d75 36c0 68c5 92bf 7b87 77bf 34e8 f4bf
000000e0: e3e8 71c0 cae0 3abf 215a b2c0 6bdb a2bf
000000f0: 59e5 e3bf a39e 9ebf 1940 65bf 6358 a5be
00000100: 66d5 32c0 f1d1 47bf a868 15c0 8e48 a7bf
00000110: 7ef8 8abf 7bb1 29c0 dcd5 65c0 54f2 e8bf
00000120: 1181 cebf 7ca0 e63d 4570 6f40 364c aebf
00000130: 26f8 0cc0 c600 9bbf aca7 2dc0 2e03 27c0
00000140: 7dd8 74c0 3691 debf f090 e1bf 76a4 7ec0
00000150: e7a4 28bf a55f 503e 0431 833e 183d c0bf
00000160: eb32 ccbe 368b bb3f 768c b9bf 7f01 0fc0
00000170: a387 b5bf fa4d aabf a5d9 8ec0 c3e4 6dc0
00000180: 32d4 86bf a357 393f acb0 42bf e5d9 aebf
00000190: 8b66 d2bf 0189 72bd e548 46c0 f604 54c0
000001a0: f838 64c0 a043 dfbf 4f98 b0bf 122d 06c0
000001b0: af07 03bf 78a9 59c0 2131 573f 4b1a d7be
000001c0: 445a 9fbe 3353 04bf fe2d ebbf 1424 afbf
000001d0: b2da 82bf e833 2d3f 3f0c 77c0 b221 9cbf
000001e0: edf7 e2bf a148 e3bd c030 16bf 95e4 bbbf
000001f0: b574 ccbf 8c47 e3bf b235 83c0 a696 1bc0
00000200: 3ecb 17c0 5250 6ec0 553c 02bf 6c55 e9bf
00000210: 5136 aebf 18c1 3ebf 878e 77bf bce4 1fbf
00000220: 1e10 adbf bf48 f53e 8a3e 84c0 ef53 e3bf
00000230: 04f8 6ebf 3761 9ebf ae87 66c0 5ccc 25c0
00000240: 5df1 60bf cf45 4bc0 06ad 43c0 4b4e a5c0
00000250: 1637 5f3d aebc 5bc0 14d9 9b3d 7300 14c0
00000260: 6e3f bcbf ec7a e0be 18b2 f5bf eb51 d4bf
00000270: 7d7b edbf e2fa b8bf ac11 8dc0 f4cc 2fbf
00000280: 8346 12c0 1d24 36bf ca40 afbf 383d 64bf
00000290: 2e68 14c0 fc23 853d fb85 bbbf f08f 1ac0
000002a0: 2c6f d7bf 278f d7bf 4829 253f 9a41 adbf
000002b0: 9514 3dbe 8710 d2bf bbd3 d5bf e7db 6fc0
000002c0: c6a7 9fbf a14e d4bf 767d 82bf a4ab 9dbf
000002d0: 0e95 50c0 1dc6 06c0 34f0 603e 7428 e0bf
000002e0: 7479 dbbf 004e 353f 3abe 82bf b419 a1bf
000002f0: 5d94 79bf f671 d1bf 685c bebf 1312 30c0
00000300: b13d d5bf ad16 5cc0 9e4e 2bbf 6be1 8b3f
00000310: 416b a4bf 7b0b 38c0 1398 8bbf 27bd 6dbf
-1.3267124 -0.41180766 0.36608413 -1.803616 -0.6223828 -4.0027494 -1.1355555 -2.034816
-1.1741241 -0.6360836 -2.194896 -3.6561086 -2.375264 -1.174346 -0.3157434 -1.6393086
-4.1265583 -3.5997884 -0.08841855 -0.5774035 -1.04234 -0.2820736 0.12965299 -1.3806165
0.21136315 0.23456094 1.8473407 -1.4758554 0.8262173 -3.8966255 -1.3364751 -3.2967448
-1.074082 -1.1891704 -0.9513096 -1.2980381 -1.059108 -4.43832 -3.672311 -0.31939626
-0.94327265 -0.82565266 -1.6479605 -1.2297211 -1.9524993 -1.4668822 -1.9913539 -1.8619641
-2.7692716 -0.4923978 -1.2784156 -1.3530337 -2.850921 -1.1466494 -0.966911 -1.9133363
-3.7798393 -0.7299925 -5.573502 -1.2723211 -1.7804366 -1.2392162 -0.8955093 -0.32293996
-2.7942748 -0.7805472 -2.3345127 -1.3069017 -1.0857084 -2.6514575 -3.591178 -1.8198953
-1.6133138 0.11261079 3.7412274 -1.3617008 -2.2026458 -1.2109611 -2.7133589 -2.609569
-3.8257134 -1.7388065 -1.7622356 -3.978788 -0.6587662 0.20348985 0.25623333 -1.5018644
-0.39882597 1.4651859 -1.449599 -2.2344663 -1.4182018 -1.3305047 -4.464068 -3.7170875
-1.0533507 0.7239935 -0.7605083 -1.3660246 -1.6437544 -0.05921269 -3.0981991 -3.3128028
-3.565977 -1.7442513 -1.3796481 -2.0965009 -0.511836 -3.4009686 0.8405934 -0.42012247
-0.31123555 -0.5168945 -1.8373411 -1.3682885 -1.022299 0.6765733 -3.8601224 -1.2197783
-1.7731911 -0.11097837 -0.58668137 -1.4679133 -1.5973116 -1.7756209 -4.1003046 -2.4310699
-2.37178 -3.7236524 -0.5087331 -1.8229194 -1.3610326 -0.7451339 -0.96701854 -0.62458396
-1.3520544 0.47907063 -4.132634 -1.775999 -0.9334719 -1.2373418 -3.6020312 -2.590598
-0.8786829 -3.1761358 -3.0574355 -5.1658072 0.054495893 -3.433391 0.07609764 -2.3125274
-1.4706857 -0.43843782 -1.9194975 -1.6587499 -1.8553311 -1.4451563 -4.408407 -0.6867211
-2.2855537 -0.71148854 -1.3691647 -0.8915591 -2.3188586 0.06501004 -1.4650263 -2.4150352
-1.6830802 -1.6840562 0.64516115 -1.3535645 -0.18464883 -1.6411294 -1.670524 -3.7477968
-1.2473075 -1.6586496 -1.0194538 -1.2318006 -3.2590976 -2.1058419 0.2196663 -1.7512345
-1.714644 0.70822144 -1.0214303 -1.2585969 -0.9749201 -1.6362903 -1.487195 -2.7511032
-1.6659452 -3.438884 -0.66916835 1.0928167 -1.2845231 -2.8757007 -1.0905784 -0.9286675

fc2.weight f4 [100, 200]
00000000: dc57 01bd 4a8b cbbd 8d8d 50bd 5daa 7cbd
00000010: bc7e 043e 4854 e5bc 646e f3bd 6a88 f6bd
00000020: f660 f9bd 8e6f e8bb b301 b0bc 14b3 91bd
00000030: fa02 54bd cf4e d4bd 5380 1cbd b76d d5bd
00000040: eb65 65bd c77c 153d 7883 f6bd 6e6c 9e3b
00000050: c655 7dbd 985b a0bc 6019 a4bd 35ed 52bc
00000060: 6f22 b4bd d58e c3bd bdea d1bd e5be d4bd
00000070: 697d 3dbd 74d1 d73d 4d4c aebd 6212 8bbd
00000080: 9ebe 65bd 8fab ccbc 6c0f c3bd 46f5 3dbd
00000090: 24c9 9dbd 518a c7bc cbe1 e2bd c992 73bd
000000a0: a391 4dbc 7b6d c2bd 1797 55bc 5b6c 23bd
000000b0: 1243 b2bd f073 f7bd c390 023e e960 ddbd
000000c0: c286 82bd 26f3 f1bd 40c2 12bd a9e9 13bd
000000d0: c5e6 1a3c 71ab ddbd ab68 11bd 64f1 b8bd
000000e0: 667c 63bc cda6 f9bd 0eeb adbc cf33 9fbc
000000f0: dfdb 9fbb 9a3d 33bd b719 8abd 98dc f23d
00000100: 35ef f4bd 2b75 d0bd 4c76 023a 0c47 f5bd
00000110: 40db 05be 67ae 9ebd 5230 9b3d d591 f9bd
00000120: 666c bcbd 4f9d 85bd 98be a1bd dd71 be3d
00000130: 1706 dbbc 8b11 88bd a23a ecbd d1f1 4c3d
00000140: 9eab dcbb 4f30 cebd 2a71 e6ba 4e04 b4bb
00000150: 5a1e 893c 3c24 b5bd b11f f2bd 31c8 30bc
00000160: 06c9 01be f3b4 bdbc 688c abbd 7abe a0bd
00000170: f84d c7bc a718 e33b 4222 fabc 8662 ccbc
00000180: 3e05 ebbd 39be 87bc 1234 6ebc 465b bf3d
00000190: 0d04 0abd 903e 32bc 6031 17bd 7190 a8bd
000001a0: 2bb5 5bbd 6260 cbbd 2cc2 c8bd 5b14 cbbd
000001b0: ae4c b4bd 9a03 e7bd f005 98bc a8b8 f4bd
000001c0: d270 433d 0cb6 c9bc 1d94 86bd 82d1 b63b
000001d0: 4083 85bd 086f 04bd 9c1b fdbd ce80 9dbd
000001e0: 8ec8 99bd 5ceb eebd f0ad fb3a 011e 94bd
000001f0: ce8b 02bd 4487 253c a448 86bc 4201 fcbb
00000200: 4512 32bc 46db 04bd b3d5 a33c 85c3 603c
00000210: 33a4 44ba e289 64bd 233f dbbd d410 703d
00000220: c13c 2d3c e7ce bc3b c8f1 f1bd 8c57 6fbd
00000230: 3922 9dbd 724b 88bd dc67 2dbd da0c a3bd
00000240: 2018 e4bc 22ec f7bd 3bb0 a0ba ce09 78bc
00000250: 004e b2bd 7a15 d2bb 16c1 73bd b4c5 6b3b
00000260: fc4d 04bd 90e7 d3bd b2f7 bdbd eb4d 1cbd
00000270: e0fd 82bd a40f 55bc 4721 88bd f511 b8bd
00000280: 7c23 e5bd 182e 193c 74b8 d1bd 1b21 6cbc
00000290: 4c51 34bd 9de3 9abc 32fc 04bd b954 b2bc
000002a0: 7f1b c9bb 58f8 aabd 164e 41bd b9d2 dabd
000002b0: 29c7 52bd 6709 fe3d e25e 0dbd 5d41 6ebd
000002c0: d386 b13b 6877 c5bd 3fd5 b03c f1a0 27bd
000002d0: bf64 99bd 9f00 dabc 71ec c63d 8710 05be
000002e0: 5d40 a7bc 0b6a a8bd fbbc 80bc 950b f7bc
000002f0: fea6 8fbd 9d15 903a b1f9 c5bd b3f6 b03b
00000300: e23c febc daf2 c53b 30e8 94bd ed63 bb3c
00000310: 00e7 68bd e642 77bc 110b 95bd 586c 8cbb
00000320: c2b2 bbbf 0f24 e4be b831 f6be ece8 95be
00000330: 394d a63c 3240 263f de9c 05be 40b7 dabd
00000340: af9a 5140 8429 8dc0 59f9 37bf 145c b43b
00000350: 341d 983f 44e2 acbe 2f06 d83c b332 3bbf
00000360: 94f4 dcbe 4894 b0bd f9be f1be e9b5 16c0
00000370: 52b9 b7be fde9 1ec0 63cf 02bf 4ceb 98be
00000380: ff25 69bf 49ae 86bf 6807 81be 9dd3 d9be
00000390: 17ef 05bf a997 0dbf 8ea2 05bf b908 9fbd
000003a0: 9bc0 b6bc be88 79be b0aa d6be 7d31 73be
000003b0: 806c ecbe 6d40 afbe 33aa 303d fa11 acc0
000003c0: 201a f6bf e8b1 eebe d61d 81b8 24b0 a3be
000003d0: 63db a3bd f70b 82be 4d3a 13bf 6a6e 1fbf
000003e0: 1a29 a1be 94f3 c1be 056c d7be d1a2 0abf
000003f0: 7b94 123e dfb2 1fbf 9133 39bf fac8 d5bf
-0.03157793 -0.09938677 -0.050916243 -0.06168591 0.1293897 -0.02799429 -0.1188629 -0.12037738
-0.12176697 -0.0070933765 -0.021485185 -0.071142346 -0.05176065 -0.10366594 -0.038208317 -0.10421317
-0.0560054 0.03649595 -0.120367944 0.004834703 -0.061849378 -0.019574925 -0.080126524 -0.012873937
-0.0879563 -0.095487274 -0.10249851 -0.10387973 -0.04626218 0.10537997 -0.08510647 -0.067906156
-0.05608999 -0.02498415 -0.09524426 -0.04637649 -0.0770438 -0.024357947 -0.11078223 -0.059466157
-0.0125469295 -0.09493538 -0.013036511 -0.039898258 -0.08704199 -0.1208266 0.12750535 -0.108095
-0.06373359 -0.11813955 -0.035829782 -0.036111508 0.009454434 -0.108237155 -0.03550021 -0.090304166
-0.013884639 -0.12190018 -0.021230247 -0.019433884 -0.0048785056 -0.04375992 -0.06743186 0.11858481
-0.119596876 -0.10178598 0.0004976734 -0.11976442 -0.13071918 -0.07748108 0.07577576 -0.121860184
-0.09200363 -0.06524145 -0.07897681 0.092990614 -0.026736302 -0.06643971 -0.11534621 0.0500353
-0.0067343256 -0.10067808 -0.0017581333 -0.005493677 0.016738106 -0.08844802 -0.11822451 -0.010789917
-0.1267434 -0.023157572 -0.0837639 -0.078488305 -0.02432917 0.006930429 -0.030533914 -0.024949323
-0.11475609 -0.016570197 -0.014538782 0.09343581 -0.03369527 -0.010879174 -0.036912322 -0.08230675
-0.053639572 -0.09930493 -0.0980266 -0.09915992 -0.08803688 -0.11279984 -0.018557519 -0.11949283
0.047715016 -0.02462294 -0.06571219 0.0055791745 -0.065191746 -0.03233245 -0.12358782 -0.07690583
-0.07508956 -0.11665985 0.0019201618 -0.07232285 -0.03187161 0.010103051 -0.01639206 -0.0076905796
-0.010868614 -0.032435678 0.01999936 0.0137184905 -0.0007501274 -0.055795558 -0.10705402 0.0586098
0.010573567 0.0057619694 -0.11813694 -0.0584331 -0.07672543 -0.06655015 -0.042335376 -0.079614356
-0.027843535 -0.12105586 -0.0012259552 -0.015139056 -0.087062836 -0.0064112516 -0.059510313 0.0035975995
-0.032300934 -0.103469014 -0.0927576 -0.038160246 -0.06396079 -0.013004217 -0.06646972 -0.089878
-0.11188409 0.0093493685 -0.1024026 -0.01441219 -0.044022843 -0.018907363 -0.032467075 -0.021768915
-0.006137311 -0.08348149 -0.04719361 -0.106847234 -0.051459465 0.12404137 -0.034514315 -0.058167804
0.0054176836 -0.096419156 0.021586059 -0.04092497 -0.07489919 -0.026611624 0.09713066 -0.12994586
-0.020416433 -0.08223351 -0.015715113 -0.03015689 -0.07014273 0.0010992769 -0.096667655 0.0054005026
-0.03103489 0.006040913 -0.07270849 0.022874797 -0.056860924 -0.015091633 -0.072775014 -0.0042853765
-1.4663928 -0.4455876 -0.48084807 -0.29279268 0.020300495 0.64941704 -0.13048121 -0.106794834
3.2750661 -4.411318 -0.7186485 0.0055041406 1.1883912 -0.33766377 0.026370136 -0.73124236
-0.43155348 -0.086220324 -0.47216013 -2.354853 -0.35883576 -2.4830315 -0.51097697 -0.29867017
-0.910736 -1.0521938 -0.25200963 -0.4254426 -0.5231795 -0.5530954 -0.52201164 -0.077653356
-0.022308638 -0.24368569 -0.419271 -0.23749347 -0.4617653 -0.3422884 0.043131065 -5.3771944
-1.9226723 -0.46620107 -6.156757e-05 -0.31970322 -0.08000829 -0.25399753 -0.57510835 -0.62277853
-0.3147667 -0.37881148 -0.420746 -0.5415469 0.14314453 -0.6238231 -0.7234431 -1.6701958

fc2.bias f4 [100]
00000000: 0a43 ccbc b208 90bf f746 5ebf dc04 3cbf
00000010: 8f63 5ebf 212c 6abf f25f 1abe f008 50bf
00000020: b0d0 95be 8f81 223e bbf0 abbd ce98 a5bf
00000030: 05ae c8bc 0f8e 10bf 353f 23bc d1bb e4bf
00000040: 2a31 5ebf 276d 1c40 b1c0 34bf 4af2 0b3f
00000050: 84c6 b3be 9130 8a3c 9164 e3be 1b90 1cbf
00000060: f5ec b43d 2f95 02bf c918 a2bc 0d0f c6bd
00000070: e0f5 b0be 2cf1 823e 8e98 94be 18c8 513f
00000080: 826d 77bf 5d05 00bd d529 68bf 4fad 353f
00000090: fc19 30bd 4fea 56bf 93c4 03bf 1d0c cfbe
000000a0: 29c9 b0bb 9a6f 64bf aaee 59bf 2b9b 2ebf
000000b0: 1cfc a7bf f182 37bf d0f0 53bf a9d1 49bb
000000c0: 97e9 debe 54a8 1240 6e15 6abe 359f 53bf
000000d0: b471 b9be 75f2 34bf ba40 22bf cf31 bebd
000000e0: c2ae 26bd 99c3 4fbf f3ea 99bf 58ce 48bc
000000f0: e507 e53e 634d 4abf a289 8fbf c8d1 4fbd
00000100: b3e7 2ebf 7b9e a7be 1e7e e5be d8de 33bf
00000110: 4117 423f 9cb9 6bbf c241 e5bd 4546 6abd
00000120: 16e3 c1bd b7e1 60bf 311c 6cbf bb43 89bd
00000130: 72b4 b73e 0517 02be cf15 fdbd fda1 66bd
00000140: 839d ecbe fdaa 23be febb f7bd ee2f 2cbf
00000150: fe23 b9bd 88f7 64bd 7122 18bd bfa1 c1bc
00000160: 81bb 973f b47f 5abf eb2a 23bf 2827 b3bd
00000170: ba65 94bf 916a 05be a095 e9bf 011f 97bf
00000180: 5694 e0bd 6f97 aabe 09fb 3abf 3a7b 9fbd
-0.02493431 -1.1252654 -0.86827034 -0.73444915 -0.86870664 -0.91473585 -0.15075663 -0.8126364
-0.29260778 0.15869735 -0.08395525 -1.2937257 -0.024497041 -0.56466764 -0.0099638 -1.7869817
-0.8679377 2.4441621 -0.70606524 0.5466658 -0.35112393 0.016868861 -0.44412664 -0.6115739
0.088342585 -0.51008886 -0.01978721 -0.096708395 -0.34562588 0.25574625 -0.2902264 0.81945944
-0.9665147 -0.031255115 -0.9068883 0.7096757 -0.04299353 -0.83951277 -0.51471823 -0.4043893
-0.005395074 -0.8923279 -0.851298 -0.6820552 -1.3123813 -0.71684176 -0.82789326 -0.0030795133
-0.4353759 2.291524 -0.22859737 -0.82664806 -0.3621956 -0.7068246 -0.63380015 -0.09286844
-0.040694006 -0.81157833 -1.2024826 -0.012256227 0.44732586 -0.7902433 -1.1213877 -0.050737172
-0.68322295 -0.32738099 -0.44822782 -0.7026191 0.7581673 -0.9208009 -0.11194183 -0.05719592
-0.09467141 -0.87844414 -0.92230517 -0.06702372 0.35879856 -0.12704094 -0.12357675 -0.056306828
-0.46213922 -0.15983196 -0.120964035 -0.67260635 -0.09040068 -0.055900127 -0.03714222 -0.023636697
1.1854097 -0.8535111 -0.6373736 -0.08747703 -1.1593544 -0.13028933 -1.8248787 -1.1806337
-0.10965793 -0.3331866 -0.730393 -0.077871755

fc3.weight f4 [50, 100]
00000000: 0789 c0bc 88a1 953c 91c8 80bd f9e9 0cbe
00000010: d510 b0bd 07c3 c5bd 638c af3c fd75 0abd
00000020: 0d24 9bbd df98 edbc 5f10 c13d 51bc cb3d
00000030: 5207 dbbc 79ba a43c 184e 8ebd 2c71 b03c
00000040: 64c6 14be e9d5 debd c67d 19be 8f41 c7bd
00000050: cfba 903c 3ff8 993c 3eb6 44bd 1fc2 a1bd
00000060: d01b f7bd 7a8f c03d 6c0c 0cbe a8c4 e5bd
00000070: 64ec bdba 803e b6bd 6272 bebc 665b 5a3b
00000080: 5a43 29bd 1495 853a ddaf c1bd 15c2 a73c
00000090: b96a ffbd 8c32 5b3c 75c6 ab3c fa47 04be
000000a0: d629 af3c 84d4 ccbd 9804 dfbd b46f 6c3c
000000b0: 0898 48bd 5ee5 6cbd ae9c 29bd 354a 163c
000000c0: 58fe 53bd 95c6 f9bd b60e 14be 6274 4ebd
000000d0: 9fea 01bd 1e84 adbd b713 073d b9e1 ebbd
000000e0: dc65 583d 4e04 0cbd 641c 0bbe 059b 193d
000000f0: 5658 a9bd 3f56 11be dc7d c0bc 9ba3 abbd
00000100: 3ef3 10be 30e4 0bbe 9a97 00be 4355 eebc
00000110: 2c5d b93c 0c86 fdbc f2c9 dcbd da27 c2bd
00000120: e6b1 f8bd 8d31 9c3c 02df f4bd 6368 42bb
00000130: 7fd9 b2bd d390 debd 9446 81bd a861 be3c
00000140: 0a6d f2bd a6a6 d1bc 340e 813c 67e4 923c
00000150: 024e afbc 8b73 263c c0d2 aa3b 7e01 e53c
00000160: cbbf 903c 47d6 e23d 7397 87bd 89fe 45bd
00000170: 9411 a5bd c6f9 debc d22b 41bd 4c5a d3bd
00000180: a662 0ebe 59ce 913c 1ad3 23be 39b7 afbd
00000190: 0f54 053c 396d cabe c3c7 85be 9f2e 79be
000001a0: 52ad 56be 8212 87be 1e63 ed3d 9487 463d
000001b0: b6b4 02bd 8f82 e5be 6a46 a03d 1760 73be
000001c0: 4b82 b6bd 0082 2ebe 6070 c53d e6df ddbe
000001d0: c827 d9be 98a3 debf 380b 0abf c7f8 a63d
000001e0: 987b f43c d8a9 d93d a572 79bd 57b7 96be
000001f0: 5738 bebe 8ad1 aabe 19e6 5cbd f70a fc3d
00000200: b52c edbe e657 4cbe c115 1abf e272 10be
00000210: 33da b4be 882c c93c f2a2 afbd dd33 3cbe
00000220: a363 a53d a7ff 433e 2d3d 55be 39b7 0dbe
00000230: c5c9 8e3c a295 f5be 424a afbe f522 cbbd
00000240: 3f53 c1be 36e2 5cbe 2766 31be 2a55 303d
00000250: f5e8 16bf 0cfb ff3d f1ea c0bf 0534 dbbd
00000260: b470 2dbf 97a4 92be dd28 eabd 16f7 c73d
00000270: 374e 253e e184 f5be 44a9 b7be 4d55 97be
00000280: bd05 e6be 0f91 25be d9ad 9fbe be76 c0bc
00000290: de61 28be eea0 69bf 7124 c0be f544 e5bd
000002a0: d317 47be 4d13 9abe baaf 11be 8a8d 003d
000002b0: 415c 9c3d 975c 14bd 1e73 dfbe 4525 8abd
000002c0: a639 48be 67b1 85bd 0290 8bbd 3bf7 163e
000002d0: 6955 bcbe 8e52 2fbf b06a 9a3b 025e a3be
000002e0: 489e f73c c941 c1bd 3372 9b3c 0d37 133b
000002f0: b09a f1be 4b7f 84be f55f abbe 6854 e0bd
00000300: 2055 32bf 7842 55bd 005e a7be 3fde cdbd
00000310: 9318 643c 5f2f 87be f4ef fdbd 0265 a2bd
00000320: 24c3 d43d 83a0 c9be 824b 27be 1b8e 0bbe
00000330: 1265 e6bc 1db6 61bd 92ff 51be 2356 393f
00000340: e526 cbbd 8771 ccbe 26d5 20bd 662a 1bbd
00000350: e6e7 1fbd eda9 f0bc 646f a0bc 2a88 83bf
00000360: ec17 b8be 3ddc 8bbd 76d2 d8bf 9396 7ec0
00000370: 3605 aa3d 021b 0fbe 635a 1bbf 56b1 713f
00000380: ce75 773f e261 9ebf 4d60 8fb9 41d0 b93c
00000390: a277 00bf 3935 cbbf 0a38 98bf 77c1 97be
000003a0: 25f1 cebe 4154 e53c ab11 3cbc 117e acbf
000003b0: d9d1 a23d d394 15be 6ef0 38be 1117 b3b9
000003c0: 0899 fd3b 5996 05bf 71b6 9ebe 2d5f 0cbe
000003d0: 34fe a5bd d86c 48bd bdc6 5dbe 9cd2 c9bd
000003e0: 95ce 8e3e ca77 3bbe 7bc0 5040 826b 2dbd
000003f0: 35dd 46bf 99e6 febb 093f 3ebe 727e 0d3d
-0.02350284 0.0182655 -0.06288255 -0.13761128 -0.085969605 -0.09656339 0.021429246 -0.03380393
-0.075752355 -0.029003559 0.09426951 0.09948028 -0.026736889 0.020108448 -0.06948489 0.02153834
-0.14528805 -0.10880644 -0.14989385 -0.09729301 0.017667202 0.01879513 -0.048025362 -0.07898354
-0.12065852 0.09402366 -0.13676614 -0.1121915 -0.0014490006 -0.0889864 -0.023247901 0.0033318638
-0.041323997 0.0010191523 -0.094573714 0.020478288 -0.124715276 0.0133787505 0.020968655 -0.12918082
0.021382254 -0.10001472 -0.10889548 0.014430929 -0.048973113 -0.05783593 -0.041409187 0.009172966
-0.051756233 -0.1219608 -0.14458737 -0.05040396 -0.031717893 -0.08472465 0.032977786 -0.115176626
0.052831516 -0.034183793 -0.13585049 0.037501354 -0.08268802 -0.14193057 -0.023497514 -0.08380815
-0.1415529 -0.13661265 -0.12557831 -0.02909339 0.022627436 -0.030947708 -0.107807055 -0.09480257
-0.121433064 0.019066596 -0.11956598 -0.002966427 -0.0873289 -0.10867467 -0.0631229 0.023239926
-0.11837204 -0.02559216 0.015753843 0.017931176 -0.021399502 0.0101593835 0.0052131116 0.027954813
0.017669579 0.110760264 -0.066206835 -0.048338447 -0.080599934 -0.02721871 -0.04716093 -0.10319957
-0.13904819 0.01779859 -0.15998498 -0.08579869 0.008137717 -0.39536455 -0.2612897 -0.24334191
-0.20964554 -0.26381308 0.11591171 0.04846914 -0.03191062 -0.4482617 0.078259304 -0.23767124
-0.0891157 -0.17041779 0.096405745 -0.43334883 -0.42413163 -1.7393675 -0.5392337 0.08152919
0.02984409 0.10628098 -0.06090035 -0.29436752 -0.3715236 -0.3336299 -0.053930376 0.12306779
-0.4632317 -0.19955406 -0.60189444 -0.14106324 -0.35322723 0.024557367 -0.08576001 -0.1837916
0.08075645 0.19140492 -0.20824118 -0.13839425 0.017430196 -0.47965723 -0.34236342 -0.09918777
-0.37758824 -0.21570668 -0.17324124 0.04304997 -0.58949214 0.12499055 -1.5071698 -0.10703281
-0.67750096 -0.28641197 -0.11433575 0.09763925 0.16143118 -0.4795294 -0.35871327 -0.29557267
-0.44926253 -0.16168617 -0.31187323 -0.02349412 -0.16443583 -0.91261184 -0.37527803 -0.11194793
-0.19442682 -0.3009285 -0.1422719 0.031384982 0.076347835 -0.036221113 -0.43642515 -0.0674539
-0.19553241 -0.065279774 -0.06814577 0.14742748 -0.36783913 -0.68485343 0.004712425 -0.3190766
0.030226842 -0.09436376 0.018975353 0.0022463233 -0.4718833 -0.25878367 -0.33471647 -0.10953599
-0.6966114 -0.052065343 -0.32688904 -0.10052156 0.013921875 -0.2640333 -0.12399283 -0.07929422
0.103887826 -0.39380273 -0.16337398 -0.13628428 -0.028124366 -0.055105317 -0.20507649 0.7239706
-0.09919528 -0.39930364 -0.039265774 -0.03788223 -0.039039515 -0.029377902 -0.019584365 -1.0275929
-0.3595575 -0.068291165 -1.6939228 -3.9779403 0.08301775 -0.13975146 -0.60684794 0.9441122
0.9666413 -1.2373621 -0.00027346835 0.022682311 -0.50182545 -1.5875617 -1.1892102 -0.2963979
-0.40418354 0.027994277 -0.011478822 -1.3475972 0.079501815 -0.14607553 -0.18060467 -0.00034158726
0.00773919 -0.5218254 -0.30998567 -0.13708182 -0.08105126 -0.048931926 -0.21657844 -0.09854624
0.27891985 -0.18307415 3.261748 -0.042338856 -0.77681285 -0.007778954 -0.18578734 0.034544416

fc3.bias f4 [50]
00000000: e151 1bbe 5a30 4ac0 a8f9 103e 2ba3 fc3f
00000010: ffca e6be 1b2d d0be 1b01 58be 886b 983f
00000020: 830f 0cc0 11a9 2e3f 237c 86c0 86a2 edbe
00000030: d59a a3be a7d9 d83d b69f 13bd 9b67 cebc
00000040: 6459 02be 53ae 78be 3765 633f e855 a4be
00000050: f49b babe b9b2 983e e1c9 93be a507 373e
00000060: 1970 66bf a3cc afbe 0234 d2bd 282e f83e
00000070: 4b62 8b40 5219 c4be fbd3 a03e 1979 5d40
00000080: 45d6 ed40 163e 013e 05e5 23be c3f8 0c40
00000090: 1e6a 5d3e 3c0c b7be fd8f 83c0 2a5b 8abd
000000a0: 39ab 59be a69e 453e 71ee 61bf 8bf3 b2be
000000b0: a390 523e f253 1540 148e e73d 521f f03f
000000c0: db9c a7bf 318d b33f
-0.15167953 -3.1592011 0.14157736 1.9737295 -0.4507675 -0.40659413 -0.21094172 1.1907816
-2.1884468 0.68226725 -4.2026534 -0.46413058 -0.31954065 0.10588389 -0.036040984 -0.025195887
-0.12729412 -0.2428525 0.88826317 -0.3209679 -0.36447108 0.29823855 -0.2886496 0.1787401
-0.900148 -0.34335813 -0.10263826 0.48472714 4.3557487 -0.38300568 0.31411728 3.4605162
7.432406 0.1262134 -0.16005333 2.2026832 0.21622512 -0.35751522 -4.1113267 -0.067556694
-0.21256723 0.19298801 -0.8825446 -0.34951434 0.20562987 2.3332486 0.11306396 1.8759558
-1.3094743 1.4027463

fc4.weight f4 [25, 50]
00000000: 16b0 683d 1222 e03f 712b 4a3d 7a8c abbe
00000010: 09d4 f03d bcab 1abe fc40 ba3e b451 7abd
00000020: 7dc4 c33e 4c9a b4be 9cf8 463e 5930 99bd
00000030: a2da 73bd f37d 38bf 4dd7 eb3d c00f f83c
00000040: bcf0 123d aae5 cebe aba8 9bbe 4c2f cbbc
00000050: 66e0 34be e50c 4ebe d13e 8b3d e45d 59be
00000060: 0a18 313d 8870 0f3e ab70 24be ca01 513e
00000070: 8dd9 2b3d 5625 11bf 87c2 33bf c592 9cbe
00000080: 37c7 7dbf e0e6 93bf 2f57 503d 2a2e 27bf
00000090: 42c8 9fbb f8e2 b7bd de6e 12bf adda c9bd
000000a0: 4971 1f3d 73bf 2dbe dc34 2abe 0d01 7fbc
000000b0: 0b9a 3d3f fc31 ddbe 7b4c 37bd d94c 30c0
000000c0: f004 4fbd c7f2 e7be 9e59 8a3d d0a0 b3bf
000000d0: 2a77 003f cbfe 14bf 0a03 a13e 2890 173e
000000e0: f2ac 183e 1a67 29bf 4c91 e3bf 639d 3fbf
000000f0: a7cd fc3d f6ea 093e efc6 203e f1fe 1dbf
00000100: d724 3dbc 4f27 debc 8478 d13d 1089 6e3c
00000110: f09e 51bf a612 1abd 9170 8ebf 98d6 8d3e
00000120: 6452 1c3d 3c2b 5bbf b214 13be fc57 2f3e
00000130: c317 c53d 49d9 d23e 922e 9fbf 12b7 553e
00000140: a34c dcbe 40d3 2cbf 1a0e 94bd b9c4 a33e
00000150: 7909 8a3d 6c15 a53d 5512 3a3e 7a8c 2c3d
00000160: 76a4 f1bb 4b45 a3be 91ca 72be 1c6e 73bf
00000170: 91c5 91be a451 a93b f7ed 843d 5cf8 fe3e
00000180: 7609 efbd ff0a 49bf 4584 34be c78e f9bf
00000190: f074 863c 0aee e1be 2a4b ca3e 714a 363f
000001a0: 9465 a6bc 72aa ffbd 5200 54be f1c3 9a3e
000001b0: a247 f2be 67a4 da3d e8b0 24bf 03ec f63d
000001c0: f553 2ebd 14c8 66bd 8001 a4bd e28f 833c
000001d0: 9280 923d c2c9 02be 7888 8f3e 7035 d43d
000001e0: 345c 12bd 1d2f 00bf 635c 243e 07b5 43bf
000001f0: ff16 85bc 9ff5 8fbe 6cea a43d 2651 b53e
00000200: c45b a33c f06d 87be 9696 98bf b343 6abf
00000210: de76 bfbf 4c8a 71be fd27 d7bd 4318 a3bf
00000220: ce95 31bf 749c e8bd 3eb1 683e 1827 a03e
00000230: 7bb6 0fbd 10d8 3a3e 36ee b8bd d2a3 153d
00000240: f1ae b23d 1f88 abbf fb7b 753d a8d2 acc0
00000250: 08cd 3bbe 132f f0be 6b43 39bd d237 87bf
00000260: 8305 96bf fea3 3ebf 7935 dbbd b05c da3c
00000270: 57c1 9e3d bed2 a1be 4cb3 15c0 bdb4 e0bf
00000280: f937 9f3c f80a e23e f696 6b3d 03da 8c3e
00000290: 531c 323d 8251 9c3d 5cfe bfbd 6e58 a0bf
000002a0: 63bc 92bf e9b1 253b e588 a3bf 52c7 bdbe
000002b0: f431 0abe e4c0 38bf 0c6f d3bf 01b2 a6bc
000002c0: e9f6 943d 4612 50bf 359e e9bd 3c1c 87be
000002d0: 4438 1fc0 bf6e 003e 230d 833c eb42 d13d
000002e0: 411e bfbb c0c3 53be 6992 28bd 83aa 1a3e
000002f0: 66f7 cbbe bc38 4ebf 3085 babb d1fb 373e
00000300: 14bf f23e facf 3a3f e05d e83f 5ec2 56be
00000310: 53a0 2ec0 2e69 f9bd 6d5e a7be 774b 16bf
00000320: be47 0b3d 821d ffbf fe0b 9fbf af78 2dbf
00000330: 2acb b23c 68ee 173d 9e30 1abe f3cb 61bf
00000340: acb2 d43f 32be 3540 3c23 48bf 4814 de3e
00000350: 483d 17be fd06 e8c0 3793 8c3d 5588 1abe
00000360: acfd a03d 6c20 16bf 9ea7 b8c0 84cb 4dbe
00000370: a4da 94c0 7ede d8be 5dee fdbd 3e7d 78bf
00000380: ac3c 8fbe 68b1 92bd 59bd 0ebe de68 27c0
00000390: c3d1 cdbd 1cca 36be c9b0 75c1 dd5b cebd
000003a0: 587c d5be f86f 10bf c891 f83d c519 81bd
000003b0: 162e e53c 067e 7a3c 1ab2 f03a 8e90 14c0
000003c0: 90fb 343d 3f5a ffbe e168 bec0 40e1 82be
000003d0: cafb 603d 141e 843f 0d38 90bf 45af 6abf
000003e0: f2a9 b33d 0a72 c83e edf2 4bbe 6b60 f53e
000003f0: 1cd2 93be 18cc c73e 39bc b93e 3d46 22bd
0.056808554 1.7510397 0.049357835 -0.33505613 0.117591925 -0.15104574 0.36377704 -0.061113074
0.38235846 -0.3527397 0.19430774 -0.07479925 -0.059534676 -0.72067183 0.11515675 0.030280948
0.035874113 -0.40409595 -0.3040212 -0.024802826 -0.17663726 -0.20122106 0.06799091 -0.21227223
0.043235816 0.14007771 -0.16058604 0.20410839 0.04195552 -0.56697595 -0.702187 -0.30580726
-0.991321 -1.1554832 0.050864395 -0.65304816 -0.0048761675 -0.08978838 -0.5720042 -0.09856162
0.038926397 -0.16967563 -0.16621727 -0.015564215 0.74063176 -0.43202198 -0.04475067 -2.7546904
-0.05054182 -0.45302412 0.06755374 -1.4033451 0.5018183 -0.58201283 0.3144763 0.14801085
0.14909723 -0.66172945 -1.7778716 -0.7484953 0.123439126 0.13468537 0.15700887 -0.61717135
-0.011544428 -0.027118353 0.10228065 0.014559045 -0.81883144 -0.03761544 -1.1128103 0.27702785
0.03816451 -0.85612845 -0.14363363 0.17123407 0.09623673 0.411814 -1.2436087 0.20870617
-0.4302722 -0.6750984 -0.07229252 0.31986025 0.06740088 0.080607265 0.18171056 0.042126156
-0.0073743416 -0.31888804 -0.23710085 -0.9508989 -0.28471044 0.005167203 0.06490701 0.49798858
-0.116717264 -0.78532404 -0.17628582 -1.9496697 0.016413182 -0.44126922 0.3951047 0.7120734
-0.020312108 -0.12483682 -0.20703247 0.30227616 -0.47320276 0.106758885 -0.6433244 0.120567344
-0.042560536 -0.056343153 -0.080080986 0.01605982 0.07153429 -0.12772277 0.28033805 0.10361755
-0.035732463 -0.5007189 0.16050868 -0.764481 -0.016246317 -0.28117082 0.08052525 0.35413474
0.019941218 -0.26451063 -1.1920955 -0.9150955 -1.495815 -0.23587912 -0.10505674 -1.2741779
-0.6936921 -0.11357966 0.22723863 0.31279826 -0.035086136 0.18246484 -0.0902981 0.036533184
0.08724774 -1.3400916 0.05993269 -5.400715 -0.18339932 -0.46910915 -0.04523031 -1.056391
-1.1720432 -0.7446898 -0.107035585 0.026655525 0.077517204 -0.31606096 -2.3390684 -1.7555157
0.01943587 0.44148993 0.057517014 0.2751008 0.043484043 0.07632734 -0.09374687 -1.2526987
-1.1463741 0.0025283045 -1.2776152 -0.37066132 -0.13495618 -0.7216933 -1.6518264 -0.02034855
0.07273657 -0.81277883 -0.11407129 -0.2638873 -2.4878092 0.12542246 0.015997475 0.10217842
-0.005832464 -0.20680141 -0.041155253 0.15104108 -0.39837188 -0.8055532 -0.0056921467 0.17967154
0.47411406 0.729736 1.8153648 -0.20972583 -2.7285354 -0.121782646 -0.3268923 -0.587089
0.034003966 -1.993088 -1.2425535 -0.67762274 0.021825392 0.037092596 -0.15057608 -0.88201827
1.6617026 2.8397336 -0.78178763 0.43374848 -0.1476947 -7.250853 0.068640165 -0.15091069
0.07860884 -0.5864322 -5.770461 -0.20097166 -4.6516895 -0.42357248 -0.1239898 -0.97066104
-0.27975976 -0.07162744 -0.13939418 -2.6157756 -0.100497745 -0.17850536 -15.35566 -0.10076115
-0.4169643 -0.5642085 0.121371806 -0.06303743 0.027976077 0.015288835 0.0018363625 -2.321323
0.04418522 -0.4987354 -5.9503026 -0.25562477 0.054927625 1.0321679 -1.1267105 -0.9167369
0.08772649 0.39149505 -0.19916888 0.47925124 -0.28871238 0.390229 0.36276415 -0.039617766

fc4.bias f4 [25]
00000000: a7d9 cfbe e6d8 153f 5508 443f 1c75 71bf
00000010: db15 78c0 5c4b ab3f 0259 8340 9f2b 8bbe
00000020: 150c efbd 6b38 863e 30d9 64be 55a0 5740
00000030: 763a cb3e 2f3d 9ebf 6f77 1140 ab82 bfbe
00000040: 489e 99bf 8a5a 493e 58fe e9bf 0592 dcbe
00000050: 27bc aa3e f61a 6fbd c11a 95bf d13d 41bf
00000060: 77c9 2f40
-0.40595743 0.58534086 0.76575214 -0.9431932 -3.876334 1.3382373 4.104615 -0.27181718
-0.11672226 0.26214918 -0.22348475 3.369161 0.3969304 -1.2362422 2.2729146 -0.3740438
-1.2001429 0.19663444 -1.8280745 -0.43080154 0.33346674 -0.05837532 -1.164879 -0.7548495
2.7466714

fc5.weight f4 [5, 25]
00000000: 9718 ea3d 6677 dabd 9541 7dbc c687 37be
00000010: 1ba7 943d d580 17be dee9 323e 5a93 4dbe
00000020: 11d4 a7bd f950 81bd 0083 2dbe ad02 64be
00000030: 5fb8 81bd 08ff 6abc 17eb c9be 7ae1 1abe
00000040: 5ef9 50be bb41 9c3d dac6 3e3e f6a1 b2be
00000050: eb5a 1c3e cf26 973e 91fa 43be aba3 b33d
00000060: 8274 f73e bd37 e2be 9d77 cebd fc9d 9abd
00000070: c43b 0cbd a010 1a3e ad34 71be 32ef 583e
00000080: 7690 533d eeff 39be af19 18be c786 60be
00000090: f72f ae3c 7ad1 bbbb b955 c33d c440 b3bb
000000a0: 4097 f43d f94f 6fbe 51c8 f33d b8f4 723d
000000b0: 0498 ddbe ea10 893e 001f aa3e 2f86 09be
000000c0: 8953 903d 6635 283e fdd2 a53e 9216 5f3c
000000d0: 5fb4 bd3e f9e5 963c 9901 1fbe 7af9 b8be
000000e0: 4d80 583e 8620 05be 776d 0abe d519 9bbe
000000f0: 0a07 4fbe 9a2c 39bd dd48 94bd 7a35 95bd
00000100: 05f4 9f3e beb1 d53d ffc5 79be 89b5 4c3e
00000110: ebad eabe 70be 40be da7c 073e 51fc 703e
00000120: c95a 3fbe 668c 4dbd f343 3b3d 11b3 073e
00000130: 5823 8ebe a567 593e 435e 963a 6cdd 04be
00000140: 7c9b c1be 5129 cf3d 9127 6b3d a831 2bbd
00000150: 29bd b4be e7b4 0f3d 9564 cfbc 7c62 473e
00000160: aed1 ed3d e5fc b4be 0dcc 85bd 08f6 92be
00000170: 5bc9 8a3e 94a3 a9be 7214 a2be 1439 b43e
00000180: f305 663c 858c 76be 8f59 ca3d 64dc 983d
00000190: 68c9 c43d e01e bbbe 5daf c83e 5295 323e
000001a0: b4c1 7f3e 4ee7 d8be 2808 13be 353e 523e
000001b0: bbf7 033d 947b 04bf ddbf 063f 54af c63c
000001c0: 79d9 f93e 2f03 6cbe 1cb9 9dbe fa52 c8bd
000001d0: 01ee a5be f11d be3e 2083 35be 46b2 6bbe
000001e0: cdac d13e e279 0ebf 4e1c 383e 5bb7 f5bd
000001f0: 17cb c93e
0.114304714 -0.10667305 -0.0154575305 -0.17922887 0.07258435 -0.1479524 0.17472026 -0.20075741
-0.08194745 -0.063142724 -0.16944504 -0.22266646 -0.06333994 -0.014343031 -0.39437172 -0.15125075
-0.20407626 0.076297246 0.18630543 -0.3488919 0.15269057 0.29521796 -0.19138552 0.087714516
0.48331076 -0.4418315 -0.10081408 -0.075496644 -0.034236684 0.15045404 -0.2355525 0.21184996
0.05165144 -0.18164036 -0.14853548 -0.21926413 0.021263106 -0.0057317587 0.09537835 -0.005470367
0.11942911 -0.23370351 0.11903442 0.059315413 -0.4328004 0.26770717 0.33226776 -0.13430093
0.07047183 0.1642662 0.32387534 0.013616221 0.37051675 0.018420206 -0.15527953 -0.36127836
0.21142693 -0.13000688 -0.1351832 -0.30293146 -0.20217529 -0.04520855 -0.0724046 -0.072855905
0.3124086 0.10434292 -0.24391936 0.19991125 -0.45835814 -0.18822646 0.13231221 0.23533751
-0.18686976 -0.050182723 0.0457191 0.13251902 -0.2776134 0.21230944 0.0011472184 -0.1297509
-0.37813938 0.10115302 0.05741078 -0.041795403 -0.35300568 0.03508463 -0.025316516 0.19471163
0.11612259 -0.35349193 -0.0653306 -0.28703332 0.27106747 -0.33132613 -0.31656224 0.35199797
0.014039504 -0.24077041 0.09880363 0.07463911 0.09608728 -0.36546993 0.39196292 0.17439774
0.24976236 -0.4236397 -0.1435858 0.20531543 0.032218676 -0.51751065 0.5263651 0.024253525
0.4879873 -0.2304809 -0.3080529 -0.097814515 -0.32408145 0.37132218 -0.17725801 -0.23017225
0.4095215 -0.5565473 0.17979547 -0.11997863 0.39412758

fc5.bias f4 [5]
00000000: 6660 2fbe d305 3abd 6797 0bbe 612f 6abe
00000010: a78d 1dbe
-0.17126617 -0.04541571 -0.13631974 -0.22869636 -0.15386067
