GraphPredictor/models/model2.pt (torch, 26046 bytes, 6 tensors)

fc1.weight f4 [100, 5]
-0.9318009 -0.078370586 -0.087117076 -0.14997177 -0.84983695 -0.09381255 0.8471865 -0.78091335
0.99414915 -0.70941114 -0.36664948 0.9490343 0.051874075 0.0520111 -0.46423954 -0.2172287
-0.8043686 -0.14316459 0.051659875 0.56221706 0.41485623 -0.10613769 -0.51056564 0.6845705
-0.8342638 0.064142704 0.15855756 -0.45162174 0.18427742 0.1453146 -0.9551484 -0.79009604
-0.17372501 -0.90298176 -0.3023337 0.12593132 0.71443254 0.69261926 -1.09954 -0.27229235
0.21567811 0.16113685 -0.11351607 -0.18126158 0.29088888 -0.081576645 0.265422 -0.35342398
0.3345557 0.19300279 -1.3304725 -0.26676935 0.60569036 -0.17383859 0.32372785 -0.7489138
0.11027841 1.222368 -0.02282922 -0.7176087 -0.2816403 0.41761893 0.6024603 -0.63939637
0.2704908 -0.38176116 0.17686367 0.6079257 0.020809954 -0.3553495 0.0377972 -0.010769504
0.5357368 0.2622639 -0.14303881 -0.26548848 0.9705815 -0.19821693 -1.0191189 0.35455292
-0.38552204 -0.25413924 -1.196548 -0.7906712 1.2229675 -0.24346805 0.47270766 0.12439298
-0.44028258 -0.08424832 -0.4312068 -0.20905638 0.3932679 -0.17394194 -0.3843901 -0.1828934
-0.5116426 1.0536283 -0.6222082 0.25228626 0.21220683 -0.26703387 1.6471664 -1.4938258
-0.01949904 0.13860008 -0.91355604 1.2344328 0.2958513 -0.33743784 0.2413896 0.14145337
-0.0026418976 0.6514255 -0.7183496 -0.59500957 1.0840371 -0.4699053 0.04982883 0.12977403
0.32635617 0.51998764 -0.32339507 -0.30275342 0.4758316 0.23854853 -0.72194135 -0.7675738
0.38761747 0.31791762 -0.9220294 -1.3472506 0.24932563 0.17094772 0.5271176 -0.59350824
-0.07570133 0.98941946 0.2451598 -0.6198874 0.86239374 -0.7612014 0.52748805 -0.079717025
-0.6019001 0.20310827 1.1839386 -0.4448022 -0.78249884 0.24946444 -0.5533231 0.7222427
0.20359768 -0.86267143 0.42635366 -0.010426303 -0.058140654 0.5836055 0.3025638 -0.17893258
-0.19164729 -0.30586186 0.24889216 -0.32194012 -0.61029327 -0.076491185 -0.08206956 0.02586501
-0.10263976 0.35676342 -0.05608896 0.67605525 -0.0004942352 -0.4134335 -0.04957926 -0.53229344
-0.036898572 -0.5456856 -0.12695925 0.7500433 -0.399996 0.5077696 -0.07892057 -0.08293246
-0.24965775 -0.32271802 0.268582 -0.6734335 0.84068555 0.057481095 0.4893761 -0.5563422
-0.10317497 0.28343374 0.11141874 1.1631118 -0.74569494 -0.12249581 0.13358338 -0.33522454
-0.0057564173 0.054932736 -0.043538347 -0.04177854 -0.039893694 -0.42104965 0.7570742 0.091370694
-0.78888047 0.15062523 0.2950763 -0.16090187 -0.634209 -0.15106499 0.71890235 2.3391693
-1.570379 -0.16905372 0.18012346 -0.37013 -0.02589526 -0.23252764 0.5048125 -0.26892838
0.44834027 0.5915818 -0.35751474 0.6626037 0.036747314 -0.7964527 -1.1031916 -0.12569755
-0.6096521 0.15569273 0.521489 -0.08055852 -0.4853441 0.14901282 0.53089213 -0.040683948
0.6834266 -0.52083397 -0.7292009 0.48464733 0.34661326 -1.6144387 0.4696376 0.5094063
-1.3774233 0.7522875 0.7633036 0.4606015 -0.19085212 -0.4973754 0.5006527 -0.2541547
00000000: 818a 6ebf c280 a0bd 706a b2bd 3392 19be
00000010: ea8e 59bf cb20 c0bd 37e1 583f f0e9 47bf
00000020: 8f80 7e3f f89b 35bf 7bb9 bbbe e9f3 723f
00000030: e979 543d 9709 553d ceb0 edbe 3371 5ebe
00000040: 1aeb 4dbf bd99 12be 4e99 533d 75ed 0f3f
00000050: 0968 d43e b85e d9bd 6eb4 02bf 0340 2f3f
00000060: 5092 55bf 405d 833d ea5c 223e f73a e7be
00000070: 38b3 3c3e 5acd 143e 9b84 74bf bc43 4abf
00000080: f8e4 31be d029 67bf 7ccb 9abe 24f4 003e
00000090: 0de5 363f 7f4f 313f babd 8cbf e769 8bbe
000000a0: b9da 5c3e 0f01 253e 1d7b e8bd a39c 39be
000000b0: 63ef 943e a811 a7bd 64e5 873e fdf3 b4be
000000c0: e24a ab3e 86a2 453e ec4c aabf fe95 88be
000000d0: 860e 1b3f be02 32be a8bf a53e d1b8 3fbf
000000e0: a6d9 e13d 8e76 9c3f 5804 bbbc 34b5 37bf
000000f0: 2833 90be 26d2 d53e d73a 1a3f 7baf 23bf
00000100: c57d 8a3e 3376 c3be c01b 353e 05a1 1b3f
00000110: a379 aa3c 5ff0 b5be 3dd1 1a3d 9372 30bc
00000120: 0c26 093f 7447 863e c478 12be 1bee 87be
00000130: 0778 783f 61f9 4abe 7d72 82bf f687 b53e
00000140: 2563 c5be 8a1e 82be 7c28 99bf 6e69 4abf
00000150: 338a 9c3f b04f 79be bd06 f23e bfc1 fe3d
00000160: b86c e1be 628a acbd 23c7 dcbe e012 56be
00000170: 695a c93e d61d 32be c7ce c4be 6848 3bbe
00000180: 02fb 02bf 4bdd 863f 0949 1fbf aa2b 813e
00000190: bf4c 593e aab8 88be 59d6 d23f af35 bfbf
000001a0: 73bc 9fbc 2eed 0d3e cfde 69bf e501 9e3f
000001b0: d279 973e a7c4 acbe d62e 773e 27d9 103e
000001c0: b023 2dbb d2c3 263f c2e5 37bf 8c52 18bf
000001d0: bac1 8a3f 6d97 f0be 5119 4c3d 7ce3 043e
000001e0: 2818 a73e e91d 053f 0a94 a5be 7f02 9bbe
000001f0: 33a0 f33e 1146 743e 26d1 38bf b77f 44bf
00000200: cc75 c63e 19c6 a23e 1e0a 6cbf b572 acbf
00000210: 384f 7f3e eb0c 2f3e 2ef1 063f 28f0 17bf
00000220: 4d09 9bbd 984a 7d3f 2c0b 7b3e f1b0 1ebf
00000230: d6c5 5c3f 18de 42bf 7509 073f ae42 a3bd
00000240: 2016 1abf 9dfb 4f3e 4d8b 973f 1dbd e3be
00000250: d851 48bf 9b73 7f3e 95a6 0dbf e6e4 383f
00000260: e97b 503e 09d8 5cbf 074b da3e 16d3 2abc
00000270: e524 6ebd 2c67 153f a4e9 9a3e 1a3a 37be
00000280: 303f 44be ed99 9cbe 96dd 7e3e 56d5 a4be
00000290: 2e3c 1cbf 69a7 9cbd 1614 a8bd dce2 d33c
000002a0: cb34 d2bd b2a9 b63e 8abd 65bd f511 2d3f
000002b0: 908f 01ba 8ead d3be 9f13 4bbd 6244 08bf
000002c0: f522 17bd 0db2 0bbf 9b01 02be d602 403f
000002d0: 47cc ccbe 30fd 013f 1ca1 a1bd 7ed8 a9bd
000002e0: 48a6 7fbe 4c3b a5be 9483 893e 2366 2cbf
000002f0: 2b37 573f 4c71 6b3d 818f fa3e 716c 0ebf
00000300: 664d d3bd 3a1e 913e 822f e43d d9e0 943f
00000310: dde5 3ebf 15df fabd 15ca 083e 8da2 abbe
00000320: 54a0 bcbb 2601 613d 4455 32bd f91f 2bbd
00000330: 9267 23bd d293 d7be 9dcf 413f 8f20 bb3d
00000340: 12f4 49bf 803d 1a3e 3e14 973e 76c3 24be
00000350: 855b 22bf c8b0 1abe fc09 383f f3b4 1540
00000360: 2e02 c9bf 6b1c 2dbe 4972 383e ae81 bdbe
00000370: 4c22 d4bc ba1b 6ebe 643b 013f fbb0 89be
00000380: db8c e53e e871 173f 2c0c b7be 65a0 293f
00000390: 5a84 163d 53e4 4bbf 6235 8dbf dcb6 00be
000003a0: 2912 1cbf ea6d 1f3e 4e80 053f defb a4bd
000003b0: 067f f8be d196 183e 8ce8 073f 36a4 26bd
000003c0: 0cf5 2e3f 6055 05bf e9ac 3abf b223 f83e
000003d0: 4b77 b13e eda5 cebf 5774 f03e 7468 023f
000003e0: 684f b0bf ea95 403f dd67 433f f6d3 eb3e
000003f0: bd6e 43be fda7 febe c62a 003f 9120 82be

fc1.bias f4 [100]
0.92919093 -0.86720806 2.386651 -4.919594 4.244708 -0.19667633 -4.526753 2.1396234
0.25820854 -0.42262575 1.3157485 -0.63355404 -0.24321814 3.2037678 -0.8206531 -1.6219689
-2.2395782 -2.322228 -0.3951473 -0.37356225 -0.11548221 -2.2697077 -0.027081655 0.1442814
0.5693517 0.9116712 -0.3327879 0.855175 0.5106765 -0.534967 0.5054937 -0.70850223
1.5880377 0.09353119 -1.2481352 0.33923125 -5.349319 -0.7861801 0.053065762 -3.3463628
-0.049863372 -3.0245373 -1.6024324 -4.835925 -0.9765928 2.7128465 0.8358683 -1.7346822
-0.5275772 2.6534002 1.5646975 -0.11202292 -0.8667853 -1.6072351 -0.9699907 -0.17562775
-0.3080767 -0.05989968 0.18695562 -1.5001553 -2.1956093 2.7617714 1.2071905 0.33808473
-3.5021574 0.07035459 -0.27663922 -0.85379636 -0.39023563 -0.9017424 -0.07647627 -1.4366626
-1.9038327 -1.2694135 -0.5138232 0.33315852 -2.8608263 2.6796072 -2.8872325 -0.79616183
0.26583493 -1.959278 -4.6275783 -1.3779299 -0.4593391 0.29260656 -0.12724586 -2.045019
-1.1787611 -4.0353937 -1.491892 -1.5405215 -1.6631677 -1.5327702 -1.4037883 -0.4031096
-3.7584045 -1.8196682 0.1651858 -1.7102196
00000000: 75df 6d3f 5901 5ebf e4be 1840 506d 9dc0
00000010: a6d4 8740 8565 49be 29db 90c0 97ef 0840
00000020: e933 843e 6762 d8be 726a a83f 9930 22bf
00000030: 2d0e 79be 880a 4d40 5216 52bf ad9c cfbf
00000040: 4055 0fc0 629f 14c0 bf50 cabe 8d43 bfbe
00000050: f081 ecbd e442 11c0 59da ddbc 81be 133e
00000060: 08c1 113f 4963 693f 2d63 aabe c0ec 5a3f
00000070: b2bb 023f 99f3 08bf 0968 013f 6760 35bf
00000080: d244 cb3f 488d bf3d e5c2 9fbf b8af ad3e
00000090: 9f2d abc0 1943 49bf 7c5b 593d cf2a 56c0
000000a0: 893d 4cbd 0592 41c0 811c cdbf e6bf 9ac0
000000b0: fc01 7abf 479f 2d40 77fb 553f 110a debf
000000c0: 4d0f 07bf 4fd1 2940 0248 c83f 466c e5bd
000000d0: a4e5 5dbf e1b9 cdbf 4f51 78bf c3d7 33be
000000e0: 3bbc 9dbe 5e59 75bd 4b71 3f3e 1705 c0bf
000000f0: dd84 0cc0 ddc0 3040 3885 9a3f 7119 ad3e
00000100: 5923 60c0 1116 903d a8a3 8dbe 6692 5abf
00000110: f7cc c7be 97d8 66bf 979f 9cbd 8fe4 b7bf
00000120: cab0 f3bf 247c a2bf eb89 03bf c193 aa3e
00000130: c717 37c0 af7e 2b40 6bc8 38c0 43d1 4bbf
00000140: 841b 883e 9fc9 fabf 1f15 94c0 0260 b0bf
00000150: 7f2e ebbe 87d0 953e bd4c 02be 97e1 02c0
00000160: a5e1 96bf f221 81c0 51f6 bebf cf2f c5bf
00000170: aee2 d4bf d031 c4bf 56af b3bf 6264 cebe
00000180: b389 70c0 e3ea e8bf 7726 293e 7ae8 dabf

fc2.weight f4 [50, 100]
-0.2694263 -0.35300413 -0.08414648 -0.01482346 -0.30969718 -0.13406336 -0.14962575 -0.10234617
-0.028442426 0.1253447 0.37381122 -0.3688703 -0.014409747 0.39101785 -0.07535348 -0.37465218
-0.039450374 0.042928457 -0.05386488 0.21034311 -0.33189297 0.41446972 -0.19263698 0.011878618
0.041891813 0.20276462 0.12919025 -0.25152418 -0.18016005 0.46546397 0.21764399 -0.13400507
0.026385995 -0.1801561 -0.8145042 -0.058075488 0.3290648 0.116919704 -0.07906561 0.9064534
0.0412657 0.3156876 -0.50488573 0.7791558 0.021523481 0.3060077 0.14847179 0.019820513
-0.16281755 0.05778334 0.311287 0.94750535 -0.057044838 0.08587393 -1.1018703 -0.16310905
0.054276396 0.8096742 -1.1396743 0.7735085 -0.46923178 0.056464314 0.24279687 0.043697774
0.04647672 -0.042975057 -0.43427467 -0.01944424 0.19810456 -0.315517 0.14830312 -0.53967565
-0.012952161 0.09214852 0.6681047 0.27966368 0.034396213 -0.18661673 0.3636972 0.031743035
-0.6862353 0.6675374 -1.1306269 0.10558551 0.06043329 -0.24827778 -0.002833549 -0.033821452
-0.5280915 0.05289109 -0.16625437 -0.041068222 0.10705345 0.06783349 -0.18559356 0.09769146
0.34208268 -0.26515764 -0.3890104 0.07570125 -0.15101555 0.83801657 -0.21872728 -0.1879949
-0.26235196 -0.1309535 0.0788936 -0.52714276 0.0035917682 -0.34142807 0.74513197 -0.6223938
0.19017845 -0.19451596 -0.29600438 -0.6042871 -0.43000463 -0.3208693 -0.44444695 -0.47624588
0.32095316 0.1305871 0.21929201 -0.13191134 0.22735955 0.90638816 0.37571034 -0.2677789
0.073508084 1.8367621 0.034418132 -0.19604558 0.025380587 -0.0373516 0.00675253 -0.118491836
0.4114342 0.12281253 0.3396582 0.45252585 -0.3564594 0.13027981 -0.610263 -0.28895745
-0.07726905 0.2496694 0.051483072 0.010405293 -0.27108777 0.16946031 0.37784323 0.5072768
-0.16488138 0.43574458 -0.20180212 -0.7035019 0.5579046 0.75141346 -1.2067254 0.6052001
-1.3103737 0.12555441 0.32639083 -0.26409465 0.049472064 0.0445705 -0.49492046 0.008341573
-0.35910723 -0.064011514 -0.11090639 -0.30836755 0.1512165 0.48895055 0.5801925 0.04865945
-0.22276457 0.07833195 0.5651584 0.24385875 -0.9613332 -0.61141545 -0.80077815 0.1628064
0.18855293 0.27556753 0.19476704 0.68691725 -0.8803494 -0.117125146 -0.23957933 0.24692295
-0.4989485 0.47985834 -0.2574852 -0.26909 0.0361998 -0.46470094 0.19828129 -0.16049407
-0.12856016 0.023279477 0.0043768487 0.020204991 -0.13914376 -0.0771368 -0.107024185 -0.050540067
-0.0032079346 -0.011218189 -0.11724573 -0.14449982 -0.013984943 -0.010252573 -0.07475036 -0.1543786
-0.053840254 0.015044896 -0.11602074 -0.101073444 -0.14041017 -0.009601694 -0.09804903 0.05978104
-0.16168936 -0.09936188 -0.061862182 -0.11825726 0.012571535 0.0050125904 -0.030796068 -0.06705235
-0.03642406 -0.07103366 -0.077699855 -0.047410052 -0.032219287 0.022390446 0.121555194 -0.007832387
-0.035283033 0.013652236 0.09505658 -0.14463812 -0.08712844 -0.021210227 -0.12493592 0.035640195
0.11415168 -0.03656935 0.03304917 -0.031561513 0.01996006 0.0037433794 -0.091333956 -0.059789237
00000000: 3ef2 89be f5bc b4be fd54 acbd 19de 72bc
00000010: a190 9ebe e847 09be 7e37 19be de9a d1bd
00000020: 1700 e9bc 5c5a 003e 2f64 bf3e 91dc bcbe
00000030: dc16 6cbc 7e33 c83e ed52 9abd 69d2 bfbe
00000040: b796 21bd c0d5 2f3d 6ca1 5cbd 2f64 573e
00000050: e0ed a9be 6035 d43e a142 45be 899e 423c
00000060: c096 2b3d 87a1 4f3e 734a 043e c7c7 80be
00000070: e07b 38be 4b51 ee3e 11de 5e3e a038 09be
00000080: 7127 d83c d77a 38be 5983 50bf 90e0 6dbd
00000090: 2e7b a83e 9973 ef3d 27ed a1bd 540d 683f
000000a0: 3906 293d cea1 a13e 3140 01bf c176 473f
000000b0: 0352 b03c 0bad 9c3e fd08 183e a15e a23c
000000c0: a5b9 26be 39ae 6c3d 0261 9f3e b68f 723f
000000d0: d9a7 69bd acde af3d 160a 8dbf 0f06 27be
000000e0: ed50 5e3d cf46 4f3f d9e0 91bf a704 463f
000000f0: 263f f0be 2047 673d be9f 783e 70fc 323d
00000100: 605e 3e3d 9d06 30bd 4059 debe 8749 9fbc
00000110: ecdb 4a3e 728b a1be c6dc 173e 2f28 0abf
00000120: 4d35 54bc 5db8 bc3d e908 2b3f 1430 8f3e
00000130: 0be3 0c3d 7518 3fbe 8536 ba3e fc04 023d
00000140: 1ead 2fbf bbe3 2a3f 62b8 90bf 373d d83d
00000150: e688 773d 883c 7ebe 10b3 39bb 5d88 0abd
00000160: 0131 07bf 54a4 583d 963e 2abe 2737 28bd
00000170: d73e db3d 49ec 8a3d 3d0c 3ebe 7612 c83d
00000180: 7625 af3e bec2 87be 5f2c c7be 4209 9b3d
00000190: d2a3 1abe 4188 563f 0bfa 5fbe bc81 40be
000001a0: ff52 86be ad18 06be f892 a13d d4f2 06bf
000001b0: df63 6b3b a9cf aebe f8c0 3e3f 3355 1fbf
000001c0: 24be 423e 312f 47be e38d 97be 8fb2 1abf
000001d0: 9129 dcbe fb48 a4be 8d8e e3be 80d6 f3be
000001e0: f953 a43e a0b8 053e 168e 603e c413 07be
000001f0: f1d0 683e 0e09 683f 1b5d c03e 511a 89be
00000200: 688b 963d 051b eb3f 07fa 0c3d 2cc0 48be
00000210: f3ea cf3c fefd 18bd 5444 dd3b d9ab f2bd
00000220: 81a7 d23e 2385 fb3d aee7 ad3e 78b1 e73e
00000230: d981 b6be 1268 053e 323a 1cbf 3bf2 93be
00000240: 3c3f 9ebd 56a9 7f3e eadf 523d f67a 2a3c
00000250: 04cc 8abe 0187 2d3e ab74 c13e e4dc 013f
00000260: aad6 28be ea19 df3e 37a5 4ebe b318 34bf
00000270: d6d2 0e3f a25c 403f fa75 9abf 65ee 1a3f
00000280: 53ba a7bf 5691 003e b31c a73e 6a37 87be
00000290: 38a3 4a3d 8e8f 363d 3766 fdbe 18ab 083c
000002a0: e7dc b7be 7818 83bd e422 e3bd 5ae2 9dbe
000002b0: 80d8 1a3e ba57 fa3e 7f87 143f 224f 473d
000002c0: 651c 64be 806c a03d 39ae 103f 1cb6 793e
000002d0: ef19 76bf b985 1cbf ccff 4cbf b9b6 263e
000002e0: 0514 413e 3017 8d3e 0371 473e cfd9 2f3f
000002f0: 945e 61bf 4fdf efbd 4954 75be 5fd9 7c3e
00000300: 2e76 ffbe feaf f53e 1ad5 83be 2ac6 89be
00000310: 3e46 143d 48ed edbe 400a 4b3e 8f58 24be
00000320: 46a5 03be 9ab4 be3c ab6b 8f3b f084 a53c
00000330: b47b 0ebe e6f9 9dbd 7f2f dbbd 1a03 4fbd
00000340: 363c 52bb 7fcc 37bc 871e f0bd c3f7 13be
00000350: 1a21 65bc 68fa 27bc b716 99bd 6c15 1ebe
00000360: 9987 5cbd de7e 763c 489c edbd 98ff cebd
00000370: afc7 0fbe 6c50 1dbc eecd c8bd f7dc 743d
00000380: e591 25be 3e7e cbbd 3363 7dbd dd30 f2bd
00000390: d7f8 4d3c a840 a43b 0948 fcbc be52 89bd
000003a0: 6531 15bd 187a 91bd 1a21 9fbd 0b31 42bd
000003b0: 5ff8 03bd 2b6c b73c eef1 f83d 6a53 00bc
000003c0: f184 10bd a1ad 5f3c 06ad c23d 041c 14be
000003d0: 6570 b2bd 12c1 adbc 67de ffbd 74fb 113d
000003e0: 5bc8 e93d bec9 15bd 915e 073d a546 01bd
000003f0: 4883 a33c 7c53 753b 4c0d bbbd 8fe5 74bd

fc2.bias f4 [50]
0.8217749 1.1677821 -0.06544287 -0.035210494 -1.3743567 -0.07015596 0.22871304 0.21990097
0.12952736 1.4694743 0.21818744 0.58583677 -0.015508143 0.27956277 0.8902461 0.3418044
-0.1580672 0.19565037 0.15082943 -0.5611278 -0.045993283 0.77523726 -0.57312506 -0.24871941
-0.044320263 -0.042160507 -0.91748 0.43566638 -0.107123405 1.5552112 -0.08793658 -0.37618643
0.8698995 0.41738063 0.017417079 0.45269018 -2.2532015 0.517487 -1.2288235 -0.4949839
0.96562207 0.0080616735 -1.9702319 -0.5144766 0.7050971 -1.0653273 -0.58056134 -0.18051577
-0.013994159 -0.014998518
00000000: d75f 523f e279 953f e906 86bd e138 10bd
00000010: ecea afbf eead 8fbd c033 6a3e b82d 613e
00000020: d2a2 043e bc17 bc3f 876c 5f3e 66f9 153f
00000030: de15 7ebc da22 8f3e 2be7 633f fc00 af3e
00000040: 5edc 21be 9258 483e 0873 1a3e 12a6 0fbf
00000050: 7463 3cbd f375 463f 53b8 12bf 4db0 7ebe
00000060: 2a89 35bd 7fb0 2cbd f8df 6abf aa0f df3e
00000070: 8463 dbbd 2911 c73f 1818 b4bd 829b c0be
00000080: bcb1 5e3f eab2 d53e 43ae 8e3c 02c7 e73e
00000090: 7434 10c0 077a 043f 174a 9dbf 886e fdbe
000000a0: 0233 773f 1c15 043c 8f30 fcbf bdb4 03bf
000000b0: 3e81 343f a55c 88bf ab9f 14bf 20d9 38be
000000c0: c247 65bc 58bc 75bc

fc3.weight f4 [5, 50]
-0.06960789 -0.3270953 -0.048087012 0.15659404 0.0014437909 -0.12723257 -0.23080124 0.12534392
-0.2849484 0.50826347 -0.23515248 0.018182356 -0.032385953 0.025849033 0.018274544 0.5678591
0.16007785 -0.084410235 0.43451086 0.29480064 -0.0790693 -0.10589724 -0.36144787 -0.17810228
-0.093150444 0.28268188 -0.13345778 0.07601086 -0.3126304 0.18959251 0.032122575 0.036964025
0.050767273 -0.105291754 -0.010811734 0.13974512 -0.23242798 0.1665285 0.18448828 -0.73158294
0.21255407 -0.022268903 -0.028757233 0.053450257 0.11419848 -0.100353055 -0.2006553 0.43413433
-0.010811455 0.0086724 0.13136357 -0.23108335 0.06767185 0.08189968 0.054162033 -0.2888913
-0.48615608 0.04438456 -0.67509806 0.5226427 -0.6084856 -0.01224447 0.061326295 0.08862793
0.08607771 0.85440475 -0.07395267 -0.30680442 0.5442055 0.40540925 -0.14354846 -0.31881413
-0.45105442 -0.44927076 0.12431058 0.446276 -0.3544463 0.18454815 -0.78882694 0.22528426
-0.09258836 0.15960382 0.13211802 -0.060249105 0.16211611 0.29245088 -0.5791745 0.41253507
0.4352284 -1.5701935 0.5578666 0.061229546 -0.18750922 0.053528007 0.2693713 -0.2845528
-0.26769552 0.17810297 -0.13659346 -0.061799664 0.1759576 -0.12864703 -0.0028537048 0.012708796
0.18729001 -0.54347825 -0.8961744 0.02334977 -1.287322 0.32219458 -1.1864456 0.026759489
0.13584098 0.20633596 0.21420993 0.7846836 0.16716483 -0.6366054 0.25165072 0.4226811
-0.3258443 -0.5082194 -0.42021415 -0.63110435 0.10576847 0.29809734 -0.70154154 0.30621493
-1.4260327 0.2853293 0.0023350546 0.35614878 0.19209287 0.02763873 0.31671143 0.51176465
-1.1170532 0.78289473 0.82827353 -3.122823 1.1093246 0.039128516 -0.4089249 0.08666701
0.52003264 -0.57778144 -0.19130693 -0.039882094 -0.02221131 -0.077560514 0.020097112 0.041560274
-0.04632044 0.020516887 0.45204118 -0.84293437 -1.4302353 0.0010537265 -2.1199715 0.025301103
-1.9662493 0.046452623 0.025837611 0.13362531 0.3922669 0.28985724 -0.06953429 -1.0951383
0.002878224 0.19895938 -0.63453496 -0.6799556 -0.13397482 -0.9634578 0.053373747 0.10207739
-1.1911414 0.47243595 -2.2213402 0.34172207 0.051150903 0.6216342 0.29326198 0.18880068
0.19614837 0.7805502 -1.9030524 1.3228859 1.3427523 -5.122066 1.8330871 0.16086851
-0.6493775 0.19286543 0.881858 -0.96724945 -0.091448836 -0.13032484 0.012812943 0.07575727
-0.111745745 0.1757064 -0.09112535 0.039042927 0.85647076 -1.225261 -2.1036777 -0.054452363
-3.0894613 -0.43612167 -2.9427266 0.037415046 -0.02002334 -0.25730893 0.65541255 -0.9064029
-0.07532968 -1.7230829 -0.2363142 -0.28842953 -1.0844064 -0.84928745 0.3662169 -1.242945
-0.029911498 -0.3204318 -1.8499889 0.6844571 -3.2200131 0.38121754 -0.15349795 0.9765362
0.42290735 0.41541806 -0.26472124 1.1138946 -2.9769464 2.0998037 2.0106516 -7.6483073
2.6817338 -0.028588139 -0.93668455 0.41540575 1.3789545 -1.4817897 0.119120486 0.0076612425
0.05706281 0.018238198
00000000: 958e 8ebd 0979 a7be e3f6 44bd 305a 203e
00000010: 953d bd3a 4149 02be 2957 6cbe 285a 003e
00000020: c2e4 91be 8e1d 023f d0cb 70be 2af3 943c
00000030: 22a7 04bd 5ac1 d33c 7fb4 953c 375f 113f
00000040: 73eb 233e 46df acbd 3578 de3e 1cf0 963e
00000050: 16ef a1bd a7e0 d8bd b20f b9be 7260 36be
00000060: a9c5 bebd aebb 903e 28a9 08be 95ab 9b3d
00000070: 1711 a0be 8a24 423e f692 033d 9767 173d
00000080: 58f1 4f3d 34a3 d7bd b323 31bc 5819 0f3e
00000090: 9a01 6ebe 7286 2a3e 7fea 3c3e 0549 3bbf
000000a0: c6a7 593e 466d b6bc 4a94 ebbc a8ee 5a3d
000000b0: e5e0 e93d e785 cdbd 9578 4dbe db46 de3e
000000c0: 8722 31bc af16 0e3c 2c84 063e 1da1 6cbe
000000d0: 8a97 8a3d 05bb a73d 02d9 5d3d 8fe9 93be
000000e0: 73e9 f8be 96cc 353d 3ad3 2cbf e9cb 053f
000000f0: b6c5 1bbf 089d 48bc 4831 7b3d 8f82 b53d
00000100: 8349 b03d 45ba 5a3f 7f74 97bd 7815 9dbe
00000110: 0d51 0b3f cd91 cf3e 5efe 12be 9b3b a3be
00000120: 9bf0 e6be d106 e6be 8c96 fe3d 4a7e e43e
00000130: fc79 b5be 31fa 3c3e 90f0 49bf ebb0 663e
00000140: f79e bdbd 2f6f 233e f249 073e c4c7 76bd
00000150: c401 263e 1fbc 953e c844 14bf cc37 d33e
00000160: 42d6 de3e 1afc c8bf 58d0 0e3f d5cb 7a3d
00000170: 6b02 40be 2f40 5b3d 09eb 893e e8b0 91be
00000180: 630f 89be a060 363e 28df 0bbe a521 7dbd
00000190: 3b2e 343e 0cbc 03be 3905 3bbb 8e38 503c
000001a0: f4c8 3f3e 6421 0bbf af6b 65bf 0448 bf3c
000001b0: f8c6 a4bf b0f6 a43e 73dd 97bf b736 db3c
000001c0: e619 0b3e bc49 533e d959 5b3e 06e1 483f
000001d0: 422d 2b3e 92f8 22bf 5dd8 803e a869 d83e
000001e0: 10d5 a6be ab1a 02bf 4f26 d7be 0e90 21bf
000001f0: 249d d83d 37a0 983e 3a98 33bf 34c8 9c3e
00000200: 3d88 b6bf af16 923e b707 193b 2259 b63e
00000210: feb3 443e 9e6a e23c 0028 a23e 0203 033f
00000220: 99fb 8ebf ca6b 483f bc09 543f 55dc 47c0
00000230: 59fe 8d3f 3945 203d 9b5e d1be 797e b13d
00000240: dc20 053f 7ce9 13bf f7e5 43be 685b 23bd
00000250: 7ef4 b5bc 0cd8 9ebd b3a2 a43c 1b3b 2a3d
00000260: 80ba 3dbd 0813 a83c f171 e73e 8cca 57bf
00000270: f311 b7bf 321d 8a3a 9dad 07c0 4244 cf3c
00000280: 0fae fbbf 1b45 3e3d 66a9 d33c 13d5 083e
00000290: 35d7 c83e 2b68 943e fe67 8ebd 7e2d 8cbf
000002a0: 96a0 3c3b 02bc 4b3e e270 22bf 9211 2ebf
000002b0: b230 09be 2ca5 76bf 6e9e 5a3d f30d d13d
000002c0: 5277 98bf 20e3 f13e 702a 0ec0 32f6 ae3e
000002d0: 9c83 513d 6b23 1f3f 6f26 963e f754 413e
000002e0: 1edb 483e 23d2 473f 3997 f3bf 5354 a93f
000002f0: 4fdf ab3f f7e7 a3c0 99a2 ea3f b7ba 243e
00000300: 9b3d 26bf 847e 453e 72c1 613f a99d 77bf
00000310: 8749 bbbd e073 05be 61ed 513c a126 9b3d
00000320: f4da e4bd 61ec 333e ed9f babd 7aeb 1f3d
00000330: ab41 5b3f 5ad5 9cbf a8a2 06c0 7109 5fbd
00000340: bcb9 45c0 574b dfbe a255 3cc0 8540 193d
00000350: fd07 a4bc ffbd 83be 1ec9 273f 050a 68bf
00000360: 7346 9abd fb8d dcbf 5afc 71be 09ad 93be
00000370: d4cd 8abf e76a 59bf c880 bb3e d218 9fbf
00000380: f508 f5bc a30f a4be 70cc ecbf 9538 2f3f
00000390: b214 4ec0 f22e c33e 912e 1dbe 47fe 793f
000003a0: 5087 d83e adb1 d43e 8b89 87be 1994 8e3f
000003b0: 4a86 3ec0 2f63 0640 84ae 0040 efbe f4c0
000003c0: 87a1 2b40 ac31 eabc 8fca 6fbf 10b0 d43e
000003d0: 9581 b03f 49ab bdbf 71f5 f33d 290b fb3b
000003e0: b1ba 693d 4668 953c

fc3.bias f4 [5]
0.55759263 -0.12347002 0.0074593164 0.018945599 0.026119238
00000000: 64be 0e3f dadd fcbd 486d f43b cd33 9b3c
00000010: 03f8 d53c
